model_config/best_finetune_from_0.2_gas_to_ev_lstm.pt (torch, 436198 bytes, 25 tensors)

lstm.weight_ih_l0 f4 [172, 6]
000000 f7 9a 20 3e ac 90 3d 3b 36 09 0b be 37 79 17 bd
       0.15684114 0.0028925342 -0.13577732 -0.036980834
000010 a1 a2 87 bd a2 65 11 be 35 61 8f bd 0d 6f ae 3c
       -0.06622816 -0.14198926 -0.07000963 0.021293188
000020 95 38 5d 3c 7e ea 96 bd 16 51 9f 3d 27 71 42 bc
       0.01350226 -0.073689446 0.07779138 -0.011867798
000030 7c 95 a3 ba a6 6d 1c 3e 45 ca b1 bb b3 31 e4 3d
       -0.0012480463 0.15276203 -0.0054257237 0.11142292
000040 62 ed 04 3e cb e5 a7 bc 33 5f 3d 3e d3 a5 a5 bd
       0.1298118 -0.020495316 0.18493347 -0.08088269
000050 ad a6 f3 bd 91 1d 8f bd d3 95 aa 3d 52 e2 1c 3e
       -0.11897025 -0.06988061 0.08329358 0.1532071
000060 e6 23 e2 3c a4 88 91 3d d5 3d 5f bd 74 82 f6 bc
       0.027605008 0.0710614 -0.054502327 -0.030091502
000070 6d 8e 00 be 47 ad 10 3e 52 ab 1b 3e 37 5d fc bc
       -0.12554331 0.141286 0.15202072 -0.030806167
000080 28 89 1e be 4b 34 ee bd b7 dc 0c 3e 6a 21 94 bc
       -0.15482008 -0.11631068 0.13756071 -0.01808234
000090 2d 83 14 be b2 92 a3 bd 34 0a f0 3d bd a6 cb bd
       -0.14503165 -0.07986964 0.11720696 -0.09943912
0000a0 e6 3b 46 3e 2b e8 28 be f3 5b 1b be 85 6a 18 be
       0.19358787 -0.16494815 -0.15171795 -0.14884384
0000b0 a0 ca 5e bd af 87 5d be d3 03 d2 bd b6 f1 e6 3d
       -0.054392457 -0.2163379 -0.10254636 0.112765715
0000c0 02 64 2e 3e b7 b9 0e 3e b0 21 a1 bd f4 8a 40 bd
       0.17030337 0.13938032 -0.078677535 -0.047007516
0000d0 36 70 06 be 66 ef 23 bc 09 4f 69 3d 00 70 c6 bd
       -0.13128743 -0.0100058075 0.05696014 -0.09689331
0000e0 65 f3 34 3e 06 9e 02 be e2 73 c8 bd ed ef 1c 3d
       0.17670973 -0.12755594 -0.09787728 0.03831475
0000f0 7a c5 26 be c7 24 14 be 98 e8 9b 3d 40 d9 5c bd
       -0.16286269 -0.14467154 0.07612723 -0.053918123
000100 dd 10 ce 3d 8d 89 0d 3b 9e 1e 01 be a7 44 00 be
       0.1006181 0.002159688 -0.12609336 -0.12526189
000110 26 c8 54 bd ad 7c f3 3d 69 12 d5 3c 97 9a 21 3e
       -0.05194869 0.118890144 0.026009755 0.15781628
000120 d4 6f c0 3c f2 11 61 bc 3d 88 4b 3e f1 2e 05 3e
       0.023490824 -0.013737189 0.1987619 0.13006188
000130 e3 46 1e 3d 07 27 87 bc 73 63 87 3d 6b 58 0c 3c
       0.03864182 -0.016498102 0.06610765 0.008566002
000140 9b cd 97 bd cf 26 05 be 8c ec 80 bd cb 9e e2 bd
       -0.07412263 -0.13003086 -0.06295118 -0.110654436
000150 10 f8 62 bd f2 1f 25 bd 33 aa c1 3d 84 29 ef bd
       -0.055412352 -0.04031367 0.09456291 -0.1167784
000160 a2 d0 13 bd e8 ad 42 3d f3 88 da 3d 3c 2b 03 be
       -0.03608764 0.04752913 0.10670652 -0.12809461
000170 2c 63 8f 3d c5 40 e6 bd b3 26 89 bd 59 0a fc bb
       0.070013374 -0.112428226 -0.066968344 -0.007691663
000180 17 8c c0 bd 51 53 06 be a0 d5 bc b8 b5 91 a0 3d
       -0.0940172 -0.1311772 -9.004329e-05 0.078402914
000190 43 0f 22 3e f6 82 e2 bb 8d 71 b7 3d 64 f7 18 3d
       0.15826134 -0.0069125844 0.08957205 0.037345305
0001a0 b6 76 25 bd ea ae 07 be 78 55 da 3d 50 52 11 be
       -0.040396415 -0.13250318 0.10660833 -0.14191556
0001b0 32 19 18 bd 49 eb 8b 3d 95 bb 4a 3e 82 02 43 3c
       -0.037133403 0.068319865 0.1979812 0.011902453
0001c0 c4 63 2f 3e e8 b0 12 3d ff 00 d9 3d 64 ec 38 3e
       0.17127901 0.035813242 0.10595893 0.18058926
0001d0 24 79 01 3e 7c eb b8 bd 45 eb 45 bd a8 86 93 3d
       0.12643868 -0.0902929 -0.048320074 0.07203418
0001e0 e1 4e 42 3e 97 dc 18 3e ce d3 be 3d c6 11 07 3e
       0.18975402 0.14927898 0.09317742 0.13190374
0001f0 92 e0 26 bd be 1a b0 ba 54 b6 05 3c ef 1f 5c 3e
       -0.04074151 -0.0013435704 0.008161146 0.21496557
000200 0f 6d bb bc ed e8 40 bd 90 5d 46 3e 19 cd 0d 3e
       -0.022879152 -0.047097135 0.19371629 0.1384777
000210 e2 54 06 be 5f 98 b0 bc a8 d1 5c bd d9 80 57 3d
       -0.13118318 -0.021557031 -0.05391088 0.052613113
000220 3f 0b 28 3e 76 d3 e2 bb 41 ef 71 bd 6f 57 b7 3d
       0.1641054 -0.0069221808 -0.05906606 0.089522235
000230 6e 7b 09 3e 1f 62 3e 3e f5 73 27 be 50 ca dc bd
       0.13425991 0.18592118 -0.16352828 -0.107807755
000240 34 8d 5f 3d 7b b7 11 be c6 64 91 3d 7a df 9e 3d
       0.05457802 -0.14230148 0.07099299 0.077574685
000250 07 5f 1b be ef d9 05 be 87 31 1f bd 67 36 34 be
       -0.15172969 -0.13071416 -0.038865592 -0.17598878
000260 25 f1 3c 3e 7f 38 6b 3d af 5d c8 3c 38 95 2a be
       0.18451364 0.057426926 0.024458734 -0.16658485
000270 c8 12 62 3c c8 cf 0e bd fb ed 8d 3d cb 02 b9 3d
       0.013798423 -0.034866124 0.06930157 0.09033736
000280 d8 27 c7 3d a1 2f 24 be 74 c6 5d 3e e1 b8 95 bc
       0.097243965 -0.16033794 0.21657735 -0.018276634
000290 59 27 1e 3d 92 c9 33 bd ff d2 e7 bc 2b 9a ef bc
       0.038611744 -0.043893404 -0.028298853 -0.029248318
0002a0 ad a8 7b 3d 20 08 2f 3d 64 7c 1f 3e 84 0f ba 3d
       0.06144016 0.042732358 0.15574795 0.090849906
0002b0 0c 80 06 be 3f d9 81 3d 16 d2 46 3e 80 e5 a0 bd
       -0.13134784 0.063402645 0.19416079 -0.07856274
0002c0 d8 9a 1f 3e cc f6 32 bd 9a 14 01 bb 50 45 b1 bc
       0.15586412 -0.043692395 -0.0019696117 -0.021639496
0002d0 4e 20 34 3e 40 1e 16 be af 6d 6f bd 06 45 bb bd
       0.17590448 -0.14659977 -0.05845421 -0.091440246
0002e0 d1 84 0d 3e 4c bf 28 bc 78 ec 7c bd cd 86 95 3d
       0.13820197 -0.010299515 -0.06174895 0.07301102
0002f0 f0 83 4d 3e 2a 10 81 bd 6f a6 d8 bd 57 90 b2 bd
       0.20069861 -0.06301911 -0.1057862 -0.08718937
000300 e5 8d 61 3c 56 63 11 be b1 3a ce bc 6e 09 c2 bc
       0.01376674 -0.1419805 -0.02517447 -0.023686137
000310 89 fd 11 3e f0 36 af bd 7f f8 79 bd f2 b6 09 be
       0.14256872 -0.085554 -0.061028 -0.13448694
000320 39 6e 6a 3d 27 55 e9 bd 6f c3 23 bd 3f e5 e6 bd
       0.057234023 -0.11393195 -0.039981302 -0.11274194
000330 79 1e 29 be 3a 1c 8e bd 12 2b 19 3e e0 24 17 3e
       -0.1651553 -0.069389775 0.14957836 0.1476016
000340 53 3c e7 bd 0f d2 2b 3d 8d 3d fe 3d 36 a9 62 bd
       -0.11290803 0.041948374 0.12414084 -0.055337153
000350 97 50 95 3d 51 04 b5 bd e1 f7 f4 bd 56 d2 2e be
       0.07290762 -0.08838714 -0.11961342 -0.17072424
000360 24 00 02 3e 33 55 ae 3d 17 8f 67 bd 9b 2c 11 3e
       0.12695366 0.08512344 -0.056532945 0.14177172
000370 4b a0 c7 3d 09 38 07 3e 94 7b 9b bd 05 d4 ce 3d
       0.0974737 0.1320497 -0.0759193 0.10099033
000380 8f bb 0a be 4d 39 3b 3e 32 2d e3 3d 74 aa 43 3e
       -0.1354811 0.18283577 0.11092605 0.19107991
000390 6c 03 3c 3b 2f 93 a9 bc 70 a7 2a be 4f d1 23 3c
       0.0028688563 -0.020700065 -0.16665435 0.0099986335
0003a0 10 c9 91 bc e3 d9 15 bd 1b 05 77 3d 1f 97 a6 bd
       -0.01779607 -0.036584746 0.060307603 -0.08134293
0003b0 92 29 2f be 18 f9 c2 bd 95 55 49 be a9 0f 7f bc
       -0.17105702 -0.09520167 -0.19661553 -0.0155676985
0003c0 2b 89 3d 3e 5a c0 aa 3d 55 5a 25 bc 8d 9c 37 be
       0.18509357 0.083374694 -0.010092338 -0.17930813
0003d0 70 51 f6 3d 20 ea 28 be 9c 6b ac 3d 5c 44 1e 3c
       0.12027252 -0.16495562 0.08418962 0.009659853
0003e0 67 0d bf 3d 79 89 e1 bc 4a da de bd b8 db 22 be
       0.09328728 -0.027531372 -0.10881479 -0.15904129
0003f0 ee b2 45 3d b8 b8 10 bd 2a 1d e1 3d 40 49 88 3d
       0.048266344 -0.03533241 0.10991891 0.06654596

lstm.weight_hh_l0 f4 [172, 43]
000000 07 bb b4 bd 04 46 a7 3d 0f 95 81 3b af 4f 2f be
       -0.08824735 0.08167651 0.0039545367 -0.1712024
000010 b2 40 82 bd 80 2d 37 3d 49 1d b3 3b c5 85 8c bd
       -0.06359996 0.044721127 0.0054661375 -0.06861452
000020 fc 7d ea bd cc e0 99 3d 9a 9e 10 be 35 0a b5 bc
       -0.11449811 0.0751358 -0.14123002 -0.022099594
000030 d3 ba df 3d 51 e0 c6 bd 15 11 be bd 46 f3 1d 3d
       0.10924306 -0.09710754 -0.09280602 0.03856208
000040 43 04 25 3e e2 d6 1f 3e ad 87 a0 3d 1a cd 25 bd
       0.16114907 0.15609315 0.07838378 -0.040478803
000050 90 f4 ae bd 02 4e 79 3d d4 8c 32 be 70 31 d1 3d
       -0.0854274 0.06086541 -0.17436534 0.102145076
000060 86 c9 da 3d 01 07 65 3c 71 08 01 3e 79 40 5d bd
       0.10682969 0.013978721 0.12600876 -0.054016564
000070 b3 3b 40 be 98 76 64 ba d7 66 b9 3d ba f0 f7 bd
       -0.18772773 -0.00087151816 0.09052818 -0.12106462
000080 fd b6 9e 3d 5d f8 e6 3d 6c e3 ca bc a5 d1 f1 3c
       0.07749746 0.1127784 -0.024766646 0.029518912
000090 73 75 17 3d db 6b 19 3e 8f e5 f3 3d 76 d2 eb bd
       0.036977243 0.1498255 0.11909019 -0.115147516
0000a0 25 a2 9f 3d 8c 29 44 3d 31 a8 c8 3d 96 96 6a bd
       0.077945985 0.047891185 0.09797705 -0.057272516
0000b0 33 d4 10 be e0 60 15 3e 79 44 13 3d 09 e9 06 be
       -0.14143448 0.14587736 0.035953972 -0.13174833
0000c0 a8 e6 59 3a 21 9b 1e bc a9 8c 35 bc c6 ea 31 3d
       0.00083122635 -0.00968054 -0.011080899 0.043436788
0000d0 db 68 19 3e 70 81 b8 bd 39 cd 81 3d 13 f0 c6 3d
       0.14981405 -0.09009063 0.06337971 0.09713759
0000e0 23 91 20 3e d8 ca 2c bc 24 9a e8 bd b8 60 ac bc
       0.15680365 -0.010546409 -0.11357525 -0.021042213
0000f0 02 9d bc bc 0e ba 16 3d 78 69 eb 3d 3e 19 63 3d
       -0.023024086 0.03679853 0.11494726 0.055443995
000100 cc 3c f3 3c fb f0 ae 3d fd bf 16 be f7 ac 6a bd
       0.029692076 0.08542057 -0.14721675 -0.05729386
000110 c9 d6 01 3e db e9 25 bc 79 d6 23 be fd d2 13 3e
       0.1267959 -0.010126556 -0.15999784 0.14435954
000120 1c 7d 27 bc a0 68 86 bd b2 f8 13 3e 9e a4 8f bd
       -0.0102226995 -0.065629244 0.14450338 -0.0701382
000130 ba d2 dc 3c e5 cf 80 bc 5f 75 7f 3d b7 6f 2e be
       0.026955951 -0.015724132 0.062367793 -0.17034803
000140 0e 05 26 bd 12 eb 11 be 7c 58 e4 bd 9b b6 2a 3e
       -0.040532164 -0.14249828 -0.111496896 0.16671221
000150 68 f0 49 3d c0 ba 84 bd 93 d0 35 be 98 0b e3 3d
       0.049301535 -0.06480932 -0.17755346 0.11086196
000160 59 b9 01 be 6b 3d 99 3b 20 a4 09 bd ac 55 58 bd
       -0.12668361 0.004676511 -0.033603787 -0.052816078
000170 49 65 05 be cc 10 02 3e 2f 29 64 bd 95 d2 60 bd
       -0.13026918 0.1270172 -0.05570334 -0.054888327
000180 48 de 28 3e a1 ba 88 3d 62 3e eb 3c c6 66 5c bd
       0.16491044 0.06676222 0.02871627 -0.05380895
000190 ea 95 0e 3d 1a 81 13 bd f1 dd ef bd f2 02 b5 3d
       0.034810938 -0.036011793 -0.11712254 0.088384524
0001a0 5a 1b cd 3c 2a 2c b8 bd 3a 3f ed 3d 2a 6d 3e 3d
       0.025037456 -0.089927986 0.11584325 0.046490826
0001b0 96 87 e6 3c 2a 86 06 bd 4d 1a 04 bd ee 62 d8 bd
       0.028140824 -0.032842793 -0.032251645 -0.10565744
0001c0 78 b3 cf 3d 1f 50 ff 3d 9f 47 6e 3d 50 ed d8 bb
       0.10141653 0.12466454 0.058173772 -0.0066200867
0001d0 d1 b1 2e 3d 07 72 94 3d c9 b1 cb bd 0b dd ae bd
       0.042650048 0.072483115 -0.09946019 -0.08538254
0001e0 3d b4 17 3e 12 62 24 be 23 ef ab bd 3c f5 fc 3d
       0.14814849 -0.16053036 -0.08395221 0.12351462
0001f0 1e 31 09 be df b8 df bd 46 a6 bb bd 59 33 a0 bd
       -0.13397643 -0.10923933 -0.091625735 -0.07822294
000200 a0 ed e9 bd b6 96 2e 3d b3 77 e6 3c 33 d9 c3 3d
       -0.114222765 0.042624198 0.028133249 0.09562912
000210 d3 85 d5 3d 1d 54 c0 bd 31 78 df bd ed fa 10 bd
       0.104259156 -0.09391043 -0.109115966 -0.03539555
000220 19 34 84 3c 40 6c 59 bd 44 cb 46 3e 1f e8 c5 3d
       0.016138123 -0.05308175 0.19413477 0.09663414
000230 5d 28 f5 bd e6 f8 f1 bd d3 c3 f8 bd 30 33 17 bc
       -0.11970589 -0.11815052 -0.121467255 -0.009228513
000240 24 f5 03 bd 00 11 a9 bd 32 a8 c3 bb 32 24 23 bd
       -0.032216206 -0.082551956 -0.005970978 -0.03982944
000250 18 f5 54 3d 51 4a 53 3d 99 0a a3 bd 7c 42 e5 bd
       0.051991552 0.051584546 -0.07961006 -0.111943215
000260 b9 f8 c4 bd 06 d4 39 3e 2e ff c2 bc e8 b2 0a 3c
       -0.096177526 0.18147287 -0.02380332 0.008465506
000270 c2 1b 18 be 25 b9 89 3d cd 8b 51 bd 44 3f 4a 3d
       -0.14854339 0.06724767 -0.051158715 0.04937674
000280 32 12 cc 3d bf bf 98 3d 60 ff 40 3d 65 53 42 3d
       0.09964408 0.07458448 0.047118545 0.047442812
000290 60 f7 03 bd 49 55 28 3c 60 7a f1 bd 2b d9 b7 3c
       -0.032218337 0.01027424 -0.11790919 0.022442421
0002a0 ec 1d 54 bd f7 67 c8 3d 1c 0f b5 bd 2a 4b c8 3d
       -0.05178635 0.09785455 -0.088407725 0.097799614
0002b0 35 87 e1 bd cf 7b 17 3e fb b7 cf 3d 84 d3 c2 bd
       -0.11012117 0.14793323 0.10142513 -0.09513
0002c0 95 73 0d 3e e9 32 4b bd ff 88 e7 bd ad fc 12 3e
       0.13813622 -0.0496091 -0.11305427 0.143542
0002d0 56 13 2d be a8 78 9e bd 29 53 4e 3c b8 fc 9f bd
       -0.16901907 -0.07737857 0.012593069 -0.07811874
0002e0 df 31 7a 3d ec 3a a8 bd 2f 80 14 3e fb 34 b2 bc
       0.061082717 -0.082143635 0.14502023 -0.021753779
0002f0 00 1e f9 bd 45 5a 3a 3c 89 b0 e7 3d 11 e5 fa bc
       -0.12163925 0.011374061 0.11312968 -0.030626805
000300 2c 8d f7 3d c3 73 6e bd e7 e8 c3 3d 75 7d fc bd
       0.12087473 -0.058215868 0.09565907 -0.123286165
000310 87 66 da 3d 97 3b 6d bd 8b 0f d9 3d 7a 6d 51 3d
       0.10664087 -0.057918157 0.10598668 0.051129796
000320 ed ba 84 bc e3 dc 42 3e 4f 1f 37 be 82 0e 72 bd
       -0.016202414 0.19029574 -0.17883037 -0.059095867
000330 21 77 fa 3d e5 26 e0 bd 0d fc 1f 3e 5f 75 1a 3c
       0.12229753 -0.109449185 0.15623493 0.0094273975
000340 f1 76 33 bd 5f c2 b8 bd 3d 2f 3e 3d ec a9 1e be
       -0.043814603 -0.09021448 0.04643177 -0.15494508
000350 d3 7b e0 bd fa 6c 83 bc 46 83 40 3c 78 6d 10 be
       -0.109611176 -0.016043175 0.011750048 -0.14104259
000360 4e 90 0b be a2 ea 5d bd 62 76 f8 3d f0 a3 f0 bc
       -0.13629267 -0.05417884 0.12131955 -0.029375046
000370 f1 cf 0d be c3 b2 04 bd 0e 8b ac bc 91 32 fe bd
       -0.13848855 -0.032397043 -0.0210624 -0.124119885
000380 74 f1 24 be ed 2d 13 3e 2d 72 d2 bd 45 41 48 be
       -0.16107732 0.14372988 -0.102756836 -0.19556148
000390 d1 2f e9 bd 74 3e 27 3e 31 67 f4 bb 4b 2b 9e bd
       -0.113860734 0.16332418 -0.0074585904 -0.07723101
0003a0 77 15 1a 3e 11 7f d9 3d ab 19 0f 3e 1d e6 ae 3d
       0.1504725 0.10619939 0.13974635 0.085399844
0003b0 5d 4a 17 be c9 9c c5 3d 0f f5 d3 3b 1c fa cb bd
       -0.14774461 0.09649045 0.0064684222 -0.09959814
0003c0 39 77 f2 bd 2d 2f fa bd 7e 53 7f 3d 72 a8 1f 3c
       -0.11839146 -0.12216029 0.062335484 0.00974475
0003d0 dd fc c5 3d b0 a3 0f 3e 3a 83 93 3d 84 7e 09 3e
       0.096673705 0.14027286 0.07202764 0.13427168
0003e0 aa 21 7f bc 70 82 17 3e ad 0b bd bd 2b dc 44 bd
       -0.015571991 0.14795852 -0.092307426 -0.04806153
0003f0 3c 87 09 be e0 92 25 3e 82 7d 97 3c 8f 5f c5 bd
       -0.13430494 0.1616931 0.018492464 -0.09637367

lstm.bias_ih_l0 f4 [172]
000000 48 ef 1b 3d dd b3 e8 bd 95 dc 8d 3c f1 58 e2 3d
       0.038069993 -0.11362431 0.017317096 0.110521205
000010 02 f3 02 3e 06 e9 ad 3c 11 dc 28 bc c3 45 c8 bd
       0.12788013 0.021229278 -0.010306374 -0.09778931
000020 a3 3e 75 bc c0 57 33 3d 83 26 de 3d a8 70 e2 3d
       -0.014968547 0.043784857 0.10847189 0.11056644
000030 05 9c 1c 3c fe d0 d6 3d d1 de 8f 3d 94 ad 17 be
       0.009558682 0.10489081 0.07024921 -0.14812309
000040 cf d5 25 3e db ee a9 bd de 13 9f bd 3e 04 06 be
       0.16194843 -0.08297511 -0.07767461 -0.13087556
000050 a1 a4 88 bd 9e 9a e0 3d 66 cf b6 3d e0 55 50 3d
       -0.066720255 0.10966991 0.08926277 0.050863147
000060 f1 73 07 be f4 99 8e bd 6c 67 58 3d ce 27 1c 3e
       -0.13227822 -0.06962958 0.052833006 0.1524956
000070 23 cd c0 3c 19 52 16 be 56 32 b7 3d 97 04 20 bd
       0.023535317 -0.14679755 0.08945148 -0.039066877
000080 01 fe 5a bd 85 ff 39 bd b8 e6 26 bd 65 e9 a4 3c
       -0.053464893 -0.045409698 -0.040747374 0.020130822
000090 58 22 90 bd f4 37 18 be 06 8d 2c bd 1a 86 32 3d
       -0.070378006 -0.14865094 -0.042126678 0.04358492
0000a0 4a 10 b7 3d 77 98 11 be b9 58 35 3c 07 13 eb b9
       0.08938654 -0.14218317 0.011068516 -0.0004483687
0000b0 e5 a6 85 3d be 6d f5 bc e7 08 94 bd 89 f0 9e bd
       0.06525973 -0.029959556 -0.072282605 -0.07760722
0000c0 f8 16 58 bd 5d e8 bc 3d db 81 5e bc fc 95 01 be
       -0.05275628 0.09224007 -0.013580765 -0.12654871
0000d0 f6 d9 eb bc 16 6d e1 bd b4 22 5a 3d 1c 1c 08 be
       -0.028790455 -0.110071346 0.05325575 -0.13291973
0000e0 ff 3d 17 be cf 8c c2 3d ec f8 a8 3c 92 62 9e 3c
       -0.14769743 0.09499513 0.020626508 0.019334111
0000f0 1c 78 53 3d 1d 02 40 3e 02 7e 22 3e f0 43 f5 bd
       0.051628217 0.18750806 0.1586838 -0.11975849
000100 93 1c 1a 3e 6c 54 16 bd 28 3e ad bd 5e 58 aa bc
       0.15049963 -0.036701605 -0.08459121 -0.02079409
000110 51 78 e7 3d 51 c2 0b bd 96 ab 10 3e 6e 87 a4 3d
       0.113022454 -0.03412086 0.14127955 0.08033644
000120 6f cf cb 3d 47 c7 06 3e 1e e6 dd 3d f6 9d 8f 3d
       0.09951674 0.13161956 0.10834907 0.070125505
000130 d1 a0 0f 3d 4e 9e 7b bd 62 f4 d2 bd f0 8f cb bd
       0.035065476 -0.061430268 -0.103005186 -0.09939563
000140 33 5b 00 be ce 05 b3 bd eb 54 b6 3d 36 34 4d 3d
       -0.1253479 -0.087413415 0.089029156 0.05009862
000150 8c bf 59 bd 87 3e 91 3d 3f 0a 94 bd d7 a7 f5 3c
       -0.05316119 0.07092004 -0.07228517 0.029987259
000160 9a 81 90 bd 30 02 94 bc 80 08 8d bd 92 e8 ac bd
       -0.070559695 -0.01806745 -0.06886387 -0.08442797
000170 0a cf 04 be 24 66 bc 3d c0 ad 28 3d 8f 10 de bc
       -0.12969604 0.09199169 0.041181326 -0.027107505
000180 7c e3 86 3d 87 4b f9 3d a4 40 04 3e 85 d8 b8 3d
       0.06586358 0.12172609 0.12915283 0.09025673
000190 cc b9 26 3d fa 24 f3 3d 61 4a 88 bd 1f cd 7a bd
       0.040704533 0.11872287 -0.06654812 -0.061230775
0001a0 5f e5 dd 3d 42 e5 de bd 9d b6 cd 3b be d9 0f be
       0.10834765 -0.10883571 0.0062778727 -0.14047906
0001b0 f6 9c 1d 3d 02 8c cf 3d 0f c0 1b 3d 0e fe db bb
       0.038479768 0.10134126 0.03802496 -0.0067136353
0001c0 42 d6 77 bd b9 6d 88 bd 54 b2 a5 3b 40 92 14 be
       -0.060507067 -0.06661553 0.0050566588 -0.14508915
0001d0 5c 97 e2 3d cb 80 bf 3d dd e0 b5 bd c3 f9 ff 3d
       0.11064026 0.09350737 -0.0888078 0.1249881
0001e0 44 86 c7 3d f7 74 ce 3d c5 df 73 bd 58 93 39 bd
       0.09742406 0.10080903 -0.059539575 -0.045306534
0001f0 79 e7 03 be 39 b4 e1 3d f6 b1 d0 bd 62 03 de bb
       -0.12881269 0.11020703 -0.10190193 -0.0067753056
000200 e3 3b d1 bd e1 98 89 3d 5f 1d 06 be 71 1d 2b 3d
       -0.102165006 0.067186125 -0.13097142 0.041776124
000210 6a a8 1a be 70 0c 09 3c 1c f2 23 3d c4 b6 c3 3c
       -0.15103307 0.008364782 0.040025815 0.02389086
000220 23 1a 34 3c 0b 56 58 3d 6c e2 7f bd 9a 76 ca bd
       0.01099256 0.052816432 -0.062471792 -0.09885903
000230 ba 28 1c be d6 d0 07 3e fb fa dd bd 38 a5 c9 3d
       -0.15249911 0.13263258 -0.10838886 0.09845966
000240 ec ac b5 3d f6 35 91 bc ea 71 25 3e 52 97 24 3e
       0.08870873 -0.017725926 0.16156736 0.16073349
000250 45 d8 1b 3e bb 28 61 3d 75 e6 a6 bd 0e 18 16 3e
       0.15219219 0.054970484 -0.08149425 0.14657614
000260 de 47 f0 b9 16 eb 1e 3e 42 e8 03 3e 1c 22 65 bc
       -0.00045829912 0.15519366 0.12881568 -0.013985183
000270 55 ce c6 3d 33 f0 b3 bc 42 65 14 3e 37 e5 02 be
       0.097073235 -0.021965122 0.14491752 -0.12782751
000280 2e 30 ab 3d 86 5a 97 3d 67 0e 44 3d 52 02 2e 3d
       0.08358799 0.07390313 0.047865298 0.04248268
000290 53 b8 95 bd 9d 37 ca 3d 6e ce 11 3e 28 0a f6 3d
       -0.07310548 0.09873889 0.14238903 0.12013656
0002a0 e8 12 43 3c e8 25 12 3e f0 06 de bd 76 57 ac bd
       0.011906363 0.14272273 -0.10841167 -0.08415119

lstm.bias_hh_l0 f4 [172]
000000 f3 b1 bd 3d e8 c1 01 3e 5c ca 61 3c 5c 8a 66 3d
       0.09262457 0.12671626 0.013781156 0.056284294
000010 6d 4b c3 bc 7e 23 21 be 2e 9a b4 3d 26 e2 57 bd
       -0.023839677 -0.15736195 0.0881847 -0.052705906
000020 72 e9 da bd 75 fd df bb 7c dc 1b be bd 5d 8b bd
       -0.106890574 -0.0068356344 -0.15220827 -0.068049885
000030 58 32 9a 3d ca e5 cc 3d be ac 50 bd d3 5a 09 3d
       0.075291336 0.10004766 -0.05094599 0.033533882
000040 40 93 0a 3e 69 40 ba bd 3b 5e d0 3c 1c 6a c2 bd
       0.13532734 -0.090943165 0.025435558 -0.09492895
000050 45 fb 06 3c c6 93 01 3e c1 99 93 bd 35 f2 b2 bd
       0.008238618 0.12654027 -0.072070606 -0.087376036
000060 fb ad f1 bd f4 73 bc 3d 7b ff 0f be 0b 35 8f 3c
       -0.11800762 0.09201804 -0.14062302 0.017481348
000070 b6 54 0b be 5e 8b 91 3b cb 34 ea 3c 62 15 f2 bd
       -0.13606533 0.0044416627 0.028589627 -0.11820485
000080 c6 3c 01 3b 72 a0 e3 3c 07 dc ac 3c ed a6 b2 3c
       0.0019720062 0.027786467 0.021101011 0.021808112
000090 f9 cd 0b 3e 0b 0d dd 3d 2f 56 15 bb 49 b7 9b bd
       0.13652791 0.107935034 -0.0022786965 -0.07603318
0000a0 cb 31 06 3d ae 9c ed bd 84 60 a1 bc fd 01 0c 3e
       0.03276233 -0.1160215 -0.019699343 0.13672633
0000b0 74 c9 db bc d0 07 0c 3e 4c a8 dc bd eb e5 ea 3d
       -0.026829459 0.13674855 -0.107742876 0.114696346
0000c0 ce 1e 36 3d 6f b7 1b 3e ec b0 cf 3d 91 e5 29 3e
       0.04446297 0.15206693 0.10141167 0.16591479
0000d0 0f b0 ce bd 9a 58 2c 3d 56 36 ca 3c 8c bf f2 bd
       -0.10092174 0.042076685 0.024684113 -0.11852941
0000e0 87 b5 b7 3d 56 de 06 3d fe b6 36 3d bc cd c0 3d
       0.089701705 0.03292688 0.04460811 0.09414241
0000f0 a7 c6 85 bd 10 00 b0 bd 29 41 ec bd 3a a1 04 3e
       -0.065320306 -0.08593762 -0.11535866 0.12952128
000100 57 6d f0 3d 41 15 04 be 94 89 e0 bc 5b ce c2 bc
       0.11739605 -0.12898733 -0.027409352 -0.023780039
000110 84 43 70 3c 81 60 81 bd f2 ec 02 3e 10 43 0c 3e
       0.0146645345 -0.06317235 0.127857 0.13697457
000120 fc f8 0d 3d 4e 38 2a bd 4a 92 dc 3d 24 09 26 be
       0.034661278 -0.041557603 0.1077009 -0.16214424
000130 24 02 c6 3d b4 75 0b 3d 65 aa e3 3c 99 54 3a bb
       0.09668377 0.034047797 0.027791211 -0.0028431772
000140 ff 90 78 bc 13 c1 0e be 06 79 a0 3b cf 5b 56 bd
       -0.0151712885 -0.1394084 0.0048972396 -0.05233365
000150 f8 de 7a bd ac 3b a6 bc 2d ad 95 bd 50 4f c3 3d
       -0.061247796 -0.020292126 -0.07308421 0.09536612
000160 05 4d b4 bd 6c 92 65 3d ce 66 3d bd 0d a8 59 3d
       -0.08803753 0.056047842 -0.04624062 0.05313878
000170 dc 4e e3 3d 5c 78 6d 3d 78 84 3d 3d 26 ae 0e be
       0.110990256 0.05797611 0.04626891 -0.1393362
000180 19 3a dd bd 7c 2a fd 3b 94 f8 86 3d 64 c8 0b be
       -0.10802097 0.007726012 0.06590381 -0.13650662
000190 d3 8a 51 bd 11 06 98 3d 25 95 a7 3d 42 cf c1 3d
       -0.051157784 0.07423032 0.08182744 0.094633594
0001a0 47 ac fb bd 38 d2 3a 3d 82 3c 12 be 60 f2 f6 3d
       -0.12288719 0.045610636 -0.14280894 0.12057948
0001b0 42 4b ee 3d 03 3c 95 3c 7c f9 81 bc 97 80 2c 3e
       0.11635448 0.018217092 -0.015866034 0.16845928
0001c0 8d 88 1e 3e 98 c1 b5 bb 70 03 af bd ea 32 af 3d
       0.15481777 -0.00554676 -0.085455775 0.08554633
0001d0 c9 2e cd bd a1 2f 84 3d 95 de 8a 3b 1e 9c dd 3d
       -0.10018689 0.06454397 0.0042379596 0.108207926
0001e0 c0 d1 d9 3d 43 17 88 3d 83 50 f7 bd 0b 13 cc 3d
       0.1063571 0.06645062 -0.12075903 0.0996457
0001f0 87 bc ba bd f9 ae 19 be 70 74 61 bd 01 5f b0 bd
       -0.0911799 -0.15008153 -0.055042684 -0.086118706
000200 a2 99 30 3c 67 1f b5 bd df 65 3e bd 91 ee 1c be
       0.010778816 -0.0884388 -0.04648387 -0.15325381
000210 11 cf b4 3c 7b 61 57 bd 71 58 20 be 86 b9 27 bd
       0.022071393 -0.0525832 -0.15658738 -0.040948413
000220 94 3b c5 3c 64 ed 06 3e 04 31 0b bd 51 ec ba bd
       0.02407626 0.13176495 -0.03398229 -0.09127105
000230 70 e8 be 3d bf fe 2f bd d5 91 13 be d7 27 26 3c
       0.09321678 -0.042967554 -0.144111 0.0101413345
000240 39 9f f8 bd 1b d3 92 bc e7 96 35 3d da 17 97 bd
       -0.12139744 -0.017922929 0.044333365 -0.07377596
000250 72 12 ca 3d c9 a1 2a bd ae 80 09 3e 8b 37 98 bb
       0.098667994 -0.041658197 0.13427994 -0.004645293
000260 23 f3 3a bd 36 08 f1 bd 58 17 d2 bd 9b ae 93 3d
       -0.04564203 -0.11769144 -0.10258359 0.07211038
000270 62 ca 0c be ff ce 35 3c 0d fd c8 3c 31 f5 04 be
       -0.13749078 0.011096715 0.024534727 -0.12984158
000280 86 eb 51 3d d4 96 21 bd 60 31 3f bd 7d 1e b5 bc
       0.051250003 -0.03945048 -0.046677947 -0.022109265
000290 a5 f6 da 3d 9b bb af bc 72 6d 98 3d eb eb 5c bd
       0.10691575 -0.021451762 0.0744275 -0.053935926
0002a0 54 0b 15 3e 3f 45 15 3d 47 31 20 3c 4d ea 12 3e
       0.14555103 0.03644299 0.009777374 0.14347191

lstm.weight_ih_l0_reverse f4 [172, 6]
000000 5b cf 39 3e a7 d7 f3 3d 02 cc 29 3d f4 1f 86 bd
       0.18145506 0.11906367 0.041454323 -0.06549063
000010 3a e1 3b be e3 6d 83 bd dd 7a 45 3e e5 40 88 bd
       -0.18347636 -0.064174436 0.1928515 -0.06653003
000020 17 eb 9e bd bd 86 41 3e 3d 12 24 be 37 c7 1c be
       -0.077596836 0.18899055 -0.16022582 -0.1531037
000030 9a 9e 6e bd 07 17 b7 3c d1 24 6f 3d 1d e2 27 3c
       -0.058256723 0.022349847 0.05838472 0.010246781
000040 94 b8 d9 3d a7 5c 62 bd f8 f2 91 bd 4b 47 11 be
       0.106309086 -0.05526414 -0.07126421 -0.14187352
000050 df 7a 0e be b2 4f 2d 3e df 01 95 3d 27 7c a0 bd
       -0.13914059 0.16924933 0.072757475 -0.0783618
000060 f5 09 57 bd 78 07 92 3d 99 33 93 bc d6 b7 b3 bc
       -0.05249973 0.07130331 -0.01796894 -0.021938246
000070 c6 f9 c6 bd d6 bd 0d 3e ba 36 f0 bc 9a 66 b5 bd
       -0.09715609 0.13841948 -0.02932297 -0.0885746
000080 47 45 55 3e 2f 3b 59 3e 08 6d 9a 3d 55 02 77 bd
       0.20827208 0.21213983 0.07540327 -0.06030496
000090 fa 57 1f be 75 e1 3f 3e 24 f3 ef bd f1 dd db bd
       -0.15560904 0.18738349 -0.11716297 -0.10735691
0000a0 2d 8e 3c be 53 97 83 3d 2c 1a fc 3d 03 20 b5 3d
       -0.18413611 0.06425347 0.123096794 0.088439964
0000b0 97 90 90 b9 c3 6c 19 be cb 21 2d 3e 03 38 72 bb
       -0.00027573548 -0.14982896 0.16907422 -0.0036959655
0000c0 cc 2b 0b 3e cf 3d 63 3d ea 2b 91 3b 79 e0 15 3e
       0.13590926 0.055478867 0.004430284 0.14636411
0000d0 13 87 3d 3e 98 09 ee bd e1 28 2c bc e3 fb 00 be
       0.18508558 -0.116229236 -0.010507793 -0.12596087
0000e0 69 f7 81 3d aa 48 5c bd ba 6e 66 bd 13 c9 18 be
       0.06346018 -0.053780235 -0.05625794 -0.14920454
0000f0 6c 25 d6 bd c8 47 32 bd 21 6c 0f 3e cc 64 2b 3e
       -0.104563564 -0.043525487 0.14006092 0.1673767
000100 b8 f7 62 3b 28 f1 d9 3d fa 3f 28 be c8 f3 f4 bd
       0.0034632515 0.106417 -0.16430655 -0.1196056
000110 9e 2a dd 3d 65 75 df bc 28 32 e2 3d 30 71 cf 3d
       0.10799144 -0.027277658 0.11044723 0.10129011
000120 52 f6 e2 3c f7 f6 d8 bd ba 32 29 3e e8 5b dc bc
       0.027705345 -0.1059398 0.16523257 -0.026899293
000130 04 0f fc bd e4 b4 07 bd b5 50 32 be 7c 17 43 bd
       -0.123075515 -0.033131495 -0.174136 -0.04762982
000140 cc ad 03 3e e5 bf 4c be 61 37 9f bd 54 1e 29 3b
       0.12859267 -0.19995077 -0.077742346 0.002580543
000150 bc 37 37 3e ee 48 fa 3d ef c3 10 3e d6 af 33 3e
       0.17892355 0.122209415 0.14137243 0.17547545
000160 08 1d 05 3e f0 d6 08 3e 70 e6 36 3e b6 a2 23 be
       0.12999356 0.13363242 0.17861342 -0.15980038
000170 c8 72 07 be c6 50 19 3d c9 69 48 bc 23 e5 3d be
       -0.1322738 0.037430547 -0.012232252 -0.1854444
000180 f1 9b bf 3c ce 60 69 3e dd 9a 6f 3d fe b4 d0 bc
       0.023389788 0.22790834 0.0584973 -0.025476929
000190 6d 9f d0 3d 45 eb b7 3a 60 8e 16 be f3 7f f6 3d
       0.10186658 0.0014031908 -0.14702749 0.12036123
0001a0 61 cb 9b 3d 57 4a 55 3e 93 98 45 3c c4 53 b3 bb
       0.07607151 0.2082914 0.012060302 -0.005472632
0001b0 a6 f1 11 3e 77 27 11 bc d7 80 50 bb 25 7e fb 3d
       0.14252338 -0.008859507 -0.0031815076 0.122799195
0001c0 63 c4 10 3e 48 9e d1 3d 8d ec 9c bc 48 5e 07 be
       0.14137416 0.10235268 -0.019155765 -0.13219559
0001d0 1b 17 f6 bd 61 a8 f8 3b a0 71 42 bc b7 4a 06 bd
       -0.12016126 0.0075884317 -0.011867911 -0.032786097
0001e0 73 ca fa 3d bb 86 c5 3b ea 28 ce bc b4 fd 6b 3d
       0.122456454 0.006028024 -0.025165994 0.057614997
0001f0 47 7b 4d bd 00 19 c6 3d 88 10 a6 bd a2 ad 31 3e
       -0.050166395 0.09672737 -0.08108622 0.17351392
000200 ed bf 09 bd 14 d1 1a 3e 23 49 3d 3e 15 78 18 bd
       -0.0336303 0.1511882 0.1848493 -0.037223894
000210 e4 6c 32 be 69 25 26 3e 07 2e 87 3d 03 c1 17 be
       -0.17424351 0.16225208 0.06600576 -0.14819722
000220 a1 03 de 3d d0 36 23 3e ce 9c fb bd 53 f2 15 3e
       0.10840536 0.15938878 -0.122857675 0.1464322
000230 86 d2 4b bc 1c 89 b5 3d 0f 49 95 3d 95 8b a9 3c
       -0.012440329 0.08864042 0.072893254 0.02069644
000240 2f fb b2 3d a9 13 60 bc b5 b4 c5 3c 23 5d a0 bc
       0.08739316 -0.013676562 0.02413402 -0.019575661
000250 e3 1b 68 3e 4a 97 ab 3b 79 30 aa 3d 47 ec 06 3d
       0.22666888 0.005236541 0.08310027 0.032940175
000260 cd 3b 03 be c8 ac 16 3d ee 45 16 3e 6f 9c 53 3c
       -0.12815781 0.03678587 0.14675114 0.012915715
000270 fd 89 65 bd 71 27 ff 3d d9 48 f9 bc e1 37 1a 3d
       -0.0560398 0.12458695 -0.030430244 0.037650947
000280 39 d6 d9 bb db 39 4f be 6b b9 03 3e 24 e2 0f 3e
       -0.006647852 -0.20236914 0.128637 0.1405111
000290 b7 64 2c bd d2 62 73 bc 2f db 3a 3e f8 e6 10 3e
       -0.042088237 -0.014855104 0.18247674 0.14150608
0002a0 f1 96 f9 bd 3c 0b 1f 3e 22 6c 66 bd 29 49 99 bd
       -0.12186993 0.1553163 -0.056255467 -0.07484657
0002b0 88 3a 49 3e 73 a6 b0 3d a9 ff 0b be 68 b5 c0 bd
       0.19651234 0.08625498 -0.13671745 -0.094096005
0002c0 21 43 1a be c0 c2 9e bc a3 f4 8e bc 87 f2 05 3e
       -0.1506467 -0.019379973 -0.017450636 0.13080798
0002d0 46 64 b6 bd d0 80 8d 3d a4 c3 d2 3b 7d 78 f5 3a
       -0.089058444 0.06909335 0.0064320136 0.0018727925
0002e0 95 bf 06 3d 4c cc 29 bd 40 84 15 be cc b8 20 bd
       0.03289755 -0.0414546 -0.1460123 -0.039238736
0002f0 71 9a 89 bd 7b 77 33 be 43 98 d1 3d 42 61 91 3d
       -0.067189105 -0.17526047 0.1023412 0.070986286
000300 c2 41 13 3d 79 10 f3 bd 64 41 e6 bd a3 3d 0f 3e
       0.035951383 -0.11868376 -0.11242941 0.13988356
000310 6b 19 6a 3d af 77 29 3e bd 74 1b 3e 9d 45 01 39
       0.057153147 0.16549562 0.15181251 0.00012328332
000320 b2 55 5e 3c cf 63 f0 3d 48 ae b1 3d f9 f8 39 3d
       0.013570236 0.11737787 0.0867582 0.045403454
000330 5a 7c 62 3d 9d 7b 81 3d 40 3a 88 3d f6 e8 17 3c
       0.055294372 0.063224055 0.06651735 0.009271851
000340 37 65 a0 bd 24 9c f2 bd 27 8e ba 3d 46 e6 f5 3d
       -0.07831805 -0.11846188 0.09109145 0.12006812
000350 c3 06 bf 3d 22 07 92 bc 38 5f e0 bd 64 55 0d be
       0.093274616 -0.017825667 -0.109556615 -0.13802105
000360 41 38 19 3e dc 7c d6 3c 12 c5 24 be fe d5 32 be
       0.14962865 0.026182584 -0.16090801 -0.17464444
000370 db 0a f1 3c 9e 92 d8 3d c8 6d c9 bd a2 18 f3 3d
       0.029424122 0.1057484 -0.09835392 0.11869933
000380 a9 e9 0b be 6e 29 f9 3d 8b 45 11 be 88 7c 69 3d
       -0.13663353 0.12166105 -0.14186685 0.057003528
000390 13 45 02 3e cd 3e 78 3d d2 13 08 3e 56 19 5f 3e
       0.12721662 0.060606766 0.13288811 0.21787009
0003a0 29 df 16 3e d0 a9 f7 bd a9 e3 ee 3c 20 55 10 be
       0.14733566 -0.12092936 0.029161291 -0.14094973
0003b0 1d 26 3f bc 2a f0 64 3e 76 e8 1d be 5a 5d 13 3e
       -0.011666802 0.2235724 -0.15420708 0.1439108
0003c0 6c 28 33 be 08 a3 9f bd e7 76 01 3e e9 79 81 be
       -0.17495888 -0.077947676 0.12643014 -0.25288323
0003d0 ad fc 58 3c 0e ea 00 3e 9e 7b 4c 3e a7 3c e2 3d
       0.013243836 0.12589285 0.19969031 0.11046725
0003e0 fb 2b 12 be 8b f3 19 3e 2b de 85 bd 8a 9e 5f 3d
       -0.1427459 0.1503431 -0.06536516 0.054594554
0003f0 3d d6 1e be ec 10 a6 3d 00 21 37 be 4f 9e b8 bc
       -0.15511413 0.08108696 -0.17883682 -0.022536425

lstm.weight_hh_l0_reverse f4 [172, 43]
000000 ca 53 2c 3d d4 22 1b 3e 6b 32 26 be 9e d9 1a 3d
       0.042072095 0.15150005 -0.1623017 0.037805192
000010 0d 85 06 3e 37 84 af 3c 65 68 1c be e8 97 2d 3e
       0.13136692 0.02142535 -0.15274198 0.16952479
000020 36 45 33 be e8 8f 31 3e 1e fb 44 3d 3b ed 0b bd
       -0.1750687 0.17340052 0.048091047 -0.034161787
000030 71 d7 c5 3d 5a 2d c1 bd 75 a0 4c bd 9a 3e 5a 3e
       0.09660233 -0.09432478 -0.04995771 0.21312943
000040 ae 23 7a bd 84 9c f9 bd 86 20 50 3d b6 8b 66 bd
       -0.061069183 -0.12188056 0.050812267 -0.056285582
000050 d4 f7 7a 3d 70 ce 67 3d 35 80 09 be 25 f1 0b 3e
       0.061271504 0.05659336 -0.13427813 0.13666208
000060 3e 1b 0e 3e c8 4a 1c be 51 83 e4 3d 25 b5 42 3e
       0.1387758 -0.15262902 0.11157859 0.19014414
000070 3e ca e8 bd f4 5c dc 3b 23 b4 90 bd 97 e2 17 be
       -0.113667 0.006724948 -0.07065608 -0.14832531
000080 f6 3a bf 3d aa e6 89 3d a6 74 cd 3d 1d 7e 5b bc
       0.09337418 0.06733449 0.100320145 -0.013396767
000090 21 ce b7 3c a0 01 87 bd 1a e0 65 3d 89 08 90 bb
       0.022437157 -0.06592107 0.056121923 -0.0043955487
0000a0 c4 05 6a bc 7a bf 10 bd 25 e6 24 3b 30 4b b5 3d
       -0.014283601 -0.035338856 0.002516159 0.088522315
0000b0 b4 f6 1f 3d e3 44 e3 3d b9 e3 9a bd 88 3b 35 3e
       0.039053634 0.110971235 -0.07562966 0.1769849
0000c0 03 cc 0c 3e 4d 98 b3 3c 47 40 20 bd da dc 53 bd
       0.137497 0.021923209 -0.0391238 -0.051724292
0000d0 97 a1 56 bd a2 96 e0 3c 00 1e c3 3d ce 5e fb 3b
       -0.052400198 0.027415577 0.095272064 0.0076712137
0000e0 91 b9 b4 bc be ce 43 3d c7 59 cb bc 97 ec bb 3d
       -0.022061141 0.047804587 -0.024823083 0.09175985
0000f0 e2 ab 95 bc 6f eb 06 3e 44 bf 28 be 88 1b c8 bd
       -0.018270437 0.13175748 -0.16479212 -0.09770876
000100 48 ad a2 3d 59 ba 0f bd 61 b6 ab bd 12 53 76 bc
       0.07943207 -0.035089824 -0.083843954 -0.015034454
000110 c3 e5 e8 3d a8 ce 0d be d8 72 37 bd 35 54 35 be
       0.113719486 -0.13848364 -0.044787258 -0.17707904
000120 e7 5f 0f bc 5a 92 6d 3d 58 20 0a be b1 c2 31 bd
       -0.008750892 0.0580009 -0.134889 -0.043398563
000130 64 2c 31 be 98 fc b5 3c f9 4e 45 3d b4 18 83 bc
       -0.1730209 0.022215173 0.048171017 -0.01600299
000140 f8 a3 a2 bd 8f 06 16 bc b6 de 38 3c 6c 2c 38 be
       -0.07941431 -0.009156837 0.011283567 -0.17985696
000150 3a 51 b4 bc 92 74 2c be bd 45 88 bd 7f d6 12 bd
       -0.022011388 -0.16841343 -0.066539265 -0.03584909
000160 dd 29 8b 3d 98 75 0c 3e 37 de 92 3c 37 99 25 be
       0.06795094 0.13716733 0.017928226 -0.16171728
000170 60 98 0e 3c df 11 87 3d b2 38 14 3e ec aa 13 be
       0.008703321 0.065952055 0.14474753 -0.1442067
000180 e4 c7 83 bc 0c 1f 22 be c4 f7 12 3e 99 57 87 3d
       -0.016086526 -0.15832156 0.14352328 0.06608505
000190 21 31 10 be 33 15 cc 3d 17 9e c3 3c 6d bb 86 bd
       -0.14081241 0.09964981 0.023879094 -0.065787174
0001a0 54 38 a2 bd c7 c1 1a 3e 30 82 84 bd af 8c 07 be
       -0.079209 0.15112983 -0.06470144 -0.1323726
0001b0 e7 21 b8 bb 28 6e 29 bc 59 c3 e8 3d a2 20 1c 3e
       -0.005619276 -0.010341205 0.113653846 0.15246823
0001c0 4b 9b dd bd 06 52 e9 3d 99 a3 1f bc 38 12 89 bd
       -0.108206354 0.11392598 -0.009743595 -0.06692928
0001d0 ee 75 3f 3d 5d 80 47 be 0f be 0c 3c 8a 33 33 be
       0.046743326 -0.1948256 0.008590235 -0.1750013
0001e0 a0 81 16 3d 3f 42 6c bd 65 04 d9 3d 6b 82 9b 3d
       0.036744714 -0.057680365 0.10596541 0.07593235
0001f0 b7 de c8 3c 01 aa d5 3d 4b 67 e5 bd 10 5a b9 3d
       0.024520261 0.10432816 -0.11201342 0.09050381
000200 51 ea e5 3d 3d c3 42 3e 61 02 fd 3b 8f 08 67 bd
       0.11226333 0.1901979 0.007721231 -0.056404646
000210 f0 20 5b bd c2 45 a4 3d 5f 9a ef 3c 3b 57 05 be
       -0.05349821 0.08021118 0.029248415 -0.13021557
000220 1c 77 cf 3a 27 ee 69 3d d6 13 9f bd 57 73 72 bd
       0.0015828344 0.057111885 -0.07767455 -0.059192028
000230 31 de ea 3d dd d8 df bd d1 b6 fe bd 8a ba 3a 3d
       0.11468161 -0.10930035 -0.12437213 0.045588054
000240 50 9b 15 be 09 33 28 be 21 6a 20 3c 29 3e ca 3d
       -0.14610028 -0.16425718 0.009790928 0.09875137
000250 55 b8 b6 3d 4d f9 ab 3d 34 5d 97 bd 8d 45 f4 3d
       0.08921877 0.0839716 -0.07390824 0.11927328
000260 3f 70 72 bd a5 84 ee bd 11 a6 4f 3c 8a 26 cc bd
       -0.059189077 -0.11646394 0.012673871 -0.09968288
000270 8a 9d 12 3e d8 2c 9f bd f4 64 db bd ed 4a f9 bd
       0.14317909 -0.07772225 -0.10712615 -0.12172494
000280 df 06 c0 3d 95 3e 1d be a9 8c 8c bc 65 62 82 bd
       0.093763106 -0.15355904 -0.017156916 -0.063664235
000290 6c b8 bf bc cc 72 f7 3d 93 ac b5 bd f2 63 e9 3d
       -0.023403369 0.12082443 -0.088708065 0.11396016
0002a0 86 18 f5 3d 32 d9 11 3c aa bb 78 3d 7c a3 a7 3d
       0.11967568 0.008901881 0.060725845 0.08185479
0002b0 24 9a bc bd db 9f 44 bc 8c 33 01 3e 96 fb e4 3d
       -0.092090875 -0.012001003 0.1261732 0.11180799
0002c0 18 b5 e6 bd a3 e7 05 3e 86 74 7c bd f1 9a 83 3d
       -0.1126501 0.13076644 -0.061634563 0.06426037
0002d0 d2 17 13 be 22 00 01 bd 17 fa 03 3e dd 9b 19 3e
       -0.14364555 -0.031494267 0.1288837 0.15000863
0002e0 97 e6 49 bd 60 ca 5e 3d 64 7a 10 be e1 e0 0c 3e
       -0.049292173 0.05439222 -0.14109188 0.1375766
0002f0 a3 20 33 be 7a bd 2c 3e 9f d2 00 bd c8 91 38 3d
       -0.17492919 0.16869155 -0.031450864 0.045060903
000300 58 e6 b8 3b 30 99 a0 bc 5f 6e 13 be a7 d3 2d be
       0.0056426935 -0.019604295 -0.14397572 -0.1697527
000310 5a c8 9f bd 9e c2 23 3d 83 81 ff bd 3d cc 3f be
       -0.07801886 0.039980523 -0.12475874 -0.18730254
000320 8d bb be 3c 11 99 bf 3d a2 5d ba bd f4 1e 26 3e
       0.02328279 0.09355367 -0.0909989 0.16222745
000330 1e 43 09 be 76 6b 72 bc 07 ae ea bd 55 69 4e 3d
       -0.1340451 -0.0147961285 -0.11458974 0.05039342
000340 d4 53 90 3d 62 9a 76 3c ec df 36 be 1a 5e 9d bd
       0.07047239 0.015051456 -0.17858857 -0.07683964
000350 1a c0 83 3d 0b 52 04 be b8 79 e5 bd 40 87 5b 3e
       0.06433125 -0.12921922 -0.11204857 0.21438313
000360 1a b2 b6 3d 8d 87 ff 3d 9a 1e 5c 3d 09 ba 20 be
       0.08920689 0.12477026 0.05374012 -0.15695967
000370 51 81 06 bd 44 c4 b5 3c 12 92 24 3e a9 83 0b be
       -0.03283817 0.022188313 0.16071346 -0.13624443
000380 84 4b 33 3e c9 84 ca bc 72 3f 00 3e 5b 0e 2f be
       0.17509276 -0.02472152 0.12524202 -0.1709532
000390 08 5e 13 3d 03 07 ef 3d 8c 12 c1 3d ae 4d e7 ba
       0.035978347 0.11671259 0.09427366 -0.0017647052
0003a0 20 7e 37 bd b8 92 80 3c 69 8c b5 3d 2a ec 66 3d
       -0.044798017 0.015694961 0.08864672 0.056377567
0003b0 d3 e0 0d bd 34 b4 fc bd f4 ed 17 3c 0b 9c 11 bd
       -0.034638237 -0.123390585 0.009273041 -0.035549205
0003c0 30 d5 c2 3d 6e cd 2d 3e 1e e4 19 3e f8 23 12 be
       0.095133185 0.16972896 0.15028426 -0.14271533
0003d0 0c 5b ac 3d fe 8c f9 bd cd 69 37 3e 80 78 0b 3c
       0.08415803 -0.12185095 0.17911454 0.008512616
0003e0 95 3c 46 3c 33 bb 16 be be 35 07 3e 0e 37 a7 3d
       0.012099405 -0.14719848 0.13204095 0.08164798
0003f0 d3 6d 98 bd b5 59 31 3e 29 17 ca 3d d8 7c 33 3e
       -0.07442822 0.17319377 0.09867699 0.17528093

lstm.bias_ih_l0_reverse f4 [172]
000000 95 b3 f9 3d 80 ac fd 3d 70 40 47 3c 67 91 c1 3d
       0.12192456 0.123864174 0.012161359 0.094515614
000010 e5 68 64 3c 19 ff 8a bd d3 74 a7 bc c6 64 c0 bc
       0.013941024 -0.06786937 -0.020441448 -0.023485553
000020 2e 75 09 3d 91 c3 91 bd b0 b5 0b bd 6b 1a 7a bb
       0.033559017 -0.071173795 -0.034108818 -0.003816272
000030 9f ce 41 bc 51 10 51 bd e0 4e a1 bd 02 16 0f 3e
       -0.011829047 -0.05104095 -0.07876372 0.13973239
000040 60 9d eb 3d 5b 4b b2 3d 38 ae 98 bd 24 6a 62 bd
       0.11504626 0.08705779 -0.074551046 -0.055277005
000050 46 63 33 bd 09 5b 2c 3e ce 22 b3 bd 6c 85 c7 3d
       -0.043795846 0.16831602 -0.08746873 0.09742245
000060 f8 7d 85 3d 69 94 23 ba d2 c7 59 bd b0 50 b4 bd
       0.06518167 -0.00062400714 -0.05316908 -0.088044524
000070 e4 cf f4 3d 73 b7 b1 3d 92 73 05 3e f5 c1 04 be
       0.119537145 0.08677568 0.13032368 -0.12964614
000080 9e af d5 3d 6f 52 df bc 33 01 fd bc dc 5b 82 3c
       0.10433887 -0.027260987 -0.03088436 0.015912943
000090 46 c6 af bd 4a 80 a1 3d 95 e0 f9 3d db f2 46 3c
       -0.085827395 0.07885797 0.12201039 0.012142862
0000a0 25 07 c6 3d ec 34 34 be 2a 14 5a bb a5 94 c6 bd
       0.096693315 -0.17598313 -0.003327618 -0.096963204
0000b0 34 3f 15 3d 7f 31 ee bc 67 87 1a 3c 1a 3b e4 3d
       0.03643723 -0.029076336 0.0094316965 0.11144085
0000c0 0d d8 01 3d e7 e6 22 bd 9d a5 08 3e c5 b5 17 be
       0.031700183 -0.039770987 0.13344426 -0.14815433
0000d0 8c a2 3b bd e6 5d 0b be 71 34 86 3d 6c f0 97 bd
       -0.045809314 -0.13610038 0.06552971 -0.07418904
0000e0 5c 89 b1 3d 98 55 c4 bc cf 98 2c 3e 03 ba 95 3d
       0.08668777 -0.023966596 0.16855167 0.073108695
0000f0 a5 d4 93 3d aa 53 c5 3d f8 d1 f8 3d 18 bb e8 bd
       0.07218293 0.09635098 0.12149423 -0.1136381
000100 a2 6a b8 3d b8 9b 0b 3d 22 0b f2 3d 51 d7 8c bd
       0.090047136 0.03408405 0.1181853 -0.06877006
000110 7a 4b 8f bd 3e 81 1c be c6 d7 a0 3c 1f 4b 1d 3e
       -0.06996818 -0.15283677 0.019634139 0.15360688
000120 00 63 ac 3d 0b 2c a4 3d b5 4a 41 3c b8 4e af 3d
       0.0841732 0.08016213 0.011797597 0.08559936
000130 cc 81 a7 bb b5 97 93 3d 2e a5 14 bd 34 9a ce bd
       -0.0051119085 0.0720667 -0.03629034 -0.10088006
000140 4e ca 1e be 4a 61 b5 bd 19 12 00 bc 3e 9f d8 bd
       -0.1550686 -0.08856447 -0.007816815 -0.10577248
000150 ab 6c 05 3d c0 c2 dd 3d c6 8c 19 be 00 b0 a3 bd
       0.032574337 0.10828161 -0.14995107 -0.07992554
000160 6d 45 da bd 73 bb 77 3c 22 d2 23 3d 4d f5 94 3c
       -0.10657773 0.015120375 0.03999532 0.018183375
000170 9b 5c a3 3d 38 6d 68 3d 05 a0 b2 bd a5 27 54 3d
       0.079766475 0.056744784 -0.087219276 0.05179562
000180 ec 3c 19 bd 9f cf 0e be 53 a1 fd bc 94 e9 b2 bc
       -0.037411615 -0.13946389 -0.030960714 -0.021839894
000190 72 56 6f 3b 92 84 0a bd f3 3d 01 be 92 e8 a7 bc
       0.0036520031 -0.033817835 -0.12621288 -0.02049664
0001a0 1d 26 d8 3d 9e d0 65 bd 25 40 26 be d3 ef 8c 3d
       0.105541445 -0.056107156 -0.16235407 0.0688168
0001b0 78 c7 01 3e 25 03 df 3d 79 42 00 be c4 22 2d bd
       0.12673748 0.10889272 -0.12525357 -0.042269483
0001c0 9a 97 bd 3d 06 fc 0f 3d f7 c4 9d bd 51 3c f6 3d
       0.09257431 0.035152458 -0.07703584 0.12023223
0001d0 78 11 5b bc 01 49 87 3d b4 20 18 3e b5 d3 5b 3d
       -0.013370864 0.06605721 0.14856225 0.053668696
0001e0 b8 8f 02 be 64 ef 20 3d f6 da 85 3d ea b9 45 bd
       -0.12750137 0.0392908 0.06535904 -0.048273005
0001f0 ca 1c 34 bd 58 b1 0d 3e 02 fd fd 3b 76 c5 cb 3d
       -0.043972768 0.13837183 0.007751108 0.09949772
000200 ef a3 d6 3d be 01 9b 3d 0a e3 ae 3c 61 54 7d bc
       0.104804866 0.07568692 0.021348495 -0.015462012
000210 d3 d6 be 3d 99 dd 96 3c 5f ed 2b 3e ff 5f 9a 3c
       0.09318318 0.018416213 0.16789769 0.018844603
000220 b8 9e 00 3d ca 85 a9 bd 2c 00 f6 3d 31 56 1a be
       0.031401366 -0.08277471 0.120117515 -0.15071942
000230 9a 50 f3 bd 73 88 de bc 1b 24 ae bc 96 87 16 3e
       -0.11880608 -0.027164673 -0.02125745 0.1470016
000240 29 e9 50 bd 94 0e 06 be 9f ad d2 bd 1a 41 06 be
       -0.05100361 -0.13091499 -0.10287022 -0.13110772
000250 36 b1 9c 3d 13 d0 28 3d ed 66 ec 3b dd d5 58 3d
       0.07650988 0.04121406 0.007214418 0.05293833
000260 1b 06 12 3e 43 2c f0 3d b6 03 14 3b d6 3c d2 bd
       0.14260142 0.11727192 0.002258522 -0.1026551
000270 4c 5f ae 3d f9 a1 13 3e ee 30 b8 bd 55 6b a0 bd
       0.0851427 0.14417256 -0.089937076 -0.07832972
000280 f0 6c de 3d 45 6f 06 3d ce 10 f9 bc 9d 00 23 bd
       0.10860622 0.03282096 -0.03040352 -0.039795507
000290 ef dd c1 bb 8a c4 fd bd 13 4d a3 3d 69 fb 2b bd
       -0.005916349 -0.123910025 0.07973685 -0.04198781
0002a0 58 eb bd bd b5 df 83 3d c8 db b6 3d cb 50 c4 bc
       -0.09273404 0.06439153 0.08928639 -0.023964306

lstm.bias_hh_l0_reverse f4 [172]
000000 7f bb 09 be 5f 61 e4 3d 28 6e af 3d 88 c0 f5 3d
       -0.1345043 0.111513846 0.085659325 0.11999613
000010 15 e8 0b 3c 9a 08 35 3e 1a b1 15 be 6c 7a 2d be
       0.008539219 0.17679062 -0.1461834 -0.16941231
000020 61 6f 23 3d 06 27 6f bc af 67 42 3d f2 0d f5 bd
       0.03990114 -0.014596706 0.04746216 -0.119655505
000030 80 ec e4 bd 49 97 2f 3c 3e 29 77 3c e9 cc 49 3d
       -0.11177921 0.010717222 0.0150855165 0.049267683
000040 a5 a8 fb bd 90 56 30 bd fa 93 19 bc 3d 28 68 3d
       -0.12288026 -0.043051302 -0.009373659 0.056679
000050 91 88 05 3e d0 56 b8 bd 5f 3a 81 bd 3f b2 de bd
       0.13040377 -0.09000933 -0.063099615 -0.108738415
000060 0b e4 fe bd 8d ac c4 bd 0b 7d 15 be d8 b7 dd 3d
       -0.124458395 -0.09603224 -0.14598481 0.10826081
000070 5e e0 d6 bd 58 dd 59 bd 99 72 08 be 88 0f 75 bd
       -0.104920134 -0.053189605 -0.13324966 -0.059829265
000080 dc ba a1 bd 27 98 06 3e bd 2f 95 3c e1 ae cf bd
       -0.07896969 0.13143979 0.01821124 -0.101407774
000090 32 01 47 3d 9e c0 01 be ee d2 5b 3d 81 ed a3 bd
       0.048585124 -0.12671134 0.053667955 -0.08004285
0000a0 cd 92 bd bc 53 9f 24 be ad e1 e4 bb 47 77 e6 3d
       -0.02314129 -0.16076402 -0.0069849105 0.11253219
0000b0 ad 96 02 3e d2 79 55 bd cd a2 dc bd c9 91 ac bc
       0.12752791 -0.05211813 -0.10773239 -0.02106561
0000c0 9e 57 1a 3e ba 21 cb 3d fb 0b 38 bd d9 f6 6b bd
       0.15072486 0.09918542 -0.0449333 -0.05760846
0000d0 e9 3f 0f 3e 11 1f 9b bd 33 52 18 bc cb 23 04 3e
       0.13989224 -0.07574285 -0.009296942 0.12904279
0000e0 b3 c2 59 3d ca 0d bf bd 0b 50 aa bd dc bf f8 3d
       0.053164195 -0.09328802 -0.08316048 0.12145969
0000f0 a1 68 39 3d 16 01 9e bb 2a d0 a4 3d 08 33 5d bd
       0.045265798 -0.004821907 0.08047517 -0.054003745
000100 1b de a1 bd 32 39 82 bd ef ce 08 be 79 dd a5 3d
       -0.079036914 -0.063585654 -0.13360189 0.08098883
000110 17 52 0d be 7e 30 15 bd f7 1b 05 be 79 14 fc bd
       -0.13800846 -0.0364232 -0.12998949 -0.12308592
000120 4d dc 08 3d 7a 1d 00 bd 54 99 a6 bd 69 1e 11 bd
       0.03341322 -0.03127811 -0.08134714 -0.035429392
000130 24 86 37 3c dc cb b3 3d fc 1b 24 3e 60 64 78 bd
       0.011201415 0.087791175 0.160263 -0.0606426
000140 81 c1 8d bc 1a e3 12 3e bc 13 f3 bd 9c 1f 2b 3d
       -0.017304184 0.14344445 -0.118689984 0.041778192
000150 d5 45 c0 bd d0 f4 c1 3d 7f e4 99 bd 84 f4 92 bd
       -0.093883194 0.094705224 -0.07514285 -0.07175544
000160 f8 22 13 be bc 8b f0 3d 66 18 05 bb 9b f4 6f 3d
       -0.14368808 0.11745402 -0.0020308732 0.058582883
000170 cb 48 ad bd 16 1c 05 be 45 b3 5f 3d 89 d2 b6 bd
       -0.0846115 -0.12998995 0.054614324 -0.08926875
000180 a0 4e 8d 3d e1 65 09 be f0 82 94 3c a9 53 cf 3d
       0.06899762 -0.1341777 0.018128842 0.10123379
000190 0b b1 27 bb 28 45 df 3d 17 38 88 3d b2 06 80 bd
       -0.0025587704 0.109018624 0.06651323 -0.06251277
0001a0 63 f7 6c bd af b3 c8 bc cd 17 1c be 7a c8 0c 3c
       -0.057853114 -0.024499742 -0.15243454 0.008592719
0001b0 ad 18 72 3d 0f 69 f4 3c 78 d9 b1 3c 5a 9f 2f 3e
       0.059105564 0.029835252 0.021710142 0.17150632
0001c0 bd 93 3e 3d ec c8 c2 bc 4c eb 0a be 19 e2 8f bd
       0.046527613 -0.023777448 -0.13566321 -0.070255466
0001d0 35 ad 16 be 91 eb 5e 3d a1 85 1f 3d f9 8e 57 bd
       -0.1471451 0.054423872 0.038945798 -0.052626584
0001e0 7b 7a 3c bc 4c 90 65 3c 8b 6b 95 3c 1b 5c ed 3b
       -0.011503811 0.014011454 0.018239757 0.007243646
0001f0 f7 0f 53 bd 29 a5 f7 bd fd c7 8f 3d 48 6c 94 3d
       -0.051528897 -0.12092049 0.070205666 0.072472155
000200 27 1c 17 3d a3 c0 9d bd f4 0c 9f 3c dc 71 e8 bc
       0.036892083 -0.07702758 0.019415356 -0.028374605
000210 ad 89 c1 bd 14 fe c7 bd 2d 99 9e 3d 1d ed f8 bc
       -0.09450088 -0.097652584 0.0774406 -0.030386502
000220 ac 25 07 be 3b 83 33 bd ee 68 01 3e 7b e3 b1 3b
       -0.13197964 -0.043826323 0.12637684 0.005428729
000230 e5 f3 0b be 2a 8e eb 3d 6f 5e 89 3d 24 9e a4 3d
       -0.13667257 0.11501725 0.06707465 0.080379754
000240 2e e8 da 3d de d7 1d be 26 cb c2 bd 7a 2b 95 3c
       0.10688816 -0.15414378 -0.09511404 0.018209208
000250 fd 83 0b 3e ac c6 2d 3d 26 a2 8e 3d aa e2 8a 3c
       0.13624568 0.042425796 0.06964521 0.016953785
000260 4b 41 d1 bd ed f0 d7 3d 9d 91 e9 3d cc 66 00 bd
       -0.10217532 0.10544 0.11404727 -0.031348035
000270 82 5d 72 3d 09 c4 07 bd 95 89 e2 3d 27 88 ff 3c
       0.059171207 -0.033145938 0.11061398 0.031192852
000280 4b 75 bb 3d 46 e4 02 be 08 78 47 3d e5 6c a9 3d
       0.09153231 -0.12782392 0.048698455 0.08272723
000290 97 df a6 3d 41 b9 10 be c1 57 ce bd 69 c7 d8 bd
       0.08148115 -0.14133169 -0.100753315 -0.105849095
0002a0 e9 18 9c bd 10 53 05 3b 91 9d 61 bd d3 b2 f6 bc
       -0.07621939 0.0020343699 -0.055081908 -0.030114567
