model_config/best_finetune_from_0.4_gas_to_ev_lstm.pt (torch, 436134 bytes, 25 tensors)

lstm.weight_ih_l0 f4 [172, 6]
000000 72 60 2d 3e b2 4c 7d bd 9c 23 8b bd c0 4c 9e bd
       0.16931322 -0.06184072 -0.06793901 -0.07729483
000010 e2 c8 03 3d 91 6b ee 3c 29 8f 51 3d c0 10 a9 bd
       0.032174 0.029104026 0.05116192 -0.08255148
000020 e9 ca 37 be 9a 87 37 be 62 f7 42 3d 93 94 f6 bd
       -0.17948498 -0.17922822 0.047599204 -0.12040057
000030 8d 78 5d 3d fb 95 1b bd a9 58 19 3d 91 f8 b9 3d
       0.054070044 -0.03798483 0.03743807 0.090806134
000040 93 43 6a bd b2 18 1b bd 28 51 93 3d 5c 1c ed 3d
       -0.05719335 -0.03786535 0.07193214 0.11577675
000050 1d 7a f1 3c 60 97 88 bd 2c 29 7d 3d ab a7 78 bd
       0.029477173 -0.066694975 0.061806843 -0.060706776
000060 ee c4 62 3c 14 37 25 3e bf c5 58 3e 27 9e 8e bd
       0.013840897 0.16134292 0.21169184 -0.06963759
000070 e5 8b e0 3c 85 89 0e be cd b0 59 3d f4 a5 93 3c
       0.027410457 -0.13919647 0.053147126 0.018023469
000080 ed 18 50 3d 82 e8 58 be 5b 51 31 be b0 eb 18 be
       0.05080502 -0.21182445 -0.17316191 -0.14933658
000090 4e 17 50 bd 92 33 9a bd 8a 30 36 3d 74 db 3a 3e
       -0.050803475 -0.075293675 0.044479884 0.18247777
0000a0 3d 0b d9 bb aa 6b d7 bd 0c 40 05 be 16 7b 27 be
       -0.006623654 -0.10518582 -0.13012713 -0.16355547
0000b0 c4 46 74 bd eb 9e ff bd 5a 3f 28 be d1 06 b0 bd
       -0.0596378 -0.12481483 -0.16430417 -0.0859505
0000c0 ba 48 ff bd 4f 23 2a 3d 6b 50 e9 3c 72 4f e4 3d
       -0.12465043 0.04153758 0.02848073 0.111479655
0000d0 c7 32 d7 3c 2a 7d d9 bd 25 50 f8 3d 11 ab ab 3d
       0.02626933 -0.10619576 0.12124661 0.08382238
0000e0 6a 6c f8 3d 0b aa b0 bd c7 e9 14 be 54 9a 26 3e
       0.12130053 -0.08626183 -0.14542304 0.16269809
0000f0 5e 43 51 3d c4 bd 04 3e d9 55 06 3e aa 68 41 3d
       0.051089637 0.12963015 0.13118686 0.047218956
000100 41 d0 af bd ee b1 60 bd 81 ce 03 be 33 17 c3 bd
       -0.08584643 -0.054857187 -0.12871744 -0.09525909
000110 39 c1 0b 3e fb d4 7b bd 5a d0 7e 3d 55 d4 ac bd
       0.13647927 -0.06148241 0.06221042 -0.084389366
000120 55 19 39 be 5c e0 48 bb a5 cf ea bd be 15 d2 3d
       -0.1807607 -0.0030651307 -0.11465386 0.10258053
000130 5e 56 66 3d 5b 1f 36 3e 0c 53 ed 3d a0 03 39 be
       0.05623471 0.17785399 0.115881056 -0.18067789
000140 50 45 55 bb 7b 63 e6 bd fd 8e 9f 3c 45 5b 3b 3e
       -0.0032542534 -0.11249443 0.019477362 0.18296535
000150 20 8f 09 be da d6 6f 3b 05 5c d8 3d 3a 91 0d 3d
       -0.13433504 0.0036596567 0.10564426 0.034562327
000160 67 5c a5 bc 64 dc dc 3c af 65 54 bd 51 8a 22 3e
       -0.020185662 0.02696056 -0.051854786 0.15873076
000170 9f e7 f2 3d 33 3f 4d be 56 d6 c7 3c 1b 39 4e 3e
       0.118605845 -0.2004364 0.024394196 0.20138972
000180 a3 07 0d be aa b4 0a 3e fd 4b a7 3d 6f 2f 1e bd
       -0.13772444 0.1354548 0.081687905 -0.038619455
000190 9f b9 05 3e f8 5a 12 be 2d b7 d4 3d fe b5 9b bd
       0.1305909 -0.14292514 0.103865005 -0.07603072
0001a0 56 8f 22 3e 84 14 92 bc 99 10 5f bd a6 b7 84 3e
       0.15874991 -0.017832048 -0.054459188 0.25921363
0001b0 39 a7 22 3e 5d 6e 77 bd e5 b9 3c be ee 45 b8 bb
       0.15884103 -0.060407985 -0.18430288 -0.0056235706
0001c0 65 a1 1f 3e 37 f7 95 bd 77 43 3a bd 38 76 e8 bd
       0.15588911 -0.07322543 -0.045474496 -0.113506734
0001d0 f1 fe 0d 3e f1 bd 04 be c8 8a 29 3e 22 27 62 3d
       0.13866784 -0.12963082 0.16556847 0.0552131
0001e0 c7 18 7c bd 79 7f 5e be 36 16 36 3d 5b 89 4f be
       -0.061547067 -0.21728314 0.044454776 -0.2026724
0001f0 76 d4 51 3d 4b 56 bf 3d ed 40 ce 3d fe 4c 96 3c
       0.05122801 0.09342631 0.10070977 0.01834726
000200 10 01 cb bd 3d 13 46 bd 55 98 43 3e 74 6e 3f be
       -0.09912312 -0.04835819 0.19101079 -0.18694478
000210 3f f2 83 bc fd 22 08 be a6 3f d4 bc d1 ec f4 bd
       -0.016106723 -0.13294597 -0.025909256 -0.11959232
000220 ef 18 e9 3d 07 3a a1 bd d6 f0 28 3d a5 58 42 3e
       0.11381709 -0.07872396 0.041245304 0.18979128
000230 9f 08 5f bd 1a c5 d6 3c 75 fe 04 be 8a 28 93 bd
       -0.05445158 0.026217032 -0.12987693 -0.071854666
000240 0a 66 9e 3d 22 04 a6 bd 6a 40 25 3e 68 a7 4f 3e
       0.07734306 -0.08106257 0.16137853 0.20278704
000250 d8 9e 05 be 18 f0 cb bd 4e 82 08 3e a6 e8 a5 bc
       -0.13048875 -0.099579036 0.13330957 -0.020252537
000260 97 09 b4 bd a6 d1 69 bc 1a 28 19 3e 25 5a 0b be
       -0.087908916 -0.0142711755 0.14956704 -0.13608606
000270 6a c5 12 bd 9f 7e 15 3e da ff c8 3d 3a 0b a9 3c
       -0.0358328 0.14599083 0.09814425 0.020635236
000280 b2 f3 97 3d 25 1a 3a 3e 57 2d 14 3e 6a da 7a 3c
       0.07419528 0.18174036 0.14470421 0.015310863
000290 eb af 00 be 94 e1 0e 3e cf 3f aa bd d0 b4 2f be
       -0.12567107 0.13953239 -0.08312952 -0.17158818
0002a0 97 64 b8 3d f6 06 e9 bd c6 f2 6a 3e 12 e0 8c bd
       0.09003561 -0.11378281 0.22944173 -0.068786755
0002b0 1c 98 c7 bd 04 27 05 3e d8 3e 02 3e 82 39 2e be
       -0.097458094 0.13003165 0.12719285 -0.17014125
0002c0 27 e8 4b 3e ac fe a7 bb 12 ca 16 bd 86 fc d3 3d
       0.19912778 -0.005126795 -0.036813803 0.103508994
0002d0 9a c4 b7 bc f7 e9 0b bb f1 68 d5 bc 4d 92 36 bd
       -0.022432614 -0.002134917 -0.026051017 -0.044573117
0002e0 ef 77 e6 3d a1 17 3a 3c 0a 4c 0c bd bb d0 2a 3d
       0.11253344 0.011358173 -0.034252204 0.041702967
0002f0 f9 15 c2 3d 0b 29 a5 bd a1 26 87 bc 36 f6 ab bd
       0.09476847 -0.08064469 -0.016497912 -0.083965704
000300 b2 5e 37 3c 22 95 05 3e 9d 8f 5f 3c bc 35 a5 bd
       0.011192011 0.13045171 0.01364508 -0.0806689
000310 67 27 30 bd eb fa 20 3c b5 7a 03 3e b5 7b e3 b9
       -0.043006327 0.0098254485 0.12839778 -0.00043388983
000320 f3 ff 51 3e 73 28 95 3d bf 1c 02 3e 4d 32 47 3d
       0.20507793 0.07283106 0.12706278 0.048631955
000330 3d 12 0a be 81 3e 77 3d 04 0c 9b bd 94 31 2a be
       -0.1348352 0.060362343 -0.07570651 -0.16620475
000340 67 fb 10 3e f6 84 5f 3e 2a e4 15 3d 9c 10 6c bd
       0.14158402 0.21828064 0.036594547 -0.057633027
000350 83 69 e7 bd 8d 56 a0 bd 61 b8 11 be 20 0b d3 bd
       -0.11299422 -0.07829008 -0.14230491 -0.10304856
000360 47 61 16 3e 30 6c 35 3e c7 21 72 3d a7 a6 33 be
       0.14685546 0.17717052 0.059114244 -0.17544042
000370 bc f2 d6 bd 11 f8 7b bd 03 24 50 3d 7b c8 d6 3c
       -0.10495517 -0.06151587 0.050815593 0.026218643
000380 34 13 57 bc f0 c7 a6 3d 92 0a b4 3d 0c d7 35 3d
       -0.013127137 0.08143604 0.087910786 0.044394538
000390 9c 12 83 bd 13 51 88 bd 4d 7d cd bd f6 30 56 bd
       -0.06400034 -0.06656089 -0.10033665 -0.052292787
0003a0 80 01 01 be 7a 2e 2f 3e c9 f7 6e 3d 11 d2 0e 3d
       -0.12598228 0.17107573 0.058341775 0.034868304
0003b0 20 9a 96 3a 2a 82 14 be 27 65 ee bd 94 dc 3d 3e
       0.0011490025 -0.14502779 -0.11640387 0.18541175
0003c0 ad 9a ac 3d 96 cf 04 bc 77 19 60 bd 9d 70 85 bc
       0.084279396 -0.008106133 -0.054711785 -0.01628905
0003d0 64 56 0a be 41 57 f0 3d 06 1b 9e bd e8 5e 9e 3d
       -0.13509518 0.11735392 -0.07719998 0.07732946
0003e0 7f fa 3c 3e 5f 67 52 3d b8 28 b0 3d ba 95 21 3b
       0.18454932 0.051368114 0.086015165 0.0024655894
0003f0 24 10 94 3d 9a ab 38 3e 17 09 ad 3d 35 7c 87 bd
       0.07229641 0.18034211 0.084489994 -0.066154875

lstm.weight_hh_l0 f4 [172, 43]
000000 46 a4 4f be 5a 2d 1e 3e 28 4b 37 3d 46 a9 a7 bd
       -0.20277509 0.15446988 0.04474941 -0.08186583
000010 ad 49 0f 3b 65 29 c6 bd e2 1c e7 bd 1c 90 95 bc
       0.0021863983 -0.09675864 -0.11284806 -0.018257193
000020 ee 74 a0 3d c5 d2 f0 3d 9f 65 c7 bd d5 2f d4 bd
       0.078348026 0.11758951 -0.097361796 -0.10360686
000030 04 68 aa bc cd fa 36 3d af 6a 13 be 60 d2 75 bc
       -0.020801552 0.044672776 -0.14396165 -0.015003771
000040 30 54 34 be 97 99 a6 3d 3e 52 cb 3d 42 69 87 3b
       -0.1761024 0.08134764 0.09927796 0.0041324208
000050 fd 9e 09 3e 37 5b 50 bd f7 35 f3 3d 98 b4 13 be
       0.13439555 -0.05086824 0.11875527 -0.1442436
000060 99 b3 d1 bd 23 41 20 3c c1 69 54 3e 1d ae 31 3e
       -0.10239334 0.009781155 0.20743467 0.17351575
000070 ac f8 16 be 8b ec f7 bc 67 e5 bd 3d 7c e7 1b 3d
       -0.14743298 -0.03026416 0.09272271 0.038062558
000080 5e f4 07 3e 7c 45 04 3e 28 7d e8 3d e1 63 21 be
       0.13276812 0.12917131 0.11351997 -0.15760757
000090 21 69 09 be eb c8 63 bb a3 ef e5 3d 58 48 ac 3d
       -0.1341901 -0.0034757208 0.11227348 0.08412236
0000a0 46 6e 2a be 1b 03 cc 3d c3 35 bb 3c d9 4b c1 3d
       -0.16643628 0.0996153 0.022852784 0.09438295
0000b0 bc 40 4e bd ac dd 05 3e c5 1f 8c 3d 07 79 36 3d
       -0.050354704 0.13072842 0.06841997 0.044549014
0000c0 ee 2f cd bd 9b 67 2b 3e 77 b1 af 3a 1e ed e5 bd
       -0.100189075 0.16738741 0.0013404329 -0.11226867
0000d0 a2 e8 e7 3d 27 b7 03 bd 53 e6 dd 3d 29 89 e4 bd
       0.11323668 -0.03215709 0.108349465 -0.11158974
0000e0 ed 6e 79 3d 45 3b c0 3d 7d 3e b9 3c b7 3f 11 bb
       0.060896803 0.09386305 0.022612805 -0.002216322
0000f0 9a b5 12 3e 65 68 98 bd 87 82 cf 3d 82 61 79 3d
       0.14327088 -0.07441787 0.10132318 0.060884006
000100 ce cb 22 bc d7 dc 8e bc 6b c6 de 3d 8b 0e 06 be
       -0.009936286 -0.017439289 0.10877689 -0.13091485
000110 60 89 00 be 7b e9 95 3d 76 fa d6 bd 70 b9 d2 3d
       -0.12552404 0.073199235 -0.104969904 0.10289276
000120 3d aa 3e be d5 0c 04 be 32 b1 ea 3c 55 83 df 3d
       -0.18619628 -0.1289552 0.028648946 0.109137215
000130 4e ef 8c 3c 1b ab c5 3c 9d 7c 15 3d 32 5b a3 bd
       0.017203953 0.024129441 0.036495794 -0.079763785
000140 90 6c cf bd bd be 91 3d fe 1b 13 3d cb fb 50 3e
       -0.101281285 0.071164586 0.035915367 0.20408551
000150 a3 0b f5 3d 8c 04 44 3d 95 b6 7b be dc dd 56 bd
       0.1196511 0.0478559 -0.24581368 -0.052457675
000160 1d 1f 34 3d 5f 9d 44 3d 12 44 c4 3d f5 e7 89 bd
       0.043974984 0.048001643 0.09583296 -0.067336954
000170 d8 e0 f7 bd 15 86 c3 3d b1 82 74 bc 0f bb fb 3d
       -0.121034324 0.095470585 -0.014923737 0.12291538
000180 fc 5b cf bd 13 70 7c bd fe e8 cb 3d b2 fc 4b bd
       -0.101249665 -0.06163032 0.09956549 -0.049801536
000190 66 cc 07 be f7 69 86 bd 77 7c 0e 3e c7 d8 39 3e
       -0.13261566 -0.0656318 0.13914667 0.181491
0001a0 8d 80 68 3b ec 93 0f bd d2 20 cc bc 16 3d 97 3d
       0.0035477013 -0.03505318 -0.024917994 0.07384698
0001b0 a9 3d 9f bd 8f b3 20 3e df 33 6b bd 5b f3 0e 3e
       -0.077754326 0.15693496 -0.057422515 0.1396002
0001c0 17 84 8e bb 10 64 9d 3d 07 df 77 bd fa 71 c0 3d
       -0.0043492424 0.07685101 -0.06051543 0.09396739
0001d0 6c 14 61 3d e3 a6 fe ba 70 fe b8 3c 84 6a 57 3e
       0.054951116 -0.0019428398 0.022582263 0.21036726
0001e0 18 5e 03 be 20 ec 24 3e e1 d1 04 be 55 90 0c 3e
       -0.12828863 0.161057 -0.12970687 0.13726933
0001f0 b1 f1 72 3d d2 7f 0b be 7f 7e 29 bd e3 55 40 3d
       0.059312526 -0.13622978 -0.0413804 0.046956908
000200 9b 69 2b 3e de 4b 5a be b8 49 96 bd 57 b5 13 3e
       0.16739504 -0.21318004 -0.073382795 0.14424644
000210 2a 18 49 3d e3 e6 e8 3d f2 47 83 bd ce 2e be 3d
       0.04909531 0.11372163 -0.06410207 0.09286271
000220 00 20 1d 3e d4 b2 c4 bd 41 a9 9c bd 1f 0b 5f 3d
       0.15344238 -0.09604421 -0.0764947 0.054453965
000230 74 fe 32 3e 7d 3d a5 3d 00 fb 1a be 9b 19 e5 3d
       0.17479879 0.080683686 -0.15134811 0.111865245
000240 93 25 f3 3d 69 ea ef bd cf 9c 1f be ee 49 e2 bc
       0.11872401 -0.11714632 -0.15587161 -0.027623143
000250 bb 32 b0 3d d6 71 35 be 48 e3 3c bc ef 1a 92 bd
       0.08603426 -0.17719206 -0.011528797 -0.071340434
000260 b6 48 9e 3d 96 97 07 3d 05 d2 64 bd ef a1 e6 ba
       0.07728712 0.033103548 -0.055864353 -0.0017595867
000270 05 02 33 bd d9 ea 4a 3d 7d c8 b0 bc 20 7d 14 3e
       -0.043703098 0.049540374 -0.021579975 0.14500856
000280 9a 79 d6 bd d3 f0 8e 3d be c8 37 be b3 47 98 bd
       -0.104724124 0.06979527 -0.17947671 -0.074355505
000290 8b 44 e2 3d 0b 1e 97 bb c6 47 68 bd 75 11 f4 bd
       0.1104823 -0.0046117357 -0.056709073 -0.11917392
0002a0 a0 7e 96 3d ad 49 1d be 66 65 33 bd 40 74 9f 3d
       0.073483706 -0.15360136 -0.043797873 0.07785845
0002b0 e6 66 ea bd e8 dc 99 bd 1c 8b 97 bd 34 eb 47 bd
       -0.114454076 -0.07512838 -0.0739958 -0.04880829
0002c0 98 7a 21 3b 0a c8 91 bd c6 89 bd bc c4 f5 e6 bd
       0.0024639722 -0.071182325 -0.023136985 -0.11277345
0002d0 9e d3 28 be 56 ed 2d bd bc e9 e4 bd 32 c9 3d 3e
       -0.16486976 -0.04246267 -0.11177394 0.18533781
0002e0 08 15 9a bd 33 56 28 bb f4 ab 1f 3e 95 10 d1 3d
       -0.07523543 -0.0025686144 0.15592939 0.10208241
0002f0 88 20 3b 3e b4 27 5a bd 7a 82 3d bd 3d 97 0f bd
       0.18274128 -0.05326052 -0.04626701 -0.03505634
000300 9c 7f 27 be 72 a3 1f 3d 87 12 e5 3d 4c 45 15 be
       -0.16357273 0.038974233 0.111851744 -0.14577216
000310 ae 74 db 3d f3 3e 13 be 5c 1e 19 be 94 db f6 3d
       0.10715614 -0.14379482 -0.14952987 0.120536
000320 fb 50 83 bd d9 a3 36 3c c9 66 bf 3d b9 60 3d 3d
       -0.0641193 0.011147463 0.093457766 0.04623482
000330 14 96 8b 3d 57 5c 17 be 31 2b e5 bd 7e 4b cb 3d
       0.068157345 -0.14781319 -0.11189879 0.09926508
000340 d8 8f 0f 3e 07 b4 02 3e 84 ac 9c 3d 60 a5 5b bd
       0.14019716 0.12763987 0.07650092 -0.05362451
000350 c0 2d 02 3e 5c 1f 08 3e 3f 08 a4 3c de c7 d8 bd
       0.12712765 0.13293213 0.020023463 -0.10584997
000360 68 5c 01 3e dd b0 a9 bc b0 25 a1 bd d7 97 c7 bd
       0.12632906 -0.020714218 -0.078685164 -0.09745758
000370 f0 76 05 3e 03 6e a7 3d cb 31 0c 3e 51 e1 0e be
       0.13033652 0.0817528 0.1369087 -0.13953139
000380 4a ad ab bd cb 93 41 bd a5 49 2c bd eb 9d 56 bd
       -0.08382662 -0.047260087 -0.04206242 -0.052396696
000390 c7 4e ab bd 7c 3c d7 3c 1a 07 e1 bd 38 17 42 bd
       -0.08364635 0.026273958 -0.10987683 -0.047385424
0003a0 c1 99 01 bd be 91 df bc 71 ca ae 3d 1e 79 05 be
       -0.03164077 -0.027291175 0.085347064 -0.13034484
0003b0 a5 44 18 bc 1b 91 90 bd c1 37 57 be 0e 0e 83 bd
       -0.00929371 -0.07058927 -0.21017362 -0.06399165
0003c0 0d be 3a be cc 41 b6 3d 17 a2 8e bd f5 bd 52 bc
       -0.18236561 0.088992685 -0.0696451 -0.012862672
0003d0 e2 bb 57 bd f8 d1 c1 3d 3b e8 75 bd db 71 69 39
       -0.052669413 0.094638765 -0.060035925 0.00022263026
0003e0 73 b4 2a be 8d f2 a3 3d ae bb ce 3c 6b d9 05 3e
       -0.16670398 0.08005247 0.025235977 0.1307122
0003f0 1c 51 c4 3d dc 1e c6 3c 3c 7a fc bd 80 3f ef 3d
       0.09585783 0.024184637 -0.12328002 0.116820335

lstm.bias_ih_l0 f4 [172]
000000 42 21 9c 3d ed 52 8b 3d 45 b0 ab bb f1 00 0d 3e
       0.07623531 0.06802926 -0.005239519 0.1376989
000010 ca d4 32 3d 75 ef 20 be 36 ab ee 3d a6 ea 5f 3d
       0.043659963 -0.15716346 0.1165375 0.054667138
000020 c1 03 8c bc a0 c3 6b 3d d1 67 49 bd e9 82 4e bd
       -0.017091634 0.05755961 -0.049171273 -0.050417814
000030 d0 42 2b bd 29 4a a3 3d 3f 31 26 be 77 99 94 bd
       -0.041811764 0.07973129 -0.16229723 -0.072558336
000040 18 94 09 bd ee 67 a6 bd d7 08 8c bd a4 64 ec bd
       -0.0335885 -0.08125292 -0.068376236 -0.11542633
000050 77 cd ac 3b 36 c4 c4 bd 7e 1e 1e be fa 2c 9c 3d
       0.0052735168 -0.09607737 -0.1544132 0.07625766
000060 6b e1 15 be 60 ed 9a 3d 08 d5 3d bd a5 fc 54 3c
       -0.14636771 0.07564807 -0.04634574 0.012999688
000070 f2 ad 04 3e 81 66 e9 3c d2 01 c9 bd 88 c9 a6 3d
       0.1295698 0.02849126 -0.098148 0.08143908
000080 dc 7a 81 3d a4 b2 1f 3e e9 cb c7 bd c2 ff 10 be
       0.06322262 0.1559549 -0.0975569 -0.14160064
000090 e7 88 e0 3d d5 8e 5b 3d c8 54 29 3e 35 4b 8f bd
       0.10963612 0.053603012 0.16536248 -0.069967665
0000a0 ce 1b c0 bd 96 36 f3 bd c2 be 8c bd f2 8f ab 3d
       -0.09380303 -0.11875646 -0.06872322 0.08377065
0000b0 2e 03 5d 3d 08 67 89 3d dd cc c7 bd ef 69 65 bd
       0.05395811 0.06709105 -0.097558714 -0.05600923
0000c0 07 ae e8 3d 1d e0 28 3d 06 b1 01 3e 79 eb 0b be
       0.11361318 0.041229356 0.12665185 -0.13664044
0000d0 f7 39 e3 bd 7a 9b 9f bd 2d 01 19 3e 4a 2b e0 bd
       -0.1109504 -0.07793327 0.14941855 -0.10945757
0000e0 8a 07 d4 3c 95 e0 84 bd cd 3f 04 be fd 79 63 3d
       0.025882501 -0.06488148 -0.12914963 0.05553626
0000f0 74 2d 2d bd ad 8f f5 3d 4f e6 7a bd a6 f1 e6 3d
       -0.042279676 0.119902946 -0.061254796 0.112765595
000100 7f 96 0c 3e d5 c1 70 3d 7b 27 3a 3c 4d e0 89 bd
       0.13729285 0.058778603 0.011361952 -0.06732235
000110 a4 90 2a 3e 30 ad aa 3c be f7 93 bd 4e 69 98 bd
       0.16656739 0.020834535 -0.072249874 -0.0744196
000120 dd 23 03 3c df 9e de bd 70 e8 11 3d 36 d1 88 3d
       0.008004156 -0.10870146 0.03562206 0.06680529
000130 2e 72 19 3d 09 38 22 3e a5 ec fd bd 4d ef a5 3c
       0.037462406 0.15841688 -0.12398652 0.020255709
000140 50 36 8a bd 12 bd 6b bd 22 86 89 3d c1 5a 0b 3e
       -0.067486405 -0.05755336 0.06715037 0.13608839
000150 34 7a 36 bd 70 1b ad 3b 77 00 94 3d 76 5e 03 3d
       -0.044550136 0.005282812 0.07226651 0.032072507
000160 0e aa e6 3b 9f 3e 07 be 52 10 31 bd dc 85 04 bd
       0.007039315 -0.13207482 -0.043228455 -0.03235422
000170 a5 8e 0c be 2e a3 e1 bd d3 00 60 3c 1d 7a 97 bd
       -0.1372629 -0.11017452 0.0136720715 -0.07396338
000180 04 e6 68 3d af 6e 87 bd 1c 01 ad bd f3 21 49 3c
       0.056859985 -0.06612908 -0.08447477 0.0122761605
000190 53 b2 3c 3e 7c 27 8a bd 10 c9 0c be 80 00 3c 3e
       0.184274 -0.06745812 -0.13748574 0.18359566
0001a0 5b fc d9 bd e7 0f aa 3d df 40 b3 bd c1 ac 93 bd
       -0.10643836 0.083038144 -0.087526076 -0.072106846
0001b0 1a 68 17 3d a9 3b 21 3e e4 18 f7 bd bd 4c 18 bd
       0.036964513 0.15745415 -0.120652944 -0.03718256
0001c0 02 42 2a be 98 11 9c bc 5d 0a 0f 3d d6 a5 6e bd
       -0.16626742 -0.019051358 0.034921993 -0.058263622
0001d0 15 64 81 3d 90 63 d3 3d 60 d7 bc bc a7 c1 9a 3a
       0.06317917 0.103217244 -0.023051918 0.001180698
0001e0 3f f4 98 bd 35 05 92 bd 41 34 0c 3e d1 56 0b 3c
       -0.07468461 -0.071298994 0.13691808 0.008504585
0001f0 39 00 3f bd 54 79 29 be 49 6c 12 be 61 7d e7 3d
       -0.04663107 -0.1655019 -0.1429912 0.11303211
000200 a8 f2 0b 3e b8 b2 1a bd 5c a1 06 bd 87 2a 10 be
       0.13666785 -0.037768096 -0.032868728 -0.14078723
000210 2c 79 91 3d 92 dc e4 bd 5d 04 b8 3d 84 19 cc bd
       0.0710319 -0.11174883 0.08985207 -0.09965804
000220 ee 41 c0 bb b1 cb 67 bd 68 f4 0b be f3 1b 0b 3e
       -0.0058672344 -0.05659074 -0.13667452 0.1358488
000230 f8 68 a2 3d 95 c7 d4 3d 5e 68 28 bd 52 1b 92 bd
       0.079301775 0.1038963 -0.041115157 -0.07134117
000240 aa fb 6d 3d 2a 75 7e bd 04 59 63 3d f0 47 1f be
       0.058101334 -0.062123455 0.055504814 -0.15554786
000250 fd fe a5 3d 8b 06 a9 3c ea 80 21 3d 6e ac f0 3d
       0.08105276 0.020633003 0.039429583 0.11751638
000260 5e a8 04 3e 3d 53 49 bd 10 a9 2d 3c 92 a8 99 bd
       0.12954852 -0.049151648 0.01059939 -0.07502855
000270 45 6e b0 3d 6e 5c 99 3a ba 79 c4 3d 8b 4d 7c b9
       0.08614782 0.001170052 0.0959353 -0.0002406148
000280 6f 96 66 bd 1d d2 94 3d 33 51 09 be 6c 13 b3 3c
       -0.05629581 0.072666384 -0.13409881 0.021859847
000290 09 ca 85 3d f3 ed a8 bd a0 8f 44 3c 2c 3b f7 bd
       0.06532676 -0.0824851 0.0119971335 -0.12071833
0002a0 1d f3 c3 3d 2d 27 8d bd 59 fc 13 bc bc f1 a8 3d
       0.095678546 -0.06892238 -0.009032332 0.08249232

lstm.bias_hh_l0 f4 [172]
000000 d6 a4 d5 3d e0 62 11 be 55 04 9f 3b bb b7 ae bd
       0.104318306 -0.14197874 0.0048528113 -0.085311376
000010 58 73 cb 3d 2a 49 01 3e 04 c4 da 3d 93 c4 9a bd
       0.099341094 0.12625566 0.10681918 -0.07557025
000020 9c f5 c2 bc b2 f4 3b bd 3d 0b a1 3d f0 01 3a 3b
       -0.023798756 -0.045887657 0.07863472 0.0028382502
000030 3c d5 f3 3d d8 28 c7 bd fa 9b a0 bd bf 21 58 3d
       0.119059056 -0.09724587 -0.0784225 0.052766558
000040 41 32 b7 bc 55 e8 ff 3d 26 14 dc bd 80 f3 9b bd
       -0.02236283 0.12495486 -0.107460305 -0.07614803
000050 17 72 fa bd d4 2c eb bd bf 5f fd 3d dd 62 99 bd
       -0.12228792 -0.1148316 0.12371778 -0.0748956
000060 33 78 cf bd dc 5e d8 bd 7c b5 5b 3d d7 6f e0 bd
       -0.10130348 -0.10564968 0.053639874 -0.10958832
000070 8c a0 96 3c d4 26 8d bd 73 f9 4a bd 58 55 10 3e
       0.018387102 -0.068921715 -0.0495543 0.14095056
000080 03 f2 af 3d 82 a2 37 3e a5 2b e5 3d be 60 10 be
       0.08591082 0.17933086 0.11189965 -0.14099404
000090 5a 67 12 be ca ab 63 bd a2 ab 13 3d 14 c7 93 3d
       -0.14297238 -0.055583753 0.036052354 0.072157055
0000a0 f4 fb 22 3e d0 df a2 bd f6 be 41 bd de 92 c2 3a
       0.15916425 -0.07952845 -0.047301255 0.0014844795
0000b0 f3 65 c6 3d 7a bb 04 be c8 eb 59 bc f1 13 69 3d
       0.09687414 -0.12962142 -0.013300844 0.056903783
0000c0 bb 40 63 bd 9f fd 1a 3c 5c 71 39 3d af 2f 3f bc
       -0.055481654 0.009459882 0.045274124 -0.0116690835
0000d0 e4 6d 15 3d 41 26 ca bc 77 93 0d 3e bd c2 dc bc
       0.036481753 -0.024676444 0.13825785 -0.026948327
0000e0 02 5e 57 3d 1b 2b f1 bd b8 86 8a 3d ad 56 a8 3d
       0.052579887 -0.117758 0.06763977 0.08219657
0000f0 2d 4f 83 3c 4e 02 6a bc 96 1f d0 3d 0c ad b9 3d
       0.016028965 -0.014282776 0.101622745 0.09066209
000100 aa 1c e1 bd 51 ab de bc 3a 2a 24 bd e5 78 12 be
       -0.10991795 -0.0271813 -0.040079333 -0.1430393
000110 4e 2e 09 3d 92 22 92 bd 9a 5b 95 bc e5 dc ec 3d
       0.033491425 -0.071355 -0.018232156 0.1156557
000120 cb b4 05 be 9b f9 fa 3c 46 e8 51 bd f1 65 2e 3c
       -0.13057248 0.0306366 -0.051246904 0.010644422
000130 47 76 47 3e 0a ca 2b 3d 03 f0 42 3d 85 52 3d bd
       0.19478713 0.041940726 0.047592174 -0.046221275
000140 66 c9 f9 3d 2f 30 07 3e 80 6e ce bd af fa 51 3e
       0.12196617 0.13201974 -0.1007967 0.20505784
000150 7e f6 7b 3d b8 00 16 3e 71 fe 65 3d 07 e0 f4 3b
       0.06151437 0.14648712 0.056150857 0.007472995
000160 fc 48 a7 3d b9 88 93 bd bd 29 9b bc 83 3a e4 3d
       0.081682175 -0.07203812 -0.0189408 0.11143973
000170 b1 a1 4b 3d 95 14 44 3d b2 6b 39 3e 02 d6 5b 3a
       0.049714748 0.04787119 0.18107489 0.00083860767
000180 e0 63 21 3d 9f a1 aa bd b0 0f 90 bd 9b 1f 14 3e
       0.03940189 -0.08331608 -0.07034242 0.14465182
000190 bf 86 4c bd 66 64 ad bd 01 c1 57 3c 71 60 4b 3d
       -0.04993319 -0.08466415 0.013168574 0.04965252
0001a0 bf 68 47 3d 2d c1 81 3d 11 e4 c9 bd 68 2f ad 3d
       0.048683878 0.063356735 -0.09857953 0.08456308
0001b0 da be c5 bd 1d 47 97 3d d7 a8 e5 3d b7 27 fd 3d
       -0.09655543 0.07386611 0.11213844 0.12361091
0001c0 77 71 03 3b 57 0d a5 bd 0d 28 09 be a6 17 51 3d
       0.0020056644 -0.08059185 -0.13394184 0.051047944
0001d0 15 c8 a4 bd 0a e1 96 3d ec fc 40 3e 3d e2 96 bd
       -0.08045975 0.073671415 0.18846482 -0.0736737
0001e0 76 88 f9 3c c5 a7 09 3e 54 0f 4a 3d 4d e2 52 3c
       0.030460577 0.13442905 0.049331024 0.012871337
0001f0 68 23 a3 bd fb f5 ae 3d 26 e0 b1 bc 95 7f 1e 3e
       -0.079657376 0.08543011 -0.021713328 0.15478356
000200 c1 70 b3 3d d1 62 e6 3d 67 08 72 bd 8e 43 d9 3d
       0.087617405 0.112493165 -0.059090044 0.10608588
000210 60 fd 4f bd 93 ce 90 bd c1 b3 47 bd 35 d8 05 be
       -0.050778747 -0.07070651 -0.04875541 -0.13070758
000220 d2 99 90 bd 3d 4b c6 3d 83 19 b0 bd 17 53 e0 bd
       -0.07060589 0.09682319 -0.08598616 -0.10953348
000230 02 ae 09 be 9c a8 c8 bd e2 91 df 3d 80 f8 92 bd
       -0.13445285 -0.09797785 0.10916497 -0.07176304
000240 84 c0 c2 3b 66 c8 e6 bb ff b9 0d 3e cd 60 73 bd
       0.00594336 -0.0070429323 0.13840483 -0.05941849
000250 53 b9 cf 3d 45 7f 0a 3e 76 c2 be 3d b7 00 5d 3d
       0.1014277 0.13525112 0.09314434 0.05395576
000260 45 e9 b9 3d da 1f 05 bd 29 94 57 3c e9 6b 20 3e
       0.09077696 -0.03250108 0.013157883 0.15666164
000270 3a 67 8c bd 42 88 89 3b da dc ab bd b5 ad 30 bd
       -0.068556264 0.0041971514 -0.083917335 -0.04313441
000280 e2 9a 2e 3d 19 22 0c 3e a9 eb a5 3d 86 89 e0 bd
       0.042628177 0.13684882 0.08101589 -0.109637305
000290 c0 52 5f 3d f2 f9 d6 bd 71 b9 a2 bd 10 e9 28 bc
       0.054522276 -0.10496892 -0.079455264 -0.010309473
0002a0 b8 18 cc bc 5a 1f 36 3e e7 ca 97 bc 9c df 95 bd
       -0.02491413 0.17785397 -0.018529369 -0.07318041

lstm.weight_ih_l0_reverse f4 [172, 6]
000000 e4 51 21 3e 84 50 7a 3d d9 78 0d be 09 72 45 3e
       0.15753895 0.061111942 -0.13815631 0.19281782
000010 5e 63 85 be 7f 18 6c 3e f5 20 90 bd 20 5f 25 be
       -0.26052374 0.2305622 -0.07037536 -0.16149569
000020 aa 47 95 3d 17 29 2f bd 78 6b c4 3d ee a9 17 bd
       0.072890595 -0.042763796 0.095908105 -0.037027292
000030 97 9f d3 3d df 1d 1f be d9 75 3c bd 82 4d 2a 3e
       0.10333174 -0.15538739 -0.046010826 0.1663113
000040 f9 25 53 3e b3 52 22 bd 4d 65 84 bd 27 55 5d 3d
       0.20619954 -0.03962965 -0.06464634 0.054036286
000050 13 a7 1e be f0 26 07 3d c4 6f 7d 3c 3e a0 4f 3d
       -0.15493421 0.032996118 0.0154685415 0.05068993
000060 d3 c8 28 3e 4e 99 2e 3e 01 f9 84 3c 4e 71 f0 bd
       0.16482858 0.17050669 0.016232016 -0.11740361
000070 da 30 26 3d 2d 55 9c bd f5 b5 f4 bd dd 08 80 bc
       0.040573932 -0.076334335 -0.11948768 -0.015629226
000080 03 c4 d9 bd 9f 16 ca bd ba ef f9 bd 53 a7 cb 3d
       -0.106330894 -0.09867596 -0.12203927 0.09944024
000090 35 12 05 be 77 9d 2f be 69 d6 b2 bd 78 13 c2 bd
       -0.12995227 -0.17149912 -0.08732302 -0.094763696
0000a0 fc 22 ce bd e7 13 6b 3e 44 39 b7 3c 69 63 09 3e
       -0.100652665 0.22956811 0.022366174 0.13416828
0000b0 38 47 7c bd 4c aa c3 3d 1d 74 06 3e 66 c5 36 be
       -0.061591357 0.09553966 0.13130231 -0.17848739
0000c0 c1 2e 3d bd fe 1d ba bd 63 35 f0 bc 83 1e 6e bd
       -0.046187166 -0.09087752 -0.029322332 -0.058134567
0000d0 18 20 f9 bd 74 4a c3 bd af c4 41 be 6b 6c b2 bc
       -0.121643245 -0.09535685 -0.18922685 -0.021780213
0000e0 17 75 b3 bd 6e 79 94 3d 42 db 83 bd 66 fe cf bd
       -0.087625675 0.072497234 -0.064383045 -0.101559445
0000f0 15 5d ed 3d 5c 29 4d bc 9d c2 ae 3d 5f 89 f3 3c
       0.115900196 -0.012522068 0.08533213 0.02972859
000100 34 10 90 be a9 5a 7a 3d 69 5d 03 3b 36 75 61 bd
       -0.28137362 0.061121617 0.002004469 -0.05504342
000110 02 5f 44 3d 6c e8 12 be 35 3f e4 bd ab cf d9 3d
       0.04794217 -0.14346474 -0.11144868 0.10635313
000120 76 87 4a 3e 19 c7 00 be 1b 75 1b be ea 50 44 bd
       0.19778237 -0.1257595 -0.15181391 -0.04792873
000130 08 61 88 3d 70 00 58 3d c3 14 11 3e 3b 93 03 be
       0.06659132 0.052734792 0.14168076 -0.12849133
000140 d7 d4 40 be 94 20 df 3d 57 c4 d1 bd 3b 51 6a 3d
       -0.18831192 0.10894886 -0.10242527 0.057206374
000150 49 0e ac 3d ce 13 70 3d 7f cf 7c bc e1 7c a6 3d
       0.08401162 0.058612637 -0.01543033 0.081292875
000160 51 3f 40 bd bd 91 10 3e 59 63 dd 3d b6 c1 90 bd
       -0.046935383 0.14118095 0.10809965 -0.070681974
000170 a1 17 07 3e 21 37 85 bd b3 90 83 bd e2 cd b3 bd
       0.13192607 -0.06504656 -0.064240836 -0.087795034
000180 ba 33 09 3e 09 ae 22 be 5a 7e dc bc 01 3d c6 3c
       0.13398638 -0.15886702 -0.026915718 0.02419901
000190 64 5d 3a 3d f3 0f 35 be cc 98 14 3d bc ad 1f 3e
       0.04549922 -0.17681865 0.03627853 0.15593618
0001a0 e5 3f 08 be cf 8b 54 3c 96 fd 1f bc 17 73 4d 3d
       -0.13305624 0.012972786 -0.009765049 0.050158586
0001b0 ef be 66 bd 82 41 5b be 47 45 be 3d d1 66 cc bd
       -0.056334432 -0.21411708 0.09290557 -0.09980548
0001c0 12 94 3b 3e 3f 3c 0b be 84 48 02 3e da b7 6c bb
       0.18318203 -0.13597201 0.12722975 -0.0036120326
0001d0 5f 9d 02 3c 95 5b e1 bd 1f 7b 0d 3e eb 57 e5 3c
       0.0079720905 -0.11003796 0.13816498 0.027996024
0001e0 86 a7 fb 3d 9a e6 48 3d 09 05 d4 bd 4e ea 20 3c
       0.12287812 0.049048044 -0.10352523 0.009821488
0001f0 1b ad fd 3c 46 66 97 bd 1b 9e 85 3d 4b a4 27 3e
       0.030966332 -0.07392554 0.06524297 0.16371267
000200 a0 14 45 bd 5c 3e 64 3d 39 23 33 bd 4a b5 85 bd
       -0.048115373 0.055723533 -0.043734763 -0.06528719
000210 c2 6d 28 be a7 6d 0c be 46 f2 0a bc 64 62 9c 3c
       -0.1644812 -0.13713704 -0.008480614 0.019089885
000220 03 3f fc 3d 51 c1 04 be c4 32 af bd a4 0a 18 3e
       0.12316706 -0.1296437 -0.08554605 0.14847809
000230 d7 55 2f 3e f3 6e 1e 3c dc d9 dd 3d 04 a0 fa bc
       0.17122589 0.009670007 0.10832569 -0.03059388
000240 9c 72 86 3d 3b 2a 4a 3d e6 31 1e be 9e c8 3d 3e
       0.06564829 0.04935668 -0.15448722 0.1853356
000250 81 cd 55 3c 26 5d ee 3d 10 7f 86 3d 40 01 26 3e
       0.013049484 0.116388604 0.06567204 0.16211414
000260 77 53 91 bd 3c 16 23 bd f9 f8 1e be 4c dc 0e be
       -0.07095998 -0.039816126 -0.15524663 -0.13951224
000270 c4 fe b7 bd 6a 30 9a bd 2a f4 e9 3d 21 78 ef bd
       -0.089841396 -0.075287655 0.11423524 -0.11692835
000280 a7 54 70 be 03 a8 a6 bd 00 d7 eb bd 6b 75 d8 3d
       -0.23469792 -0.081375144 -0.11515617 0.10569271
000290 e1 31 ab 3d 94 b3 0e 3e bf c3 30 3c 15 05 ba 3d
       0.08359123 0.13935691 0.010788857 0.090830006
0002a0 0a 99 bd 3d eb 1b 22 be d3 0a e8 bd 62 71 32 bd
       0.092577055 -0.15830962 -0.113301896 -0.04356516
0002b0 7b ac 31 bd b2 68 93 3d b5 0e 99 bd 0c 32 2e 3e
       -0.04337738 0.071977034 -0.07473508 0.17011279
0002c0 43 2b 98 bd 81 35 03 bd 88 1a 86 be 5a 0f b2 bd
       -0.074301265 -0.032033447 -0.26192117 -0.08694334
0002d0 a1 b1 1d be 3c 62 16 3e 70 4a 2c bd 10 30 8f 3c
       -0.15399791 0.14685911 -0.042063177 0.017478973
0002e0 c5 82 55 38 29 9c 90 ba e8 2f 27 3e ab 9b 83 bd
       5.0904946e-05 -0.0011032867 0.16326869 -0.06426176
0002f0 04 aa 57 3e a2 dc a4 bc fe c5 10 3e 94 c2 4a be
       0.2106095 -0.020124737 0.14138028 -0.19800788
000300 7c 2f 00 be 1f 55 ff 3d 72 7a 5b bd 67 43 89 bd
       -0.12518114 0.124674074 -0.05358357 -0.06702309
000310 bc 1f 18 be ee 91 37 3e 8a b3 57 3e 01 42 77 bd
       -0.14855856 0.17926762 0.21064582 -0.06036568
000320 dd 83 1f be a1 2a c2 3d f6 24 2f 3e 66 ce d9 3d
       -0.15577646 0.09480787 0.17103943 0.106350705
000330 6c 6f 2a 3e cd a4 f1 bb 4a 26 39 3e 0b 31 29 be
       0.16644067 -0.007374382 0.18081012 -0.16522615
000340 3c a7 cf 3c ee a4 43 be 05 81 55 3e 7a 4f 4d 3c
       0.025348298 -0.19105884 0.20849998 0.012531156
000350 ac cd 32 3e ab 8e ea 3d a3 2d 18 3d 47 fa 47 bd
       0.1746127 0.11452993 0.037152898 -0.048822667
000360 2d 30 c4 3d 63 8c ab bb 8c 9f 08 be 23 7b 33 bd
       0.09579501 -0.0052352413 -0.13342112 -0.043818604
000370 01 6a 13 bd 3f 08 2f 3e 45 be cb bd 09 66 dd 3d
       -0.035989765 0.1709299 -0.099484004 0.10810477
000380 a8 b0 c1 bd cf 32 97 3d 90 0b d5 3d b1 8b c4 3c
       -0.09457523 0.07382738 0.10402596 0.023992391
000390 43 81 83 3d 61 af c2 3d ae 9e e6 3d 62 a7 71 bd
       0.06421139 0.09506107 0.112607345 -0.05899752
0003a0 5f 61 55 3d a3 fe 19 3e b4 90 be 3d b6 9d 7a bc
       0.052094813 0.15038542 0.09304944 -0.01529639
0003b0 fc c3 03 be bc 29 e7 bc 2a 9a 9d bc 57 6e f1 3d
       -0.12867731 -0.028218143 -0.01923855 0.11788624
0003c0 0a d9 3a bd 02 15 f1 bc 97 56 2d be 1d d7 0a be
       -0.04561714 -0.029428963 -0.16927563 -0.13558622
0003d0 1a 3e 2d be b8 fa 33 3d b6 ee f7 3d 31 d6 22 bb
       -0.16918221 0.043940276 0.121060774 -0.0024846906
0003e0 d9 70 46 3e 6e 7d 0b be 99 ef 99 bd 99 30 8c be
       0.19378985 -0.13622066 -0.07516403 -0.27380827
0003f0 db 60 85 3d d0 09 41 be 9c 31 18 3e 0e c4 8a bd
       0.06512614 -0.188514 0.14862674 -0.06775676

lstm.weight_hh_l0_reverse f4 [172, 43]
000000 ad 6a 02 bd e8 d6 09 be 06 77 af 3d a0 d8 a4 bd
       -0.031840015 -0.13460886 0.08567624 -0.080491304
000010 a4 74 92 bc c1 68 d4 bc a1 1e 0a bc 90 1c 86 bd
       -0.017877884 -0.025928857 -0.008430154 -0.065484166
000020 5a 7d 21 3e 31 c9 62 3a b4 71 07 3e 1b 3e bc bd
       0.15770474 0.00086511957 0.13226968 -0.09191533
000030 48 05 de 3b c3 9b 4e be 09 14 1e be 4b 62 10 3e
       0.006775532 -0.20176606 -0.1543733 0.14099996
000040 dd 44 74 3c f4 36 0e bc 79 a0 a2 bd 41 cf 81 be
       0.014908996 -0.008680094 -0.07940764 -0.25353435
000050 95 df 17 3e ba a6 89 3d b3 f3 1f 3d 2f bb ae 3c
       0.14831384 0.06721254 0.03905077 0.02132949
000060 90 be b2 3d bb 1c 8f 3d 18 bd c4 bd 42 db 8d 3d
       0.08727753 0.06987902 -0.09606379 0.06926586
000070 91 52 74 bd 98 27 bb bd fc 61 39 3e 56 ba 2c bd
       -0.059649054 -0.09138411 0.18103784 -0.04216989
000080 01 46 d3 bd a8 51 d9 3d a1 0a 46 3d f8 28 53 3e
       -0.103160866 0.10611278 0.04834998 0.20621097
000090 79 c9 ff 3d a5 1f b7 3d bd ca 44 3e d5 9f 01 be
       0.124896 0.089415826 0.19217964 -0.12658627
0000a0 c5 d4 49 3c fa ae 1e bd d3 a1 28 be 06 89 84 3d
       0.012318795 -0.03874109 -0.16467981 0.06471448
0000b0 30 4d c4 3d 96 05 27 bc 02 98 a5 bd 47 f1 8a 3d
       0.09585035 -0.010194203 -0.08085634 0.06784301
0000c0 74 86 68 3d 28 73 80 3d 7f 4b 62 3d f4 4d 9e bd
       0.05676885 0.06271964 0.05524778 -0.07729712
0000d0 6d 6a 25 be d4 88 d3 bd 66 70 21 be 45 cf 78 3d
       -0.1615388 -0.10328832 -0.15765533 0.060744543
0000e0 89 36 2d bc ab 5b 8f 3c 2d 90 9d bd fa 7a f0 3d
       -0.010572084 0.017499765 -0.07693515 0.11742206
0000f0 e4 19 9a bd ed 7f db 3b 11 dd 45 3d df d3 ff bd
       -0.075244695 0.0066985996 0.04830653 -0.12491583
000100 5e 11 61 be 4e 8d 5d bd 88 84 3f be 71 65 20 be
       -0.21979281 -0.054089837 -0.187029 -0.15663697
000110 bb 9d fa bd 8b 89 0b be 86 3b dc 3d 6e a0 b1 3d
       -0.12237116 -0.13626687 0.10753541 0.08673178
000120 02 9c ce 3d 25 65 e4 3d 3e 91 42 3e 76 4b 91 bd
       0.1008835 0.11152104 0.19000718 -0.07094471
000130 2f b9 19 bd 93 14 97 bd ad db 01 3e 27 37 8b bd
       -0.03753012 -0.07376971 0.12681456 -0.06797629
000140 99 ba 0d be bb 07 9f bd fd f3 0d 3e 9f b7 3f be
       -0.13840713 -0.07765146 0.13862605 -0.1872239
000150 0c cf 57 bd d7 78 15 3c 33 e9 d3 bd ca 24 c0 bd
       -0.05268769 0.009123049 -0.103472136 -0.09382017
000160 be 4c c3 bd 45 1b b0 bd 19 fd 31 bd 8a 27 a4 3d
       -0.09536122 -0.08598951 -0.043454263 0.08015354
000170 52 45 f5 bc 14 5e bf 3d 7a 8b 03 be 7e 91 0a be
       -0.029940281 0.09344116 -0.12846175 -0.13532063
000180 9d 24 25 be 72 a0 e5 bd 6f 90 06 be 19 6f 6e bc
       -0.16127248 -0.11212243 -0.13141035 -0.014552855
000190 dd f7 7e 3d 72 ae b7 3d e6 0b 1b 3c 01 5b 92 bd
       0.0622481 0.0896882 0.009463286 -0.07146264
0001a0 9e 5d 8d bd 30 69 00 3e 74 27 c9 3d d8 20 fa bd
       -0.06902622 0.12540126 0.09821978 -0.12213296
0001b0 11 aa 3f 3e 92 29 8c bd 2d 01 cb bd c6 15 31 be
       0.18717219 -0.068438664 -0.09912334 -0.17293462
0001c0 ba d6 b7 3c 96 b4 d8 bd 09 d7 1c be 4f 22 a7 3d
       0.022441257 -0.10581319 -0.15316404 0.08160841
0001d0 68 68 1f 3e 1c d4 0b 3d 96 ed 0a 3e 52 3b 24 3e
       0.15567172 0.03413783 0.13567194 0.16038254
0001e0 0c c1 3c be 46 79 c1 bd 1b b2 6d 3d e2 45 a8 bd
       -0.18433017 -0.09446959 0.058031183 -0.08216454
0001f0 f0 ca e7 bd 4f a7 27 3e d7 51 b2 3d 28 12 29 bd
       -0.11318004 0.16372417 0.08707016 -0.04127708
000200 00 74 a7 bc 03 33 00 3e 5f c6 8f bd 7f 40 eb bd
       -0.020441055 0.1251946 -0.07020258 -0.11486911
000210 7c 35 ae 3d 0e dd 1f be 59 56 49 bd 1f c1 c1 3d
       0.08506295 -0.1561167 -0.049154613 0.09460663
000220 94 24 a1 bc 89 25 b9 bd 27 52 0f be f5 dc b2 bb
       -0.019670762 -0.090403624 -0.13996182 -0.005458469
000230 22 fc fd bd 6c d5 07 be 98 8d d5 3d 18 1b 2a 3e
       -0.12401606 -0.13265008 0.104273975 0.16611898
000240 1a c4 13 3e a2 75 00 be 48 82 b4 3d a5 b0 ff 3d
       0.14430276 -0.12544873 0.08813912 0.12484864
000250 91 28 e6 bd f2 93 cc bd b7 5b 30 3b af 6b 1d 3d
       -0.11238206 -0.09989156 0.0026910135 0.038432773
000260 23 e8 2c be ab 8e 40 bd 01 30 0d 3d cb 3e a5 bd
       -0.16885428 -0.04701106 0.03446961 -0.080686174
000270 4a 18 cb 3c 11 88 e7 bc 87 07 a0 bd bf 4f 0f 3e
       0.024791855 -0.028263124 -0.07813936 0.13995264
000280 cd 61 f8 bd 6f a3 32 3e 6a d9 d1 bd 56 69 07 3b
       -0.12128029 0.17445157 -0.102465466 0.002066215
000290 e6 1a ae 3c fe 59 1a be 73 98 f3 3d c3 fe da 3d
       0.02125306 -0.15073392 0.11894312 0.10693123
0002a0 37 c7 ea 3c d8 e7 16 3e 78 fa 32 3e a4 c2 67 3c
       0.028659446 0.14736879 0.17478359 0.014145527
0002b0 97 15 98 bd 95 26 1c 3d 83 87 61 3d 86 9f 9c bd
       -0.07425993 0.038122732 0.055060875 -0.07647614
0002c0 22 23 8c 3c 5f e2 96 3d bc bf f4 3d d9 0e ad ba
       0.017106596 0.073673956 0.11950633 -0.0013203277
0002d0 2b c8 05 3e 22 23 bc 3d b1 96 28 3d 13 68 09 be
       0.1306464 0.091863886 0.041159336 -0.13418607
0002e0 05 0b e0 3d 25 67 e8 bd 4f 6c 2f be ca 5d 42 3e
       0.10939602 -0.11347798 -0.1713116 0.1898109
0002f0 84 ad a9 3c 74 07 83 bd 63 c0 a4 bc 4c a6 0e be
       0.020712622 -0.06397906 -0.020111268 -0.13930625
000300 93 a8 b6 3d fe ba cf bd 51 cd a0 3d ca 55 c9 3d
       0.08918872 -0.10143088 0.07851661 0.09830816
000310 5c 9b e6 3d 67 6b fe bd e9 62 50 3e 81 d5 07 3e
       0.11260101 -0.12422829 0.20350231 0.13265039
000320 8e 33 0c be b2 df 8a 3d cf ac 9a 3d da b8 c8 bc
       -0.13691542 0.06780948 0.07552492 -0.024502207
000330 82 11 2d 3e ee d0 19 bd 7d dc f3 bd c6 6d 03 3e
       0.1690121 -0.037552767 -0.11907289 0.12834844
000340 ee 4b 85 3d 07 5d 54 bd 02 5f c4 3d b0 30 e3 bd
       0.06508623 -0.05184653 0.09588434 -0.11093271
000350 06 30 46 3e 52 a2 b3 3d 42 97 88 bd 81 ca a8 3d
       0.19354257 0.087711945 -0.06669475 0.082417496
000360 06 ca 90 3d ea 6f 62 3d a5 24 d1 3d 0b 53 32 3d
       0.07069783 0.05528251 0.102120675 0.043536227
000370 1f 18 2b 3e b2 03 9d 3d 3f 91 64 bd 8e 6f c6 bd
       0.1670842 0.076667204 -0.05580258 -0.09689246
000380 d5 89 a9 3b 81 23 3b be 6d 66 f9 bd cd bd a6 3d
       0.0051739016 -0.18275262 -0.12177739 0.081416704
000390 e1 75 32 3c 55 cc 67 bc d8 8e 0c bd 17 7c 39 bc
       0.010892362 -0.014147838 -0.034315914 -0.011321089
0003a0 03 1f ec bb 50 5c 0b 3e bf 89 14 bd 37 bf ad 3c
       -0.0072058453 0.13609433 -0.036264177 0.021209342
0003b0 84 fa 14 3e 97 fc db bd 2e 4a 43 3b 52 22 9c 3a
       0.14548689 -0.10741537 0.0029798853 0.0011912084
0003c0 38 93 40 3e e4 b9 77 bd c0 c7 37 bd 19 11 fd 3d
       0.1880616 -0.060480013 -0.04486823 0.12356777
0003d0 35 2c fe bd 98 93 1b be 72 e2 bb bd a8 a7 a3 3d
       -0.124107756 -0.15193021 -0.091740504 0.07990962
0003e0 9f 55 c4 bd 65 ff d4 bc 86 f5 da 3c 44 e8 f8 3d
       -0.095866434 -0.026000688 0.026728403 0.12153676
0003f0 8d 40 d6 bd 08 90 cd 3d 3c 42 f9 bc 31 58 13 be
       -0.10461531 0.100372374 -0.03042709 -0.14389111

lstm.bias_ih_l0_reverse f4 [172]
000000 36 e5 90 bd dd 2f 68 bd 72 58 b2 bd 56 20 21 bd
       -0.070749685 -0.05668627 -0.08708276 -0.03933748
000010 69 82 04 be f2 46 09 3c be b6 75 3d 0c e8 db bd
       -0.12940373 0.008378731 0.05998873 -0.10737619
000020 7f 80 f2 3c 72 5f f9 3d 62 37 4d 3d eb c2 86 3d
       0.029602287 0.12176408 0.050101645 0.065801464
000030 19 3a ea bc 2f 74 0c be 53 71 13 3e 22 bf a8 bd
       -0.028592156 -0.13716196 0.14398699 -0.08239581
000040 81 db 6e 3b f9 4b 07 be 09 9a 6f bd 87 f7 92 bd
       0.0036446752 -0.13212575 -0.05849651 -0.07176118
000050 f5 c4 a2 3c ba ce 2e bd 61 3d 1d 3d 6e 05 00 be
       0.019869307 -0.04267762 0.038388614 -0.12502071
000060 9a ff fa 3d 45 69 d7 3d 0f 68 b8 3d 54 41 c8 bd
       0.122557834 0.105181254 0.090042226 -0.09778085
000070 8f 81 0d be 44 b6 e2 bc 78 f2 b4 bc 91 12 bd bd
       -0.13818954 -0.027674802 -0.022088274 -0.09232057
000080 a8 0e e6 bc 43 5a e7 3d 0e 43 bb 3d 31 cb 6f bc
       -0.02808316 0.11296513 0.09143649 -0.014635847
000090 17 20 6f 3d 6d 2e 35 bb d7 5b 0c 3e f6 ad 8c 3c
       0.058380213 -0.002764608 0.13706909 0.017172795
0000a0 99 b1 22 3d 42 b3 85 3d a4 aa 3a 3e 2b 70 af bc
       0.03972015 0.06528331 0.18229157 -0.02141579
0000b0 a9 ab 2a bd 80 cb 0d 3d a0 8a 34 3e 6a 15 60 3d
       -0.041667614 0.0346179 0.17631006 0.054707922
0000c0 d9 ba 97 3d 50 ef 24 3e 2b a0 6f bc d2 7e cf 3c
       0.07408685 0.16106915 -0.014625589 0.025329027
0000d0 fa eb c4 3c 81 0f 31 3e 65 a5 7b 3d 50 8f ee bd
       0.024038304 0.1729107 0.06143703 -0.116484284
0000e0 09 b3 f1 3d 52 9c a7 3d 4f 0e 00 be f5 93 df bd
       0.11801726 0.081841126 -0.12505458 -0.109168924
0000f0 ce 38 8e 3c 63 12 30 3d b7 f7 86 bd 9c c0 41 bd
       0.017361071 0.042986285 -0.065902166 -0.047302827
000100 3b 2f be 3d c7 ff c7 3d 7a 37 87 3b 62 07 08 be
       0.09286352 0.097655825 0.0041264864 -0.13284066
000110 87 27 05 3e 4c 32 b4 bd b5 f2 d7 bd f3 f1 3d bd
       0.1300336 -0.08798656 -0.105443396 -0.04637332
000120 63 61 e8 3d 4e 00 0f bd ad b1 ec 3c 6c 1d 33 bd
       0.113467 -0.0349124 0.028893316 -0.04372923
000130 90 20 80 3d 02 63 ef bd 15 8a bf bd 14 a6 51 3c
       0.06256211 -0.11688806 -0.09352509 0.012795944
000140 b3 af 42 3d fd 29 0d 3d 2f ff 3c 3d 9b 84 bc 3d
       0.04753084 0.03446387 0.0461418 0.0920498
000150 0a 72 fb bd be 91 29 3d f3 13 06 be 33 d2 a6 bd
       -0.122776106 0.041398756 -0.13093548 -0.08145561
000160 c5 cc 9f bc ce 61 dd 3d e2 42 17 3e 21 e2 ae 3c
       -0.019506821 0.108096704 0.14771608 0.021348061
000170 84 1f a5 3c 49 e0 e0 3d 2c c3 db 3d cb 79 22 be
       0.02015663 0.10980279 0.107305855 -0.15866773
000180 b8 b6 ae bd 22 94 25 bd 0a 6c 74 3d 10 0c d9 3b
       -0.085309446 -0.040424474 0.059673347 0.0066237524
000190 2f b3 f6 bb 41 98 9a 3d ee 97 35 3d 20 22 bf bc
       -0.0075286846 0.075485714 0.044334345 -0.023331702
0001a0 e8 0b 01 be 50 b7 b0 3d 16 a6 5f bd 8d f8 01 be
       -0.12602198 0.08628714 -0.05460175 -0.12692471
0001b0 5f 28 19 3d 2e 9e 1d 3d ca 71 ee bd 00 6b ce 3d
       0.037392017 0.03848093 -0.11642797 0.100790024
0001c0 c3 94 04 3d 0e e9 00 3d cc b8 05 be c9 7b 10 3e
       0.032368433 0.03147226 -0.13058776 0.1410972
0001d0 34 41 da 3b be 04 26 3d 7e 86 46 3d 57 56 6e bd
       0.006660605 0.040531866 0.048468105 -0.05818781
0001e0 a6 f2 87 bc 0e 2c 83 3d 70 10 3c 3d 06 9b 9b bc
       -0.016595196 0.06404887 0.045914114 -0.01899482
0001f0 16 8f af 3d 32 ad ab bc 23 ed 04 3e 1f 47 7d bd
       0.08572213 -0.02095661 0.12981085 -0.061835404
000200 41 00 77 bd d0 60 cb bd 57 57 cb 3d c6 02 72 bd
       -0.060302977 -0.09930575 0.09928768 -0.059084676
000210 14 83 9e 3d 0b a0 db 3c 97 dd aa bd b8 6f 3c 3e
       0.07739845 0.026809713 -0.08343046 0.18401992
000220 f3 27 b1 3d 78 c4 cc 3b 90 43 0b 3e dd f4 09 3e
       0.08650198 0.006249007 0.13599992 0.13472314
000230 af a1 93 3d 82 c1 36 3d c0 a9 0d 3e ad cc 13 3e
       0.07208573 0.044618137 0.13834286 0.14433546
000240 43 8a ad bd d1 ff b1 3d 9d ea 8a 3d af 29 c9 bb
       -0.08473637 0.08691371 0.0678303 -0.0061390023
000250 42 56 86 3d 7f df 98 3c 97 2b 6b 3b 02 2b c0 bc
       0.06559421 0.018661259 0.0035884136 -0.023458008
000260 f7 00 5c 3d bb a3 66 bb 7a 94 00 be b1 5f 7c 3d
       0.053711858 -0.0035192806 -0.1255664 0.061614696
000270 83 d7 93 3d a6 4e 4a bc 8e 8b ce bd 4b 86 de bc
       0.0721884 -0.012347853 -0.10085212 -0.027163645
000280 59 ab 37 3d ee 12 a1 3d 61 54 cb bb bc e1 61 bd
       0.044841144 0.07864939 -0.006205127 -0.055146918
000290 69 1b c0 3d ee 32 af 3c 7e 7c d6 3d 47 77 ec 3b
       0.09380228 0.02138659 0.10472964 0.0072163674
0002a0 7e a3 2e be 9c 5b d4 3d c4 e9 b2 3d 99 bd 07 3e
       -0.17054555 0.103690356 0.087359935 0.1325592

lstm.bias_hh_l0_reverse f4 [172]
000000 70 6a 8d bd c1 28 1d 3c 20 93 a0 3c de 21 36 bd
       -0.06905067 0.009592236 0.019601405 -0.044465892
000010 cf f5 2a 3e fd 83 04 bd 82 cf 4e bd 20 b9 16 3e
       0.16695331 -0.032352436 -0.050490864 0.14719057
000020 0b c8 48 bb c3 df 04 bd 6b 44 18 be 78 a8 05 be
       -0.0030636813 -0.03243996 -0.1486985 -0.13052547
000030 fd b8 94 3d a4 42 ab 3d 41 2d 48 3d aa e2 85 bb
       0.07261846 0.0836232 0.048871282 -0.0040858584
000040 39 e8 a5 3c 0f 6e 96 bd 59 74 20 be 6f 2d 3c b9
       0.020252334 -0.07345211 -0.15669383 -0.00017946002
000050 16 45 f9 3d 39 0b 87 3d 67 d1 df bd 8f 70 7f bc
       0.1217138 0.065939374 -0.10928612 -0.015590801
000060 40 ae 3a bd 33 c8 6c 3c 8d 76 58 bd c1 a5 19 3d
       -0.045576334 0.014452028 -0.052847434 0.03751159
000070 13 26 80 bd c8 33 12 3e c7 3c 44 3b 24 bf fd 3d
       -0.06257262 0.14277565 0.0029943453 0.12389973
000080 cd d6 90 bb e9 53 d6 bd 18 54 16 bd f1 31 80 bd
       -0.0044201375 -0.10465223 -0.03670129 -0.062595256
000090 a7 d5 94 3d ee 84 c4 bc 0c 1f 96 3d a8 4b 12 3d
       0.072673135 -0.023989167 0.073301405 0.035716683
0000a0 a3 e8 ed bd 6e 4a c0 bc 69 7b 08 bd 95 44 eb 3d
       -0.116166376 -0.02347299 -0.033320818 0.1148769
0000b0 b7 2c 0b be 44 6a 3d 3d 62 eb ac 3d ae da df 3d
       -0.13591276 0.04624392 0.08443333 0.10930382
0000c0 4e 05 66 3d 52 49 ba 3c ac 42 0d be 02 89 dc 3c
       0.056157403 0.02274004 -0.13794965 0.0269208
0000d0 11 2a 95 bd ac fb d1 3d 26 43 e8 3d 75 49 05 3d
       -0.07283414 0.10253081 0.113409325 0.032540757
0000e0 df 0f 0f be 18 fe 8b 3d 93 10 31 3c 5a da ba bd
       -0.13970898 0.06835574 0.010807174 -0.091236785
0000f0 b9 b3 8f bd db 65 fe 3c 41 05 40 bc 08 57 1e be
       -0.07016701 0.031054428 -0.011720003 -0.15462887
000100 b2 12 2d 3e a5 61 de bd dc 39 a0 bc 33 c2 da 3d
       0.16901663 -0.10858468 -0.01955884 0.10681572
000110 ed 12 c3 bd 91 cb 41 3e cd 81 20 3e 7e 0d a6 3d
       -0.09525094 0.1892531 0.15674515 0.08108042
000120 55 16 e8 3d 0a aa 0c 3b e5 67 2f 3d c3 29 15 be
       0.113323845 0.0021463656 0.04282369 -0.14566712
000130 1f e1 18 3c 86 2d d4 bd b6 fb 7f bd 84 ee 7d bd
       0.009331017 -0.103602454 -0.06249591 -0.061995044
000140 7b c1 07 3e 2d ec 3c 3e 65 b7 fd 3d 20 14 16 bd
       0.132574 0.18449469 0.12388495 -0.036640286
000150 56 51 01 3e 3e 13 81 3d 6c 87 81 bd d1 b5 56 3d
       0.12628683 0.06302498 -0.06324658 0.052419487
000160 63 da 80 bd 63 bc 3c 3d 2e 8f 1c 3e 2a 3d d3 bd
       -0.06291654 0.046078097 0.15288994 -0.103144005
000170 bc 1c 39 3e e8 58 ef bd cb fc 08 3e 42 5d 4d 3d
       0.18077368 -0.116868794 0.13377683 0.050137766
000180 ee 39 ba 3d 1f 7d fb 3c 6d 47 8a bd 33 34 a0 bd
       0.090930805 0.03069931 -0.06751905 -0.07822456
000190 59 7f be 3d c0 b7 e1 bd e5 59 3e 3c f2 ac af bd
       0.093016334 -0.11021376 0.011618112 -0.085779086
0001a0 b5 86 a4 bd 85 f5 d5 bd 68 3e cd 3d 5b f7 a9 bd
       -0.08033506 -0.1044722 0.10021669 -0.082991324
0001b0 f4 6e aa bd 67 30 2e bd 9c 18 a6 3d 45 42 05 be
       -0.08321944 -0.04252663 0.081101626 -0.13013561
0001c0 9e 6d c7 3d e5 56 73 3d 9f 28 4d bd 13 59 4e bb
       0.09737705 0.05940904 -0.050087567 -0.0031486198
0001d0 38 46 ff bd 71 10 48 3d 38 ac 2c 3d 40 68 28 3e
       -0.12464565 0.048843805 0.042156428 0.16446018
0001e0 e5 d8 17 3e 0a 69 1c be 2a 83 55 bd 43 8b 4e 3d
       0.14828832 -0.15274444 -0.05212704 0.05042578
0001f0 06 7f ef 3d 35 9a e1 bd 89 78 8b bc c5 6e e2 bc
       0.1169415 -0.11015741 -0.01702525 -0.02764071
000200 a7 73 66 3a e4 df 9d bb 3d 0b 00 be 9a 6a 0a 3e
       0.0008791037 -0.0048179496 -0.12504287 0.13517228
000210 b3 91 0f 3e c5 6f 03 3c f3 31 45 3d a4 fe e5 3d
       0.14020424 0.008022253 0.04814334 0.112302095
000220 8b ca 84 3c 60 b0 1c 3c fa dc 03 3e fa 26 a4 3d
       0.016209861 0.009563535 0.12877265 0.08015247
000230 f4 8e 04 be ca 5e 7c 3d 0f b9 88 3d 97 6d d4 3c
       -0.12945157 0.061613835 0.06675922 0.025931163
000240 99 3f f9 bc 7b 26 fb 3d f2 7f 0d 3d 78 0a a2 bd
       -0.030425834 0.12263199 0.034545846 -0.07912153
000250 fc a8 0a 3e d2 8a de bd ea 15 ae bd 1e 5b e9 3d
       0.13541025 -0.108663216 -0.085002735 0.11394332
000260 fc 23 6d 3b 22 fe 62 3d df 36 e3 bd 6f 67 f3 3d
       0.0036184778 0.05541814 -0.1109445 0.11884963
000270 95 9c c3 3c 6d d5 dc 3b 91 1e af 3c 01 34 09 3e
       0.023878375 0.0067393095 0.02137688 0.13398744
000280 7d 2b ea 3c 24 e3 f5 bd 44 39 c9 3d 65 a4 d6 bd
       0.02858519 -0.12006214 0.09825376 -0.104805745
000290 7d 36 7a 3d 19 1b 3b 3d 92 ad fe 3d 83 9a a4 bd
       0.06108712 0.04568014 0.1243545 -0.08037283
0002a0 41 9b 32 3d 7e d3 45 bd 45 2c 05 be a0 18 be bd
       0.043605093 -0.048297398 -0.13005169 -0.092820406
