model_config/best_finetune_from_1.0_gas_to_ev_lstm.pt (torch, 436134 bytes, 25 tensors)

lstm.weight_ih_l0 f4 [172, 6]
0	0x3d6cae6f	0.05778354
1	0x3d8e928b	0.069615446
2	0x3ca5bc2c	0.020231329
3	0xbe1beb1c	-0.15226406
4	0x3dd75f9d	0.10516284
5	0x3e47240c	0.19447345
6	0x3d857368	0.065161526
7	0x3e4a8399	0.19776763
8	0x3b19cfc3	0.0023469783
9	0x3da8826b	0.08228
10	0x3e2cc1b6	0.1687077
11	0x3d275702	0.04085446
12	0xbe5a8939	-0.21341409
13	0x3e56e47a	0.20985594
14	0x3d936b68	0.071982205
15	0xbdac411d	-0.08410857
16	0x3df779bb	0.12083765
17	0x3c8c1316	0.017098945
18	0xbcf9d7d0	-0.030498415
19	0xbd9ded51	-0.0771128
20	0xbd1acaf9	-0.037791226
21	0xbe6198c5	-0.22030933
22	0x3e35fd71	0.17772461
23	0xbdd85f4f	-0.10565054
24	0x3ddf4979	0.10902686
25	0xbe699e26	-0.22814235
26	0xbca0f531	-0.019648166
27	0x3dfff45e	0.12497781
28	0xbe1940ec	-0.14966172
29	0x3e75b684	0.23995405
30	0xbdf369ad	-0.118853904
31	0xbdac05c5	-0.08399538
32	0x3e347768	0.17623675
33	0x3dbc2305	0.09186367
34	0x3e479438	0.19490135
35	0xbe10cc79	-0.141405
36	0xbc5680df	-0.013092249
37	0xbe1f53ca	-0.15559307
38	0xbdb4bf87	-0.088255934
39	0xbd87aeef	-0.06625163
40	0xbd9c4895	-0.076310314
41	0x3d26623b	0.040621024
42	0xbdded4ba	-0.10880418
43	0xbe697f40	-0.22802448
44	0xbe22d779	-0.15902509
45	0xbe4a5a51	-0.19761015
46	0xbdb7692d	-0.089556076
47	0x3c926074	0.017868258
48	0xbd36a8e0	-0.044594646
49	0x3cf8b760	0.030360878
50	0xbc6f8d68	-0.014621116
51	0x3db34416	0.08753221
52	0xbd28e540	-0.041234255
53	0xbddee073	-0.10882654
54	0xbdd76638	-0.105175436
55	0x3d23e240	0.04001069
56	0x3dc76ed0	0.09737933
57	0x3d718d3e	0.05897259
58	0x3e2bb1b9	0.16767015
59	0xbdc195a7	-0.09452372
60	0x3dae7c31	0.085197814
61	0xbd19fd91	-0.037595335
62	0xbdda509d	-0.10659907
63	0xbd8e1131	-0.06936873
64	0xbe030ee2	-0.12798646
65	0x3c41ef26	0.011836803
66	0xbe001a08	-0.1250993
67	0xbe379ae4	-0.1793018
68	0xbe17a834	-0.14810258
69	0xbddd4bb2	-0.10805453
70	0x3d093e3f	0.033506628
71	0x3d1f03c2	0.038821943
72	0xbe6e9b95	-0.23301537
73	0xbd822ffe	-0.0635681
74	0x3cb2ced3	0.021827137
75	0x3d7fd2ea	0.062457003
76	0xbdba4817	-0.09095781
77	0x3db1978e	0.08671485
78	0xbe0f3b66	-0.13987502
79	0xbe50d3b1	-0.20393254
80	0x3d5b686f	0.053566393
81	0x3df33dc9	0.11877019
82	0x3d9ca486	0.07648568
83	0xbe34d3d5	-0.17658933
84	0xbe03dc00	-0.12876892
85	0xbe00cd92	-0.12578419
86	0x3da46a08	0.08028036
87	0xbe154467	-0.14576875
88	0xbda1a02a	-0.07891877
89	0x3dcfabd1	0.10140193
90	0x3e7d5396	0.24738917
91	0x3d9dc89f	0.07704281
92	0x3d8daba1	0.06917501
93	0xbda6899e	-0.08131717
94	0xbd229079	-0.03968856
95	0x3d959914	0.07304588
96	0x3e22b89b	0.15890734
97	0xbd6c5c6d	-0.05770533
98	0xbdec12e0	-0.115270376
99	0xbadd813b	-0.0016899476
100	0x3ddde7b4	0.108352095
101	0x3dfde5db	0.12397357
102	0x3e17e1a1	0.14832164
103	0xbd4c16f7	-0.04982659
104	0x3ce73177	0.028221829
105	0xbda5a987	-0.080889754
106	0x3dff5305	0.124670066
107	0xbc262104	-0.0101397075
108	0xbe05a4dd	-0.13051172
109	0xbd3e35b7	-0.046437945
110	0x38cc0f8a	9.7303724e-05
111	0xbdc68579	-0.09693427
112	0x3e20aba5	0.15690477
113	0x3c36e906	0.011163956
114	0x3e5d691c	0.21622127
115	0x3dfe6241	0.12421084
116	0x3d9ae529	0.0756324
117	0x3e360bb2	0.17777899
118	0xbd761fcc	-0.060088918
119	0x3cb6d6ad	0.022319162
120	0xbdd421ab	-0.10357984
121	0xbd6c8693	-0.057745527
122	0x3d2eea58	0.042703956
123	0xbddd3708	-0.10801512
124	0xbe2b62f3	-0.16736965
125	0xbe2afe95	-0.16698678
126	0xbd450cab	-0.048107784
127	0x3c6608f8	0.014040224
128	0xbe054fdc	-0.13018745
129	0xbcb834b9	-0.022486078
130	0x3ddfc121	0.10925508
131	0xbde7ab45	-0.11311964
132	0xbc8542a5	-0.01626713
133	0xbe0221a4	-0.12708145
134	0xbd4b29b4	-0.049600318
135	0x3e198e12	0.14995602
136	0xbe57ad45	-0.21062191
137	0x3d1d6443	0.038425695
138	0xbd66c460	-0.05633962
139	0x3d6b0f9b	0.05738793
140	0x3e034562	0.12819436
141	0xbd86b762	-0.06577946
142	0x3e60c8c4	0.21951586
143	0xbde93597	-0.113871746
144	0x3e275c2c	0.16343755
145	0xbdccab0c	-0.09993562
146	0xbe0ceb14	-0.1376155
147	0xbc900172	-0.017578814
148	0xbdac4577	-0.08411687
149	0x3cbc21bf	0.02296531
150	0xbc5e5760	-0.0135706365
151	0x3e497392	0.19672993
152	0xbd85d9c6	-0.065356776
153	0xbb2729f5	-0.0025507186
154	0x3e1bc119	0.1521038
155	0x3e3bfe97	0.18358837
156	0xbe05d753	-0.13070421
157	0x3e04d556	0.12972006
158	0xbdf4a702	-0.11945917
159	0x3d7eeeba	0.062239386
160	0xbe083923	-0.13303046
161	0xbb43e909	-0.0029893538
162	0xbd977aae	-0.07396446
163	0x3d812e4f	0.06307661
164	0x3d40f42a	0.047107853
165	0x3d05853d	0.03259777
166	0x3e4570f1	0.19281365
167	0xbe2a6a0e	-0.16642019
168	0x3c82abba	0.015951026
169	0xbe07550c	-0.13216037
170	0xbd1b397c	-0.03789662
171	0xbe195c91	-0.14976718
172	0xbda5df8e	-0.0809928
173	0x3d77e043	0.060516607
174	0xbcaa9867	-0.020824624
175	0xbd76439a	-0.060123064
176	0xbdd38ebc	-0.10329959
177	0xbe088278	-0.1333102
178	0xbc832217	-0.016007466
179	0x3e1cd1ef	0.15314458
180	0x3d305b3c	0.043055758
181	0x3d57e476	0.05270811
182	0xbd6a462f	-0.05719584
183	0xbe541dda	-0.20714512
184	0xbd35e4b7	-0.044407573
185	0x3abbf95f	0.0014341286
186	0xbe159be7	-0.14610253
187	0x3dd365ea	0.10322173
188	0xbce78d57	-0.028265638
189	0xbd6fcdd2	-0.058545895
190	0x3c54dc8a	0.012992034
191	0xbda80006	-0.082031295
192	0x3e00b956	0.125707
193	0x3e186f3d	0.14886184
194	0xbe060778	-0.13088787
195	0x3e0e3c17	0.1389011
196	0x3d77c5fa	0.06049154
197	0x3d07caec	0.033152506
198	0x3cbeec92	0.023306165
199	0x3e6ea402	0.23304752
200	0x3e0d2c7e	0.13786504
201	0xbd199ea6	-0.037504815
202	0xbe285804	-0.16439825
203	0xbe1293cc	-0.14314193
204	0xbd43ae6f	-0.047773775
205	0xbd5e8534	-0.05432625
206	0xbe203f1f	-0.15649079
207	0xbde4d42a	-0.111732796
208	0x3d60b4c3	0.054859888
209	0xbe2b71ae	-0.16742584
210	0x3dbeec51	0.093224175
211	0x3d274f44	0.040847078
212	0xbbdcfdaa	-0.0067441063
213	0xbb9a34fe	-0.004706024
214	0x3dfd6254	0.1237227
215	0xbde43c11	-0.11144269
216	0xbd525d9a	-0.051358797
217	0x3dd5357e	0.104105935
218	0xbe022f6c	-0.12713403
219	0x3de3924c	0.11111888
220	0xbd25c1c2	-0.040467985
221	0x3e01162e	0.12606117
222	0xbdc8310f	-0.09774982
223	0x3a2be04f	0.0006556557
224	0x3da1674f	0.07881033
225	0x3cb1cabf	0.021703122
226	0xbc99f7d8	-0.018794939
227	0xbe24e50e	-0.16103002
228	0x3d88dd81	0.066828735
229	0xbcb9f3ab	-0.022699198
230	0x3e25f9fe	0.16208646
231	0x3c7d23bd	0.015450415
232	0x3e2f9cb2	0.17149618
233	0x3df7de62	0.12102963
234	0x3dc5688f	0.096390836
235	0x3df358f9	0.118822046
236	0x3d5d6c1c	0.05405818
237	0xbd2a11a2	-0.041520722
238	0x3e00e643	0.12587838
239	0x3e67cf1e	0.22637603
240	0x3cbe180c	0.023204826
241	0xbdd9e95c	-0.10640213
242	0xbd04dcb1	-0.03243703
243	0x3d19bfed	0.03753655
244	0xbe125d59	-0.14293422
245	0xbe4be235	-0.1991051
246	0x3e058ace	0.13041231
247	0x3e00a302	0.12562183
248	0x3e41ac7e	0.18913457
249	0x3d2fb513	0.042897295
250	0x3d93ca58	0.072163284
251	0x3df67a31	0.12035025
252	0xbd72385b	-0.059135776
253	0x3e1778d0	0.1479218
254	0x3dc7b603	0.09751513
255	0x3de2cca4	0.11074188

lstm.weight_hh_l0 f4 [172, 43]
0	0xbd8f6410	-0.07001507
1	0xbda8eb25	-0.08247975
2	0x3cadf5d9	0.021235393
3	0x3daa7038	0.08322185
4	0xbe48b413	-0.19599943
5	0xbcbca1b5	-0.023026327
6	0x3d4526a4	0.048132554
7	0xbd675090	-0.056473315
8	0xbdd35b4c	-0.10320148
9	0xbdfd7bc2	-0.123771206
10	0xbdba7872	-0.09105004
11	0xbe84d7e1	-0.25945953
12	0xbb2b56c8	-0.0026144255
13	0xbe7f075f	-0.24905156
14	0xbccb1915	-0.024792233
15	0x3ba4615e	0.00501649
16	0x3e6a68b5	0.22891505
17	0x3c9fb066	0.019493293
18	0x3dc72ac6	0.09724955
19	0x3c886bb9	0.016652929
20	0x3d0eed80	0.034894466
21	0xbdce14b9	-0.10062546
22	0x3da0a826	0.07844572
23	0x3e023bc3	0.1271811
24	0x3e16eb53	0.14738207
25	0xbd8495ff	-0.06473922
26	0x3ca2a754	0.019855179
27	0x3e004951	0.12527968
28	0x3d236169	0.03988782
29	0x3e13170f	0.14364265
30	0xbc6dbb7a	-0.01451003
31	0xbe1aab78	-0.15104473
32	0xbc8dbc94	-0.017301835
33	0x3b231352	0.0024883342
34	0x3e003882	0.12521556
35	0x3e1d2476	0.1534594
36	0x3ca1abdc	0.01973527
37	0x3d8c97b9	0.06864876
38	0x3c537550	0.012906387
39	0xbd1cf29c	-0.038317308
40	0xbd79de6e	-0.06100314
41	0x3d946149	0.07245118
42	0x3e1a5d69	0.15074696
43	0x3cb91712	0.022594009
44	0xbd89d35c	-0.06729767
45	0x3d966633	0.07343712
46	0xbc3180ae	-0.010833902
47	0xbc0e9959	-0.008703553
48	0xbdbec13e	-0.09314202
49	0xbe05bfde	-0.13061473
50	0x3d86dc99	0.065850444
51	0x3e005672	0.12532976
52	0xbdd3f152	-0.103487626
53	0x3d6f7b17	0.058466997
54	0xbe2650ed	-0.16241808
55	0x3e0cd48b	0.13752954
56	0x3ca50f00	0.020148754
57	0x3e29dd0e	0.16588232
58	0x3da95cca	0.08269651
59	0x3e0d1a54	0.13779575
60	0x3e0829df	0.13297223
61	0xbc582157	-0.013191543
62	0x3c89b428	0.016809538
63	0x3e48a5f2	0.19594553
64	0x3d3daf9b	0.04631005
65	0xbd8982a1	-0.067143686
66	0x3dada34c	0.08478412
67	0x3dcfc14b	0.101442896
68	0x3dfdb79a	0.12388535
69	0xbba4f9d9	-0.005034667
70	0x3d831d51	0.06402076
71	0xbd06bebf	-0.032896753
72	0xbbf305ee	-0.0074164784
73	0xbdb3b87f	-0.08775424
74	0x3d2df290	0.042467654
75	0x3d4d6abc	0.050150618
76	0x3da34bd6	0.07973449
77	0xbcfc2377	-0.03077863
78	0x3e09e22f	0.13465188
79	0xbcbef5e7	-0.023310615
80	0xbcc76dab	-0.024344286
81	0x3cee08bb	0.029056897
82	0xbd9dca3b	-0.07704588
83	0x3d170f90	0.036880076
84	0xbcd34c8d	-0.025793338
85	0xbe10bff9	-0.14135732
86	0xbddde359	-0.10834379
87	0xbc88e726	-0.016711783
88	0xbd158bbf	-0.036510225
89	0xbda1030a	-0.07861908
90	0xbcd056bc	-0.025431983
91	0x3e199f8c	0.15002269
92	0xbe14f5c3	-0.14546876
93	0xbe56a641	-0.20961858
94	0xbdd8b6bd	-0.105817296
95	0xbe1dff91	-0.15429522
96	0x3d5c42a4	0.05377449
97	0x3dc8f90c	0.09813127
98	0x3e950235	0.29103246
99	0xbdfafd1a	-0.122553065
100	0x3d955a5d	0.07292626
101	0xb91c2621	-0.00014891523
102	0xbda065de	-0.078319296
103	0xbe6db350	-0.23212934
104	0xbdfeb229	-0.12436325
105	0xbdf8d46d	-0.12149892
106	0x3e1191d9	0.14215793
107	0xbe06760a	-0.13130966
108	0xbdaaba21	-0.083362825
109	0xbd85aa00	-0.065265656
110	0x3e0f4b37	0.13993536
111	0x3e435b82	0.19077876
112	0xbe243ad7	-0.1603807
113	0xbdcc74ed	-0.09983239
114	0x3da94d85	0.08266739
115	0xbdec752d	-0.11545787
116	0xbe0e1662	-0.13875726
117	0xbdc1b72b	-0.09458765
118	0xbc44e4b8	-0.012017421
119	0xbde91445	-0.11380819
120	0x3cbe6f96	0.023246568
121	0xbd95a047	-0.07305961
122	0xbc7340ac	-0.014846962
123	0xbd9b18ce	-0.075730905
124	0xbaca231b	-0.0015421839
125	0xbd6f3615	-0.058401186
126	0x3e0e7164	0.13910443
127	0xbc8c2609	-0.01710798
128	0x3d634b10	0.055491507
129	0x3c291f96	0.010322472
130	0xbd1a45f3	-0.037664365
131	0xbe04c310	-0.12965035
132	0xbdc11bf2	-0.09429158
133	0xbc4c8617	-0.012483141
134	0x3e14c7b1	0.14529301
135	0x3cf49254	0.029854931
136	0xbe32630f	-0.174206
137	0xbd9ad928	-0.075609505
138	0x3d7c0e63	0.061537158
139	0xbd8d5e13	-0.06902709
140	0x3dc0bb7e	0.09410761
141	0xbdfe7808	-0.12425238
142	0x3cfedc72	0.031110976
143	0x3d3aea3f	0.04563355
144	0xbce9fa6c	-0.028561793
145	0x3dac6456	0.08417575
146	0x3e21956c	0.15779656
147	0xbe264321	-0.16236545
148	0xbe11d670	-0.14241958
149	0x3d3723e0	0.044711947
150	0x3dfb36fb	0.12266346
151	0xbd406805	-0.0469742
152	0xbded4e66	-0.11587219
153	0xbd63c445	-0.0556071
154	0x3db311bc	0.08743617
155	0x3d061a6d	0.032740045
156	0xbcc2a242	-0.023759011
157	0x3d303c5d	0.043026317
158	0xbe25edcf	-0.16203998
159	0xbd352f3d	-0.044234503
160	0xbde86f36	-0.11349337
161	0xbd07c4a0	-0.0331465
162	0x3db9da0b	0.090747915
163	0x3db50197	0.08838194
164	0xbcc216e2	-0.023692552
165	0xbd179225	-0.03700461
166	0x3df05b6f	0.117361896
167	0xb982af69	-0.00024926223
168	0xbddc5acd	-0.107595064
169	0x3d948136	0.072512075
170	0x3dab46ee	0.08363138
171	0xbe50bfc7	-0.20385657
172	0xbe589366	-0.21149978
173	0x3c909d95	0.017653266
174	0xbd3af52f	-0.04564398
175	0xbe2f4cd4	-0.17119151
176	0xbe43f6ab	-0.19137065
177	0x3dd2dbcf	0.102958314
178	0xbe002642	-0.12514594
179	0xbd1fa3a1	-0.038974408
180	0xbde25085	-0.11050514
181	0xbde8ab0c	-0.113607496
182	0x3c8f594f	0.01749864
183	0xbd82fc2f	-0.063957565
184	0x3d8d9c1c	0.06914541
185	0xbe225f40	-0.15856647
186	0x3d9d96c0	0.07694769
187	0x3d4bca4d	0.049753476
188	0x3e6e83b5	0.2329243
189	0xbe752dfa	-0.2394332
190	0x3c2d4b7b	0.010577078
191	0x3e43c49f	0.19117974
192	0xbe2fcfe3	-0.17169146
193	0x3cf05585	0.029337654
194	0x3ca22cd1	0.01979676
195	0x3d477ba5	0.0487019
196	0xbdeb411c	-0.11487028
197	0x3d6a02bb	0.05713151
198	0xbdbb98ee	-0.091600284
199	0x3d23e392	0.04001195
200	0x3bcfc11f	0.0063401605
201	0xbdae6758	-0.08515805
202	0xbcf74fcb	-0.030189415
203	0x3c87e174	0.016586997
204	0xbe4028af	-0.1876552
205	0x3ce5f96f	0.02807304
206	0xbcae511e	-0.021278914
207	0x3db38e44	0.087673694
208	0xbdb6bc2c	-0.0892261
209	0x3dc8f4ac	0.098122925
210	0x3ca6b0b4	0.02034793
211	0xbe2fffd3	-0.17187433
212	0x3e2f6885	0.17129715
213	0xbdd91728	-0.1060012
214	0xbde573bf	-0.112037174
215	0x3d2dbb7c	0.042415127
216	0x3d22ffe2	0.03979481
217	0xbb57ab61	-0.0032908546
218	0x3e10d4d1	0.14143683
219	0x3d9ee312	0.07758154
220	0xbd88de0e	-0.066829786
221	0xbe05dcb4	-0.13072473
222	0xbe0ec169	-0.13940968
223	0xbda2bdd7	-0.07946365
224	0xbd0b9423	-0.03407682
225	0xbd6afabf	-0.057368036
226	0x3ddc66c8	0.107617915
227	0xbe10b3f5	-0.14131148
228	0x3e05c12a	0.13061967
229	0x3e13109a	0.14361802
230	0xbdd325c3	-0.10309937
231	0x3d14fd80	0.03637457
232	0x3e025442	0.12727454
233	0xbbb840a8	-0.005622942
234	0xbc61a186	-0.01377142
235	0x3ddf33a3	0.10898521
236	0x3df6f6de	0.12058805
237	0x3e0c5bb0	0.13706851
238	0xbcbbed79	-0.022940384
239	0x3e4f294e	0.202306
240	0xbe5df6d5	-0.2167619
241	0xbda5990c	-0.08085832
242	0x3d872caf	0.066003196
243	0x3e3053da	0.17219487
244	0xbd229374	-0.039691404
245	0xbe382985	-0.17984588
246	0xbd1dbe85	-0.03851177
247	0xbe0f050a	-0.13966766
248	0xbd79a46d	-0.060947824
249	0x3c0f73f9	0.008755677
250	0x3d3f9821	0.04677594
251	0xbe00a640	-0.1256342
252	0x3e0a32b4	0.13495904
253	0x3d359126	0.044327877
254	0x3cb1ec29	0.021719055
255	0x3d89c3c4	0.067267925

lstm.bias_ih_l0 f4 [172]
0	0xbe0ff714	-0.14059097
1	0x3c2f94ac	0.0107165985
2	0x3d37f459	0.044910762
3	0x3e03582a	0.128266
4	0xbe228ffb	-0.15875237
5	0xbd1d17c2	-0.038352735
6	0x3c971767	0.018443776
7	0x3d1227c2	0.035682447
8	0xbcaf3e5b	-0.021392038
9	0xbc943881	-0.01809335
10	0xbe06a91a	-0.13150445
11	0xba38f8ad	-0.00070560985
12	0xbd62fa66	-0.05541458
13	0x3d8a4ad2	0.06752552
14	0xbc8cc685	-0.017184505
15	0x3da258fd	0.079271294
16	0xbd6f626c	-0.05844347
17	0xbd38e19b	-0.04513703
18	0x3daccc99	0.084374614
19	0xbe05f718	-0.1308254
20	0x3dc80aa5	0.09767655
21	0xbcda4b8f	-0.026647357
22	0x3da4a1bc	0.08038661
23	0x3d38efc8	0.04515055
24	0x3baac0fd	0.0052109943
25	0x3deceed7	0.115689926
26	0x3e06df61	0.1317115
27	0x3e0575f6	0.1303328
28	0x3cf6492d	0.03006419
29	0x3e2794e8	0.16365397
30	0xbd94d04e	-0.072662935
31	0x3e417318	0.18891561
32	0x3db7e10b	0.089784704
33	0xbc2d4b33	-0.010577011
34	0xbda420ca	-0.080140665
35	0xbcb3c808	-0.021945968
36	0x3d58220f	0.052766856
37	0x3e0d27c5	0.13784702
38	0x3dc22ea2	0.09481551
39	0x3d8f90c2	0.07010032
40	0x3c55f273	0.013058293
41	0xbd48e673	-0.0490479
42	0x3e136acd	0.1439621
43	0x3d889d91	0.066706784
44	0x3cb54bd0	0.022130877
45	0x3c34fd56	0.011046728
46	0x3dc5f123	0.09665134
47	0x3dcc6176	0.09979527
48	0x3c2af578	0.010434501
49	0x3d965887	0.07341104
50	0x3c7d6714	0.01546647
51	0x3e250397	0.1611465
52	0x3e0bfc67	0.13670503
53	0xbcb2c3d0	-0.021821886
54	0x3e46d7da	0.19418278
55	0x3d3ee88f	0.046608504
56	0x3e160d6b	0.14653556
57	0x3cd3c72a	0.025851805
58	0x3cefc9f1	0.029271098
59	0xbe35db22	-0.17759374
60	0xbd835e9d	-0.064145304
61	0x3e26a59f	0.16274117
62	0xbdc69322	-0.09696032
63	0x3d868cc5	0.065698184
64	0x3d6e6b4f	0.058207806
65	0x3cc808d3	0.02441827
66	0xbdaf390d	-0.085558034
67	0x3d6ce374	0.057834104
68	0x3cb04e85	0.021521816
69	0x3db5ebe9	0.08882887
70	0x3e2ef54b	0.1708576
71	0x3d1786d6	0.036993824
72	0xbda6197f	-0.08110332
73	0x3da96bed	0.08272538
74	0x3e03d614	0.12874633
75	0xbdd8b2a0	-0.10580945
76	0x3c9ce8d4	0.01915399
77	0x3d8bced4	0.06826559
78	0xbdbdb8dd	-0.092637755
79	0x3b2108e0	0.002457194
80	0x3e237a43	0.15964608
81	0x3dc8f726	0.09812765
82	0xbdd598a3	-0.10429504
83	0xbd36fd61	-0.044675235
84	0x3c864a0e	0.016392734
85	0x3ba7c2e7	0.0051196697
86	0xbe17ad4a	-0.14812198
87	0x3d2280db	0.039673667
88	0xbd80b5dd	-0.06284688
89	0x3de24514	0.11048332
90	0xbdcc92be	-0.09988926
91	0x3e3d4f31	0.1848724
92	0xbd11f9d2	-0.035638638
93	0x3dedcc73	0.11611261
94	0xbd79cf09	-0.06098846
95	0xbe27c0db	-0.16382162
96	0x3e009aa7	0.12558995
97	0x3e4b3dd7	0.19847809
98	0xbd9e934e	-0.0774294
99	0x3de143c6	0.10999255
100	0xbe2d2a8a	-0.16910759
101	0x3dc5d6cf	0.09660112
102	0x3e161e0b	0.14659898
103	0xbe238cfb	-0.15971749
104	0x3e085285	0.13312729
105	0x3d93ce2c	0.072170585
106	0xbd7387ca	-0.05945567
107	0xbddb6868	-0.10713273
108	0x3e306d67	0.17229234
109	0x382a9962	4.0674007e-05
110	0x3d193284	0.03740169
111	0x3e0be4c2	0.13661483
112	0xbd892122	-0.06695773
113	0xbe2703e8	-0.16310084
114	0x3dd9a3b8	0.1062693
115	0x3d2ba817	0.04190835
116	0x3e074f06	0.13213739
117	0x3e307ad2	0.17234352
118	0x3de9c635	0.11414758
119	0xbd079bfd	-0.033107746
120	0xbdab4227	-0.08362227
121	0x3d1244cd	0.035710145
122	0x3ddc7701	0.10764886
123	0x3ce225d9	0.027605938
124	0x3d22cf2f	0.039748367
125	0xbd63c753	-0.055610012
126	0x3da837c1	0.08213759
127	0xbd0c3cd0	-0.034237683
128	0xbd371ace	-0.044703297
129	0x3db033f6	0.08603661
130	0xbc6c3b80	-0.014418483
131	0x3dc50558	0.0962016
132	0x3c7e105c	0.01550683
133	0x3da57611	0.0807916
134	0xbdb93446	-0.090431735
135	0xbe211b7f	-0.15733145
136	0xbdfd4a16	-0.123676464
137	0x3e35fa86	0.17771348
138	0xbddd28fd	-0.107988335
139	0x3e345a5b	0.17612593
140	0x3dfe4096	0.124146625
141	0xbbdcced7	-0.0067385244
142	0x3da690bf	0.08133077
143	0x3dbbac18	0.09163684
144	0x3c76df61	0.015067906
145	0xbdd9d7f2	-0.106368914
146	0xbcbbba75	-0.022916058
147	0xbdec1a7b	-0.11528488
148	0xbb8db729	-0.004324813
149	0x3d45627b	0.04818962
150	0xbddd91c4	-0.10818818
151	0xbe1e6a2b	-0.15470187
152	0x3de42079	0.11139006
153	0x3df474e2	0.11936356
154	0xbd74edd3	-0.05979712
155	0xbdb17d08	-0.08666426
156	0xbdcb5910	-0.09929097
157	0xbe1b49e2	-0.15164903
158	0x3c8f71c9	0.017510312
159	0xbd9b0911	-0.07570089
160	0x3e14ed62	0.1454368
161	0x3e0b5ac6	0.13608846
162	0x3dfa9e8a	0.1223727
163	0x3dac7568	0.08420831
164	0xbd9d2d3f	-0.07674646
165	0xbd33dff6	-0.043914758
166	0xba953138	-0.0011382466
167	0x3df24598	0.1182968
168	0x3dc61639	0.096722074
169	0xbd7d57e8	-0.061851412
170	0x3df5b850	0.119980454
171	0x3c2115b4	0.009831835

lstm.bias_hh_l0 f4 [172]
0	0x3d9ad0f6	0.075593874
1	0x3d8d95c4	0.06913331
2	0xbcd1aae8	-0.02559419
3	0x3df44aac	0.11928305
4	0x3c95c6c9	0.018283265
5	0xbd844807	-0.064590506
6	0xbe176a88	-0.14786732
7	0x3d1b948c	0.037983462
8	0x3da070c8	0.07834011
9	0x3dbaea8e	0.09126769
10	0x3d64f60c	0.05589871
11	0xbda65b27	-0.08122855
12	0xbd4e0243	-0.050295126
13	0xbdd0704b	-0.10177668
14	0xbdea43dc	-0.114387244
15	0xbdb44d91	-0.08803857
16	0xbe349545	-0.17635067
17	0x3d73d517	0.05952939
18	0x3dca9711	0.09892095
19	0xbdf22c2e	-0.11824833
20	0x3db373f1	0.087623484
21	0x3d644799	0.055732343
22	0x3c9a7c92	0.018858228
23	0xbdac6700	-0.08418083
24	0x3d8d178f	0.06889259
25	0x3c403cd9	0.011733257
26	0xbdedc274	-0.116093546
27	0xbe0b862b	-0.136254
28	0xbd84127d	-0.06448839
29	0xbd995f46	-0.07488875
30	0x3dcfe443	0.10150959
31	0xbd082377	-0.033236947
32	0x3b1defa9	0.0024099147
33	0x3bf3cb8f	0.0074400376
34	0x3c4c6770	0.012475833
35	0x3cd64d4c	0.026159905
36	0xbd500ad3	-0.050791573
37	0xbde5dbe4	-0.112235814
38	0xbdc78e49	-0.097439356
39	0xbbc74224	-0.0060808826
40	0x3d66655d	0.05624901
41	0xbd5d3381	-0.054004196
42	0xbe0026df	-0.12514828
43	0x3d88de4f	0.06683027
44	0xbdea2b8d	-0.11434088
45	0x3e2210da	0.15826741
46	0xbc04af7e	-0.008098481
47	0x3d077ad9	0.03307614
48	0x3d6f16bb	0.058371287
49	0x3d82fa05	0.06395344
50	0xbdb44673	-0.088024996
51	0xbb05af96	-0.0020398847
52	0xbe150202	-0.14551547
53	0x3e1bdb4b	0.15220372
54	0x3e5bffe8	0.21484339
55	0x3df4eda4	0.11959389
56	0xbd9b02f2	-0.07568921
57	0x3c497553	0.012296039
58	0xbacb2bfe	-0.0015500782
59	0x3dcb657f	0.09931468
60	0x3e368a4a	0.1782619
61	0xbdaa63b0	-0.08319795
62	0xbb73d286	-0.003720434
63	0x3e085ff4	0.13317853
64	0x3e1ee285	0.15516098
65	0x3d1eefc5	0.03880288
66	0x3e09f6e8	0.13473094
67	0x3c6521a7	0.013985074
68	0x3e47f5ea	0.19527403
69	0x3d64dc72	0.055874296
70	0x3dc58593	0.09644618
71	0xbd78ba34	-0.060724452
72	0x3e49d046	0.19708356
73	0x3e597d3f	0.21239184
74	0x3e206433	0.15663223
75	0x3d323dc2	0.043515928
76	0xbbd1e1f9	-0.006405112
77	0x3e029fc2	0.12756255
78	0x3d91ad66	0.07113151
79	0xbaa341ec	-0.0012455559
80	0x3cb1c75d	0.02170151
81	0x3d8191fd	0.06326673
82	0x3d8670ec	0.06564507
83	0xbc25b74a	-0.0101145
84	0xbbe08c1e	-0.006852641
85	0x3e054a70	0.13016677
86	0x3de21a4a	0.110401705
87	0xbdfe79cd	-0.124255754
88	0xbda5a46e	-0.08088003
89	0x3c855b8a	0.016279
90	0x3df9c201	0.121952064
91	0xbc155ad2	-0.0091158915
92	0xbde08ec5	-0.10964731
93	0x3d079c1d	0.033107866
94	0xbda7fc4b	-0.08202418
95	0x3d72ed11	0.059308115
96	0x3dff599f	0.12468266
97	0x3e1863b6	0.14881787
98	0x3d611bda	0.054958202
99	0x3deb2072	0.11480798
100	0xbe2dd416	-0.16975436
101	0x3cad306a	0.02114125
102	0xbdb7c9f7	-0.089740686
103	0x3db523eb	0.088447414
104	0x3e1cb403	0.15303044
105	0x3dec42ee	0.11536203
106	0xbd7d483d	-0.06183647
107	0x3d08a79e	0.033362977
108	0xbcfbc518	-0.03073363
109	0xbdc3570f	-0.095380895
110	0x3ccd6661	0.025073232
111	0x3e160b5e	0.14652774
112	0x3db4e177	0.088320665
113	0xbda4ea9e	-0.08052562
114	0xbdabb119	-0.08383388
115	0xbd83f939	-0.0644402
116	0x3e15b233	0.14618759
117	0x3d95f467	0.07322007
118	0x3dd9a5be	0.10627316
119	0xbd8d3694	-0.068951756
120	0x3dd40fac	0.10354552
121	0xbdd6dbef	-0.10491168
122	0x3de20ce5	0.11037616
123	0xbd35d934	-0.044396594
124	0xbd929cc7	-0.07158809
125	0x3d496bac	0.04917495
126	0x3d89f1f7	0.06735604
127	0xbe2fe434	-0.17176896
128	0xbdd67269	-0.10471041
129	0xbceffa88	-0.029294267
130	0x3e0a4014	0.13501006
131	0x3d85cecf	0.06533586
132	0x3d9d1417	0.076698475
133	0xbe000a54	-0.1250394
134	0x3d865cb6	0.06560652
135	0xbb0b1aeb	-0.002122576
136	0x3d69dfc1	0.057098154
137	0x3e3078ec	0.17233628
138	0x3ac5f84b	0.0015103904
139	0x3cdf7db1	0.027281614
140	0x3e0e6d29	0.13908829
141	0x3dbeb9ca	0.0931278
142	0x3d333ace	0.043757252
143	0x3ddff0fc	0.10934636
144	0x3de61f07	0.11236387
145	0xbd1dc67a	-0.03851936
146	0x3d84bd8f	0.06481468
147	0x3d9ca266	0.076481625
148	0xbd595181	-0.053056244
149	0x3dfb6fb7	0.12277167
150	0xbdd975dc	-0.10618183
151	0xbdd8b9af	-0.10582291
152	0xbe1cd62f	-0.1531608
153	0x3be511cd	0.0069906474
154	0x3e010ed1	0.12603308
155	0xbd04324d	-0.032274533
156	0x3d1e7b66	0.0386919
157	0x3d627fb3	0.055297565
158	0x3d4bd5d8	0.049764484
159	0x3dee0c10	0.116233945
160	0x3d5e5172	0.05427689
161	0x3cecf50b	0.02892544
162	0x3dc433c9	0.0958019
163	0xbcff64b5	-0.03117595
164	0x3da6f2ec	0.081518024
165	0xbd859fa3	-0.06524589
166	0xbd5e85a4	-0.05432667
167	0xbb4662ab	-0.0030271213
168	0xbda14a3b	-0.078754865
169	0x3def2668	0.11677247
170	0xbc5ab405	-0.013348584
171	0xbe10579a	-0.14095917

lstm.weight_ih_l0_reverse f4 [172, 6]
0	0x3e0c7170	0.13715148
1	0xbd41d144	-0.047318712
2	0x3ab903f8	0.0014115563
3	0xbdbed94a	-0.09318788
4	0xbbd39ebc	-0.0064581316
5	0x3de1f169	0.110323735
6	0x3c5edbbc	0.013602193
7	0x3d18dc9a	0.037319757
8	0x3daee0cd	0.08538971
9	0xbd2ee802	-0.04270173
10	0xbe22defe	-0.15905377
11	0x3e3d5c6a	0.18492284
12	0x3e4679ab	0.1938235
13	0xbd22e4de	-0.039769046
14	0x3d5b4930	0.053536594
15	0xbdd1e239	-0.10248227
16	0xbddcad18	-0.107752025
17	0x3e038acb	0.12845914
18	0x3dcf10c3	0.10110619
19	0x3dda1006	0.106475875
20	0x3d83fc27	0.064445786
21	0xbcc4a144	-0.024002679
22	0x3db56e4f	0.0885893
23	0x3e58ac56	0.21159491
24	0x3d84d9a2	0.06486823
25	0x3e5a6443	0.2132731
26	0xbc9a5730	-0.018840402
27	0xbd07827e	-0.03308343
28	0xbe2c171a	-0.16805688
29	0x3d882831	0.06648291
30	0x3d89fd23	0.06737735
31	0xbdb2980f	-0.08720409
32	0xbd23a4c9	-0.039952073
33	0xbe0dde71	-0.13854386
34	0xbd656a2d	-0.05600946
35	0xbe14b02e	-0.14520332
36	0x3d11cfb7	0.035598483
37	0x3dbbf570	0.09177673
38	0x3dbc497d	0.09193704
39	0x3e3ee738	0.1864289
40	0x3e0a5cea	0.13512006
41	0xbdd9f579	-0.10642523
42	0xbd0dbe2d	-0.034605194
43	0xbde658d5	-0.11247412
44	0x3da75d4c	0.08172092
45	0xbcb35a33	-0.021893596
46	0x3dc96743	0.09834149
47	0xbe3518bf	-0.17685221
48	0xbda45495	-0.08023945
49	0x3c464f3a	0.01210385
50	0x3dc1f6cd	0.09470902
51	0xbdacdbc3	-0.08440354
52	0xbe6e2e1b	-0.23259775
53	0x3d0ac256	0.03387674
54	0x3db33aaf	0.087514274
55	0x3db16a93	0.086629055
56	0x3e1835bd	0.1486425
57	0xbd853eed	-0.06506143
58	0x3dd9666d	0.10615239
59	0x3e0e6a3f	0.13907717
60	0xbdcccec1	-0.10000373
61	0x3c30b09a	0.010784293
62	0xbd61da13	-0.055139612
63	0x3e3fd935	0.18735202
64	0x3e0336a7	0.12813817
65	0xbca38a09	-0.019963281
66	0x3bcd4078	0.006263789
67	0xbe2ec8e3	-0.1706882
68	0xbdf37f2c	-0.118894905
69	0xbdf8f54f	-0.12156164
70	0x3d835689	0.0641299
71	0x3dfec3ae	0.12439667
72	0x3e543725	0.20724161
73	0xbda6184c	-0.08110103
74	0xbd9c019d	-0.07617495
75	0x3e2b2b7e	0.1671581
76	0xbe27d596	-0.1639007
77	0x3e34fe53	0.17675142
78	0xbcde22e4	-0.027116247
79	0x3d3b99f4	0.045801118
80	0xbd9ccc9f	-0.07656216
81	0xbda689be	-0.08131741
82	0xbe1940d3	-0.14966135
83	0xbe0aa62a	-0.13539949
84	0x3e569187	0.20953952
85	0x3b6cceb2	0.0036133942
86	0xbd92b344	-0.071630985
87	0xbc8832a3	-0.016625708
88	0xbe2b7693	-0.16744451
89	0x3d21e984	0.03952934
90	0xbdf95b23	-0.12175586
91	0xbc801be2	-0.015638296
92	0xbddae1ba	-0.10687585
93	0x3d773590	0.060353816
94	0xbd378f19	-0.044814203
95	0x3c911eb9	0.017714845
96	0x3d5f9de6	0.054593943
97	0x3d9b10d8	0.07571572
98	0xbdad1109	-0.08450515
99	0xbe5124a1	-0.20424129
100	0x3d867c07	0.06566625
101	0x3e436f21	0.19085361
102	0x3cc229a2	0.023701493
103	0x3a749a7e	0.00093308825
104	0xbe1a426d	-0.15064402
105	0x3e107f4c	0.1411106
106	0x3e18fdc8	0.1494056
107	0xbdc01b45	-0.09380201
108	0xbe490d3d	-0.19633956
109	0xbda46b2f	-0.08028256
110	0x3d90d3d2	0.070716515
111	0xbd923e78	-0.07140821
112	0x3d5b73d6	0.053577267
113	0x3ded966e	0.11600958
114	0xbd836068	-0.064148724
115	0xbea9b913	-0.33149013
116	0xbd714adf	-0.058909293
117	0xbdda4599	-0.10657806
118	0x3dab7ea4	0.08373764
119	0xbd810ca5	-0.0630124
120	0xbd81adcf	-0.063319795
121	0xbe33f922	-0.17575505
122	0xbe323dc9	-0.17406382
123	0xbdeb8189	-0.11499316
124	0xbe2e5c8a	-0.17027488
125	0x3d67882c	0.056526348
126	0xbe0f080a	-0.1396791
127	0x3cb5c3fd	0.022188181
128	0xbd16aafe	-0.036784165
129	0xbe140a7d	-0.14457126
130	0x3e160582	0.14650539
131	0xbe3dc773	-0.18533115
132	0xbd55c42c	-0.052189037
133	0x3e27821f	0.16358231
134	0xbe3ca7fa	-0.18423453
135	0x3e86bc73	0.2631565
136	0x3e0a0b01	0.1348076
137	0xbc551492	-0.013005393
138	0x3cebe8dc	0.02879756
139	0x3e3a99d5	0.18222745
140	0x3bfb198f	0.007662959
141	0xbde868ad	-0.1134809
142	0xbe31479b	-0.17312472
143	0x3e1f54eb	0.15559737
144	0xbe38f268	-0.1806122
145	0xbc47746f	-0.012173756
146	0x3de1601a	0.11004658
147	0x3d7bff04	0.0615225
148	0x3e1785bb	0.14797108
149	0x3debfad0	0.11522448
150	0xbe445489	-0.19172873
151	0xbd11ac0d	-0.03556447
152	0x3e0b4adc	0.13602775
153	0xbdfdb935	-0.12388841
154	0xbdff6c00	-0.12471771
155	0x3e0f729a	0.14008561
156	0xbe230c6c	-0.15922707
157	0xbd77ca0c	-0.06049542
158	0xbe5340a1	-0.20630123
159	0xbe2c3783	-0.16818051
160	0xbcba6c07	-0.02275659
161	0x3e61de62	0.22057489
162	0x3e39ee05	0.18157203
163	0xbde496c1	-0.111615665
164	0xbcababb0	-0.02095589
165	0x3e394161	0.18091346
166	0x3d8f08f2	0.06984128
167	0xbe140dbb	-0.14458363
168	0xbd970b6b	-0.07375225
169	0x3e39bfe5	0.18139608
170	0xbdc38327	-0.095465
171	0x3c538b30	0.012911603
172	0xbdbf9bed	-0.09355912
173	0x3d967433	0.07346382
174	0xbe1f7da7	-0.15575276
175	0x3c0d169e	0.008611349
176	0xbdca9385	-0.09891418
177	0xbb4e9299	-0.0031520484
178	0xbd57068e	-0.052496485
179	0xbc1b5983	-0.0094817905
180	0xbca535af	-0.0201672
181	0x3e085f53	0.13317613
182	0xbdfc5bd8	-0.12322205
183	0x3dfed6fb	0.12443348
184	0x3e48c9e0	0.19608259
185	0x3d1932af	0.03740185
186	0x3cf3b47a	0.029749144
187	0xbdf880b4	-0.12133923
188	0xbd3de52e	-0.04636114
189	0xbd1f0f1a	-0.03883276
190	0x3db834bb	0.089944325
191	0x3d36c03e	0.04461693
192	0x3cd9536f	0.026529042
193	0x3c13338f	0.0089844605
194	0xbcd1b2f9	-0.025598036
195	0xbd8a0a5b	-0.067402564
196	0xbe412bb9	-0.18864335
197	0x3e614332	0.21998289
198	0xbd8a794e	-0.06761418
199	0x3d811270	0.06302345
200	0x3de717eb	0.11283859
201	0x3e2b7f11	0.1674769
202	0x3c3df792	0.01159467
203	0x3e1deb76	0.15421852
204	0x3d9081f6	0.07056038
205	0xbdcd1294	-0.10013309
206	0xbca8e452	-0.020616684
207	0x3d1469e0	0.036233783
208	0x3cc78a99	0.02435808
209	0x3c9ed6ec	0.019389592
210	0xbd983541	-0.074320324
211	0xbe191a4a	-0.14951435
212	0x3d4d4683	0.050116073
213	0xbe179b80	-0.14805412
214	0x3c8629ae	0.016377296
215	0x3db352c2	0.08756019
216	0xbe2f734e	-0.17133829
217	0x3da2472f	0.079237334
218	0xbd6750de	-0.056473605
219	0xbd003bed	-0.03130715
220	0x3e07bba3	0.13255171
221	0xbdacbcc8	-0.08434445
222	0x3e0cdff3	0.13757305
223	0x3e0e3c8c	0.13890284
224	0xbdf3c08b	-0.11901959
225	0xbd9d10de	-0.07669233
226	0x3d7dab93	0.061931204
227	0x3c852b4b	0.016255995
228	0xbd4490e2	-0.047989734
229	0x3ca82d59	0.020529436
230	0xbdfd0613	-0.12354674
231	0x3c1fc832	0.00975232
232	0x3e3c1b62	0.1836982
233	0x3bea8770	0.0071572587
234	0x3e30f300	0.17280197
235	0xbdf662c6	-0.12030558
236	0xbcfb1e3b	-0.030654063
237	0xbd265f63	-0.04061831
238	0x3df9cad5	0.1219689
239	0xbd6f2381	-0.05838347
240	0x3d40429c	0.046938524
241	0x3d6a5ad9	0.057215545
242	0x3e4274a5	0.18989809
243	0x3deae298	0.114690006
244	0x3dd72ef1	0.10507
245	0xbc7a09cb	-0.015261124
246	0xbddc76f6	-0.107648775
247	0xbd2b0bd3	-0.041759323
248	0x3e030319	0.1279415
249	0x3e11620d	0.1419756
250	0x3dddbadd	0.10826657
251	0xbb306e96	-0.0026921383
252	0xbd84c774	-0.06483355
253	0xbdb3e62b	-0.087841354
254	0xbe1af250	-0.15131497
255	0xbdf73c34	-0.1207203

lstm.weight_hh_l0_reverse f4 [172, 43]
0	0xbdbea916	-0.09309594
1	0x3d4b1ee3	0.049590003
2	0x3d228e3f	0.039686438
3	0x3d9c3e24	0.0762904
4	0xbe023de9	-0.1271893
5	0xbdedd91f	-0.11613678
6	0xbd467bf7	-0.048458066
7	0x3e6b0c5f	0.22953938
8	0xba979b90	-0.0011566747
9	0xbdaca548	-0.084299624
10	0xba3a2b47	-0.0007101786
11	0xbb36f190	-0.0027914979
12	0x3d79fb3e	0.06103062
13	0xbd2b4ce3	-0.04182137
14	0xbe25a158	-0.16174829
15	0xbd902230	-0.07037771
16	0xbd0e5b85	-0.03475525
17	0x3d532146	0.051545404
18	0x3d6a0f9f	0.057143804
19	0xbd86294c	-0.065508455
20	0xbdca82aa	-0.098882034
21	0xbe2119b9	-0.15732469
22	0x3d876897	0.06611746
23	0x3bfc68b8	0.007702913
24	0xbc910073	-0.01770041
25	0xba9b2572	-0.0011836721
26	0x3c7ce012	0.015434282
27	0x3d3be2a3	0.045870434
28	0x3cf12bdc	0.02943986
29	0xbe41af7b	-0.18914597
30	0x3d69ed35	0.057110984
31	0x3c9067b7	0.01762758
32	0x3d247bab	0.040157
33	0xbdf32393	-0.118720196
34	0x3e73d034	0.23809892
35	0xbddb2e51	-0.107021935
36	0xbe63dd8e	-0.22252485
37	0x3c082be2	0.008311244
38	0xbc6c5599	-0.014424705
39	0xbcd338b9	-0.025783883
40	0x3e441dc8	0.19151986
41	0x3da84edb	0.082181655
42	0x3e3b24f3	0.18275814
43	0xbe07f228	-0.13275969
44	0x3dde9f78	0.1087026
45	0x3d6ed7b0	0.058311164
46	0x3cf3d560	0.029764831
47	0x3e00e17f	0.1258602
48	0xbd15341e	-0.036426656
49	0x3df3d2a1	0.11905409
50	0xbd029de7	-0.03188887
51	0x3dd7a3f5	0.10529319
52	0xbd0317b6	-0.032005034
53	0x3e17438e	0.14771864
54	0x3b1e9c63	0.00242021
55	0xbe1542b9	-0.14576234
56	0x3dd6e949	0.10493714
57	0xbe02d6fa	-0.1277732
58	0xbd291c68	-0.041286856
59	0x3d448c52	0.047985382
60	0xbd231d2a	-0.039822735
61	0x3e002030	0.12512279
62	0x3d043994	0.032281473
63	0x3e317573	0.1732996
64	0x3da530b1	0.08065928
65	0xbd1fa4e6	-0.03897562
66	0x3e2c2420	0.16810656
67	0x3e23990c	0.15976351
68	0x3db2e03e	0.08734177
69	0x3e0c1f96	0.13683924
70	0xbd26054e	-0.040532403
71	0xbd94793c	-0.07249686
72	0x3c46e99c	0.012140658
73	0xbc327761	-0.01089272
74	0x3d7578a4	0.059929505
75	0xbd945f34	-0.07244721
76	0xbdfe27d7	-0.124099426
77	0x3e0c9ffb	0.13732903
78	0x3d506555	0.050877888
79	0xbe0ac208	-0.1355058
80	0xbe3c36da	-0.18380299
81	0xbdccc9c0	-0.09999418
82	0x3cb9c154	0.022675194
83	0xbcb3147f	-0.02186036
84	0xbe0d50db	-0.13800375
85	0xbcf5bae3	-0.029996341
86	0xbd870b6d	-0.06593976
87	0x3dffe39b	0.12494584
88	0x3b47008e	0.003036532
89	0xbdfaa966	-0.122393414
90	0xbcfedbf2	-0.031110737
91	0x3d6b6575	0.057469804
92	0xbd92b49c	-0.07163355
93	0x3d89e376	0.06732838
94	0x3d66c8bd	0.056343783
95	0x3e1b50f0	0.15167594
96	0xbe076945	-0.13223751
97	0x3e6687a8	0.22512686
98	0xbe059f4a	-0.13049045
99	0x3df4e94c	0.1195856
100	0xbe2ea94a	-0.17056766
101	0x3e003360	0.12519598
102	0xbb7faed6	-0.0039014122
103	0x3e3f1305	0.18659599
104	0x3e2a356f	0.16621946
105	0xbc8ab6b0	-0.016932815
106	0x3e46c53e	0.1941118
107	0xbcb73741	-0.022365214
108	0x3d7edf0f	0.062224444
109	0xbdca2341	-0.098700054
110	0x3da5efd1	0.08102382
111	0x3d057954	0.03258641
112	0xbd9579d0	-0.072986245
113	0xbd8838bb	-0.066514455
114	0xbd377b75	-0.044795472
115	0x3db7f993	0.089831494
116	0xbd3269ef	-0.043558057
117	0x3e416066	0.1888443
118	0xbd26431e	-0.04059135
119	0x3d5d3165	0.054002184
120	0xbc85c59a	-0.016329575
121	0xbde3d8df	-0.11125349
122	0x3d08c69e	0.03339254
123	0xba1b10c8	-0.00059152814
124	0x3e1cb8d0	0.15304875
125	0x3db844e6	0.08997516
126	0x3e379dd0	0.17931294
127	0xbd106bfc	-0.035259232
128	0xbbfac77d	-0.0076531754
129	0xbd609a9b	-0.054834943
130	0xbe010cc4	-0.12602526
131	0x3d84fc28	0.064934075
132	0x3dbfd91c	0.09367582
133	0x3d2c2993	0.042031836
134	0x3dfaca8a	0.122456625
135	0xbdb66cd5	-0.08907477
136	0x3d453cb3	0.04815359
137	0xbd9e6b30	-0.07735288
138	0xbd5e40bc	-0.054260954
139	0x3e0bf794	0.13668662
140	0x3e3c508f	0.18390106
141	0xbe59136b	-0.21198814
142	0xbe1b03b8	-0.15138137
143	0xbe4561c5	-0.19275577
144	0x3d8e78ff	0.06956672
145	0xbcff8720	-0.031192362
146	0xbcfdb24c	-0.030968808
147	0x3ddf423b	0.10901304
148	0x3cf2dfe8	0.029647782
149	0x3e3a44a2	0.18190244
150	0xbe0eb3e6	-0.13935813
151	0x3717471a	9.016856e-06
152	0xbc6e9ac4	-0.014563266
153	0xbc713f69	-0.014724591
154	0xbe87324d	-0.26405564
155	0x3d98f7b3	0.0746912
156	0x3e561bbd	0.20909019
157	0xbda1ad8b	-0.07894429
158	0xbd2f3e98	-0.042784303
159	0x3d53f49f	0.05174696
160	0x3e64d05f	0.22345112
161	0xbe276d44	-0.16350275
162	0x3c4875a9	0.012235084
163	0xbd3b56e5	-0.045737166
164	0x3dca4bac	0.098777145
165	0xbdd6c141	-0.10486079
166	0xbe69f1d8	-0.22846162
167	0x3d58345b	0.052784305
168	0xbe4bfc4f	-0.19920467
169	0x3c9aee15	0.018912354
170	0xbe2af51c	-0.16695064
171	0x3dcc5419	0.09976978
172	0x3c049551	0.00809224
173	0xbdbcdd3c	-0.092218846
174	0x3dfb23d2	0.122626916
175	0x3dafc3dd	0.0858228
176	0x3d38f2f5	0.045153577
177	0x3e15f9b8	0.14646041
178	0x3bdd4b8a	0.0067533897
179	0xbe004dc2	-0.12529662
180	0x3e1ed46c	0.1551072
181	0x3d21eaa2	0.039530404
182	0x3e2598ff	0.16171645
183	0x3e010e05	0.12603004
184	0x3d633670	0.055471838
185	0xbd87f30b	-0.06638154
186	0xbd81a2b8	-0.06329864
187	0x3e2d5342	0.16926292
188	0x3de3d840	0.11125231
189	0x3dd49d64	0.103815824
190	0x3d93046d	0.071785785
191	0x3dca0357	0.09863918
192	0x3e7bd5b3	0.24593239
193	0x3da931c3	0.082614444
194	0xbda9dab4	-0.082936674
195	0xbd9696aa	-0.07352956
196	0xbdc85a74	-0.097828776
197	0xbd4a63ba	-0.049411513
198	0x3e380eab	0.17974345
199	0x3e146ca0	0.14494562
200	0x3db9f1a7	0.09079295
201	0xbda57875	-0.08079616
202	0xba48af1d	-0.00076554884
203	0xbd4df749	-0.050284658
204	0x3d09c6df	0.033636924
205	0xbdf98d62	-0.1218517
206	0xbe445957	-0.19174705
207	0xbe1a60d0	-0.15075994
208	0x3d612bc1	0.054973368
209	0xbe24c307	-0.16090022
210	0xbdefa005	-0.11700443
211	0xbd5edf4c	-0.05441217
212	0x3e795086	0.24347124
213	0xbbc3ca74	-0.005975062
214	0x3d0134b0	0.031544387
215	0x3defafad	0.11703429
216	0x3dfe6a7f	0.12422656
217	0xbd37f6d1	-0.044913117
218	0x3c38573e	0.011251269
219	0x3c8f0f82	0.01746345
220	0x3e0a46e6	0.13503608
221	0x3e633a36	0.22190174
222	0x3e17db62	0.14829782
223	0xbe44b42f	-0.1920936
224	0xbdd2507f	-0.1026926
225	0x3d759994	0.059960917
226	0x3d7c3a05	0.06157877
227	0xbdc9d5d6	-0.09855239
228	0x3c908011	0.017639192
229	0x3db234fb	0.087015115
230	0xbdc6e8b5	-0.09712354
231	0xbde7c991	-0.113177426
232	0x3dcafbee	0.09911333
233	0x3bd8cbd9	0.0066160974
234	0x3dffaffa	0.12484737
235	0xbde1978b	-0.11015233
236	0x3deb4b3f	0.114889614
237	0xbd2ee6e7	-0.042700674
238	0x3e1d45c0	0.15358639
239	0x3d9fa741	0.07795573
240	0x3d9f36ae	0.07774101
241	0xbd3cc82f	-0.046089347
242	0x3d70ea41	0.058817152
243	0xbd89b34c	-0.06723651
244	0xbb1d10d5	-0.0023966332
245	0xbcbb21aa	-0.0228432
246	0xbc98933c	-0.018624894
247	0xbe3dcfec	-0.18536347
248	0xbdff5386	-0.12467103
249	0x3e332f2c	0.17498463
250	0xbe012cd7	-0.12614761
251	0x3d135458	0.03596911
252	0x3d9d8314	0.07691017
253	0x3e3b130b	0.18268983
254	0xbe0d6c84	-0.13810927
255	0xbd90ecca	-0.07076414

lstm.bias_ih_l0_reverse f4 [172]
0	0xbc02a12f	-0.0079729995
1	0x3de5f9ea	0.11229308
2	0xbdf0e9d5	-0.1176335
3	0xbdaa675c	-0.083204955
4	0x3e255143	0.1614428
5	0x3d8ff55b	0.0702922
6	0x3d0136c1	0.031546358
7	0x3e13ce12	0.14434078
8	0x3dcbf826	0.0995944
9	0x3d35b325	0.0443603
10	0xbb3bf511	-0.0028680007
11	0x3d262413	0.040561747
12	0x3dba3a35	0.09093133
13	0x3e11db13	0.14243726
14	0x3e2a0242	0.16602424
15	0xbdcd8a1b	-0.10036107
16	0xbd5ab7d4	-0.05339797
17	0x3d91e9be	0.07124661
18	0xbd09b737	-0.033621993
19	0x3d8d4332	0.06897582
20	0xbb313d15	-0.0027044464
21	0x3dca5529	0.09879524
22	0xbe0dce65	-0.13848265
23	0xbe2f589f	-0.1712365
24	0xbdeec513	-0.11658683
25	0x3e183d43	0.1486712
26	0x3e0eb131	0.1393478
27	0x3ddd22a7	0.10797625
28	0x3e231f07	0.15929805
29	0x3e65844a	0.22413746
30	0x3d8b8770	0.06812942
31	0xbd2d33eb	-0.04228584
32	0xbdd99854	-0.106247574
33	0x3cee4e4b	0.029090067
34	0xbe19bb58	-0.15012872
35	0xbd0a7940	-0.03380704
36	0xbb353df7	-0.0027655342
37	0xbd23213d	-0.03982662
38	0xbc2a1866	-0.010381794
39	0xbdde3e1b	-0.108516894
40	0x3d469561	0.048482303
41	0x3d7618a0	0.060082078
42	0xbc1c3fbc	-0.00953668
43	0x3da5bacb	0.080922686
44	0xbd5848e6	-0.052803896
45	0x3dc5ca67	0.09657746
46	0x3e63e76f	0.22256254
47	0xbd43f3a7	-0.047839787
48	0x3d724999	0.05915222
49	0x3dec888d	0.115494825
50	0xbda857ae	-0.082198486
51	0x3e2285aa	0.15871301
52	0xbca72ab3	-0.020406103
53	0xbd473183	-0.048631202
54	0x3d9b8c47	0.07595115
55	0x3e17d546	0.14827451
56	0xbdca17b7	-0.098678045
57	0x3e3b57c3	0.18295197
58	0x3e0b6d98	0.13616025
59	0x3ab0a3ca	0.0013476547
60	0xbd3286aa	-0.043585457
61	0xbd0243e6	-0.031803034
62	0xbcc11571	-0.023569794
63	0x3d7e5dea	0.062101282
64	0x3d9e5a52	0.07732071
65	0x3dbcf469	0.09226305
66	0x3d945c70	0.072441936
67	0x3ccabbfd	0.024747843
68	0xbd388fad	-0.045058895
69	0xbcf6250b	-0.03004696
70	0x3e0b934e	0.13630411
71	0xbd2ac47e	-0.041691296
72	0xbd3d69ef	-0.046243604
73	0x3d8b27b6	0.06794684
74	0xbd81ec0e	-0.06343852
75	0x3db247d4	0.087051064
76	0xbd2247f0	-0.039619386
77	0x3d089e7d	0.03335427
78	0xbdf5bb37	-0.11998599
79	0xbda39d9d	-0.07989047
80	0x3da85c52	0.08220734
81	0xbdafcf39	-0.085844465
82	0xbd54d4b6	-0.05196067
83	0x3d77626c	0.060396597
84	0x3e1e406a	0.1545426
85	0xbd7aed39	-0.06126139
86	0x3d42454e	0.047429375
87	0xbd8326f2	-0.064039126
88	0xbd3dc49e	-0.046330087
89	0x3df3f437	0.11911815
90	0x3dc210d0	0.09475863
91	0x3e3bedeb	0.18352477
92	0xbd853b46	-0.06505446
93	0x3db334ae	0.08750282
94	0xbdf3d89b	-0.119065486
95	0xbe1d48d3	-0.15359811
96	0xbd8f3bba	-0.06993814
97	0xbc02f2c2	-0.007992448
98	0x3dd4dc77	0.10393613
99	0xbde590a4	-0.11209229
100	0xbdd6d834	-0.10490456
101	0x3d8a52b5	0.06754056
102	0x3df95a37	0.1217541
103	0x3d83c2b4	0.06433621
104	0xbdd1e4bf	-0.10248708
105	0x3e24d018	0.16095006
106	0xbd75ccae	-0.06000965
107	0xbe2c40b9	-0.16821565
108	0x3dbbf580	0.09177685
109	0xbca94087	-0.020660652
110	0x3934af4f	0.00017231445
111	0xbcc7c0e2	-0.024383966
112	0xbd14d549	-0.036336217
113	0xbd995274	-0.0748643
114	0x3c21735d	0.009854165
115	0x3d8a0065	0.067383565
116	0x3d7dadee	0.06193345
117	0x3da771db	0.08176013
118	0xbdadc58b	-0.08484944
119	0xbd9f08ed	-0.07765374
120	0xbd69f8d2	-0.05712206
121	0x3e2a5a2a	0.16635957
122	0x3e153ea5	0.14574678
123	0x3dfed99b	0.12443849
124	0x3e4357de	0.19076487
125	0x3c43ed0d	0.011958373
126	0xbc00a3cb	-0.007851551
127	0xbdfe4151	-0.12414802
128	0xbcd461fc	-0.025925629
129	0xbdf0ce17	-0.117580585
130	0x3e1753c2	0.14778045
131	0x3e162740	0.1466341
132	0x3c7e1880	0.015508771
133	0x3d3785be	0.04480528
134	0x3e2e3b1b	0.17014734
135	0x3d737234	0.059435084
136	0xbdb2a695	-0.08723179
137	0x3e118692	0.14211491
138	0x3da2d342	0.079504505
139	0x3d872753	0.065992974
140	0xbcdb9b7e	-0.026807543
141	0x3d041bc2	0.032253034
142	0xbdabd635	-0.08390466
143	0x3d854a50	0.065083146
144	0xbc02ef30	-0.007991597
145	0xbe0236c5	-0.12716205
146	0x3e0ff020	0.14056444
147	0x3e05a851	0.13052489
148	0xbd8f880d	-0.070083715
149	0x3d004ed0	0.03132516
150	0xbdb634fa	-0.08896823
151	0xbe186fe7	-0.14886437
152	0xbe36b4dc	-0.1784243
153	0x3dbedcdc	0.09319469
154	0x3db11b77	0.08647817
155	0x3d87bbda	0.06627627
156	0x3dc88f62	0.09792973
157	0xbdf749eb	-0.120746456
158	0xbd10434d	-0.035220433
159	0xbdaabfe0	-0.083373785
160	0xbd887ca4	-0.06664398
161	0x3dcce999	0.10005493
162	0x3d9dc4da	0.07703562
163	0xbdcd47f3	-0.10023489
164	0xbe00c587	-0.1257535
165	0x3d3a931f	0.04555046
166	0xbd8d8197	-0.06909483
167	0x3d6fe6bd	0.05856966
168	0x3d689fac	0.0567929
169	0xbb2083bf	-0.002449259
170	0xbdcb4ae0	-0.09926391
171	0x3e116706	0.14199457

lstm.bias_hh_l0_reverse f4 [172]
0	0x3e2ee07e	0.17077824
1	0xbdb7b536	-0.0897011
2	0xbdd15b35	-0.102224745
3	0x3ddb8d9e	0.10720371
4	0x3df37805	0.11888126
5	0x3e01bd77	0.12669931
6	0x3d901504	0.070352584
7	0x3cc1d7ba	0.023662437
8	0xbd7c30b7	-0.061569896
9	0x3e44fcbd	0.19237037
10	0x3e098b09	0.13431944
11	0xbcd14335	-0.025544742
12	0x3de3f47d	0.11130617
13	0xbe011033	-0.12603836
14	0x3e408184	0.18799406
15	0x3ced33d6	0.028955381
16	0xbd6fddb8	-0.058561057
17	0x3e00aa04	0.12564856
18	0xbde5e2f5	-0.11224929
19	0xbbd5f9fa	-0.0065300437
20	0x3d8d49e1	0.06898857
21	0x3daffe78	0.08593458
22	0xbd1947d8	-0.03742203
23	0xbc8b67b1	-0.017017217
24	0x3d0c4c49	0.03425244
25	0xbb9d6a11	-0.004803904
26	0xbd1867f4	-0.037208512
27	0x3cc5eb91	0.024160178
28	0xbd2b0fcf	-0.041763123
29	0xbbe9d160	-0.007135555
30	0xbd10da2a	-0.035364307
31	0xbd1be52b	-0.03806035
32	0x3cbe40ec	0.023224317
33	0xbcfe33df	-0.031030593
34	0xbc02e1ec	-0.007988434
35	0xbdef932d	-0.116979934
36	0x3d0f6b66	0.035014533
37	0xbe04a887	-0.12954913
38	0x3e26ffdd	0.16308542
39	0xbcb0ea00	-0.021595955
40	0x3d996007	0.07489019
41	0x3d996dac	0.074916214
42	0x3dc5c782	0.09657194
43	0xbd87ad35	-0.066248335
44	0xbd15e0f5	-0.03659149
45	0xbdcc018a	-0.09961231
46	0x3d0019d6	0.03127464
47	0xbdbd2372	-0.09235276
48	0x3e51efa1	0.20501567
49	0xbda6015e	-0.081057295
50	0x3afc8212	0.0019264838
51	0xbb87fae1	-0.00414978
52	0xbdbe6858	-0.09297246
53	0xbde45efb	-0.111509286
54	0x3defe800	0.11714172
55	0xbbc30f54	-0.005952755
56	0xbc937f5d	-0.018005067
57	0xbb41f4bf	-0.0029595343
58	0x3db1afb0	0.08676088
59	0xbd95f617	-0.073223285
60	0x3c9e766a	0.019343574
61	0x3d9d0ec2	0.076688305
62	0x3e16fa63	0.14743952
63	0x3dcda3f7	0.100410394
64	0x3d4a6318	0.04941091
65	0x3a6b0579	0.0008965354
66	0xbde5c33d	-0.11218879
67	0x3d6475e2	0.055776484
68	0xbd95fe69	-0.073239155
69	0x3d28d60b	0.041219752
70	0xbe157698	-0.14596021
71	0x3d87cee6	0.066312596
72	0x3e16e423	0.14735465
73	0xbbc9e6da	-0.006161553
74	0xbe1e1a1a	-0.15439644
75	0x3e2da680	0.16958046
76	0x3d447933	0.047967147
77	0x3bbd1753	0.0057706027
78	0xbd2e6f4f	-0.04258662
79	0x3e2a057d	0.16603656
80	0xbc63cca3	-0.01390377
81	0x3e0efd81	0.13963892
82	0xbdae61da	-0.085147575
83	0x3dd2b18e	0.10287772
84	0x3dafed61	0.08590198
85	0x3e47d701	0.19515611
86	0xbb955fb5	-0.0045585283
87	0xbe28686f	-0.16446088
88	0xbe2fb852	-0.17160156
89	0x3d94a200	0.072574615
90	0x3deb747a	0.114968255
91	0x3e1aca8c	0.15116328
92	0xbc9f2c2d	-0.019430244
93	0x3d6be508	0.057591468
94	0xbdba3620	-0.09092355
95	0xbdc0e891	-0.094193585
96	0xbc85b125	-0.01631982
97	0xbe332556	-0.17494711
98	0x3dce0f45	0.10061506
99	0xbe12c010	-0.14331079
100	0x3d8cb21d	0.0686991
101	0xbd189e75	-0.03726049
102	0x3d7b0f46	0.061293863
103	0x3d874d75	0.06606571
104	0x3e3efb42	0.18650535
105	0xbd014ae5	-0.031565566
106	0xbd9dd7a1	-0.077071436
107	0xbc19face	-0.009398175
108	0x3bdb7ceb	0.006698241
109	0x3e09782e	0.13424751
110	0x3ddc46c7	0.10755687
111	0xbd48df4c	-0.049041077
112	0xbd8184ab	-0.063241325
113	0xbd68e107	-0.056855228
114	0x3e19bb62	0.15012887
115	0xbd0c0e5c	-0.03419338
116	0xbe3a1136	-0.18170628
117	0xbd89568b	-0.0670596
118	0xbdc9c353	-0.09851708
119	0x3d5c8589	0.053838287
120	0x3dca2425	0.09870175
121	0xbd93279d	-0.0718529
122	0x3daa9023	0.08328273
123	0x3b27ae77	0.0025586167
124	0x3d847638	0.06467861
125	0xbde95fd6	-0.113952324
126	0xbe0a380d	-0.13497944
127	0x3dce7c63	0.10082319
128	0xbd98b860	-0.07457042
129	0x3d4b745a	0.04967151
130	0x3da59400	0.080848694
131	0xbd971438	-0.07376903
132	0xbdea6ca4	-0.11446503
133	0x3d6195a2	0.05507434
134	0xbd9b72bd	-0.07590244
135	0xbdc5acd6	-0.096521065
136	0x3d5517f5	0.0520248
137	0xbd2a1ca4	-0.04153122
138	0x3d8327e4	0.06404093
139	0x3dffd83c	0.12492415
140	0xbd8e4826	-0.06947355
141	0xbcb37608	-0.021906868
142	0x3e0a512f	0.13507532
143	0x3da6b759	0.081404395
144	0x3b65819c	0.003501988
145	0xbd93293f	-0.071856014
146	0x3d8649cb	0.06557044
147	0xbd04976b	-0.032370966
148	0x3dc36ea3	0.09542587
149	0x3d535176	0.05159136
150	0x3dc546c4	0.09632638
151	0x3da32903	0.07966807
152	0xbe46d5d8	-0.19417512
153	0x3d761262	0.060076125
154	0xbdb7c2e5	-0.0897272
155	0x3e399ea8	0.18126929
156	0x3d9fcfc8	0.07803303
157	0xbd8bc3b9	-0.068244405
158	0x3e5a35f2	0.21309641
159	0x3d8a828c	0.06763181
160	0x3cbdb3a0	0.023156941
161	0xbde7f716	-0.11326425
162	0xbe0a1633	-0.13485031
163	0xbcc832cc	-0.024438284
164	0x3e11da65	0.14243467
165	0x3da3ffd7	0.08007782
166	0x3da8c1f2	0.08240117
167	0x3dd57b90	0.10423958
168	0x3bf69568	0.007525135
169	0x3cd2a021	0.025711121
170	0x3d825bf3	0.06365194
171	0xbc46af9e	-0.012126831
