model_config/best_pretrain_gas_0.6_lstm.pt (torch, 436057 bytes, 25 tensors)

lstm.weight_ih_l0 f4 [172, 6]
00000000: b5c6 983d 832f fd3c d35c 733e 1be5 633d
00000010: 29a0 5d3e 901c 3abd 9fec fd3d 8391 063d
00000020: b26d 133e 079d 28be 77bc ebbd add1 fdbd
00000030: 7461 623e 57d0 bd3d c327 cdbc c84f 05be
00000040: 90e1 3bbd 490c 91bd 3f22 f63d 4a7c 45bd
00000050: 175e 01bd aa66 103d ffe2 25be 703c 2d3d
00000060: ee25 19be c37b 23be f57f fc3d 1190 873d
00000070: f192 ec3d 73f9 b03c de5e 523d 5184 de3d
00000080: da94 52be 547f 6dbd 82ab 55bc 83d9 1e3e
00000090: dd8a 50bd 1c67 f2bd fdb3 bbbd 04df 0a3e
000000a0: e287 2f3d 3969 243e 6c1c 01be a6c8 203d
000000b0: e117 113e 78ba 1d3e 0e20 3bbe 3b2a c6bd
000000c0: a11c 653e 8e03 d6bd 6390 023e 1e54 813c
000000d0: 0a99 453d ab89 dc3a 4dc8 0a3b 9237 693e
000000e0: a24f 963d 12f3 0d3d fcb3 06be 3fbf 1dbe
000000f0: 7534 a23d b73d b5bc 5172 89bd bdf8 333e
00000100: b1ab 3e3d bb76 1bbd 9d6f 02be 3cb6 e13c
00000110: 2965 2cbe de1d 523e 1f4c ef3d 4525 283e
00000120: a70e 543e 8c4a 02be 81b8 87bd 58f8 cb3c
00000130: 253b c4bd 0141 06be ebfe 0f3e 08ab f8bd
00000140: d560 66bb b6f2 a2bd 21f3 34be bf08 1f3e
00000150: d884 a0bd c28a 183d 9189 11bd b9c8 7e3b
00000160: f91f 6c3d 197e 463d 8103 053e fef5 bd3d
00000170: 8fa7 113e a85b 9ebd 3db1 26be bc6a 18be
00000180: 5820 fa3d 8ebb 053d d3a5 413e 8137 8a3d
00000190: 6d6f 223e 511e a83d 977d bdbd fdb3 32be
000001a0: ccc7 823d 6b46 bfbd f050 213d 1a1a c2bd
000001b0: 66ea 093d d0bb e1bc 91be e23c 9fa4 37be
000001c0: e6fd c03d dfe7 463e 1fde 0e3d c016 a9bc
000001d0: 7a3f e9bd ab8d 363e 5be4 41be 7f88 f43c
000001e0: d119 563e 8e3e 5cbd 2bda 523e 35cd bfbd
000001f0: e28f 983d 6a88 ddbc 4322 abbd 2db7 75be
00000200: c49c 6ebd d0eb a93d e0df 01be d843 903d
00000210: d775 37bd 0542 01bd 99c5 05bd 693a e3bd
00000220: fa15 073e 1ada b5bd fe13 483e b650 c9bc
00000230: a4cf 3a3e 65fd 49bd 2b83 83bd f735 4f3d
00000240: ad1f d73d 653a 2ebe c3fd 99bd de7f 20bd
00000250: 2cc6 bebd c0b5 fbbb c21f 04be 463b 8abc
00000260: f6c2 2c3e d987 9fbd b94d e53d 9062 8abd
00000270: 617e b03b f7d9 fa3d ee32 13be 471d 7ebd
00000280: 2b73 a6bd 017e 1c3e 29db 113d 16cf 90bd
00000290: eec6 0f3e 1b17 493e c301 95bd cac9 e2bd
000002a0: 3601 82bd f8e6 083e 6a37 c63d 1eb9 243e
000002b0: 0567 7bbd ff35 063e 311a 12be 35d9 05bd
000002c0: 448e 20be 69d7 4abe 347a 503e 9cf3 f4bc
000002d0: 14bd 143e 361b 15be 2fb7 d03d 115d fb3d
000002e0: 01bd 5abd 0213 2f3e c3f8 40be a1a6 15be
000002f0: 8211 423d 7f4a 06be 7b5c f73d e7bb 2fbd
00000300: e81a f3bc f07f 0d3e 58e5 993d e5e9 f4bd
00000310: 8c84 393e 0111 08bd 63b1 efbc a210 173c
00000320: 3caf 14be e64d 253e 4928 193e 7412 553d
00000330: 32a6 1cbe 367b 6abe c2f5 dcbd 063a 4e3e
00000340: e17e 65be 8a92 2f3e 2020 52bd b161 3fbe
00000350: 56dd 6cbd a0ba 903d b48a 0cbe 82e7 2abc
00000360: 83de 06be c145 31be 1530 1cbe 7fe5 d0bd
00000370: 98d1 973d e4f1 02be e35a a73d 304e 9cbd
00000380: c46c 8ebd 1f66 50be b35c 453e 08e0 1ebe
00000390: 2362 2b3e 48d6 29bc fee3 823d ce30 94bd
000003a0: 2431 ebbd 9fc7 09bd 9d1a 9e3d 9e8c dbbd
000003b0: 348d 013d f32c d9bd dd9e 36be 35bd 03be
000003c0: 21f4 0abe 9623 273e 3ccc 353e a079 07be
000003d0: b9a8 a338 6dc8 483c fa94 a6bd 26ec 263e
000003e0: 8cbf 0fbe 8825 513e 7add 213d a00b 003e
000003f0: 3362 133e 0657 983d 0299 993d 0d2e 30bd
0.07459775 0.030906444 0.23765878 0.055638414 0.21643128 -0.045437396 0.123986475 0.032853615
0.14397314 -0.16466151 -0.11510556 -0.12393508 0.22107488 0.09268253 -0.025043374 -0.13018715
-0.04586941 -0.07082421 0.12018251 -0.048214234 -0.03158387 0.035254158 -0.16199873 0.042293966
-0.14955875 -0.1596518 0.12329093 0.06619275 0.11551464 0.021603322 0.051360004 0.10865081
-0.20564595 -0.057982758 -0.013041379 0.15512662 -0.05091368 -0.11836073 -0.091651894 0.13561636
0.042854197 0.16055764 -0.12608498 0.039253853 0.14169265 0.15403163 -0.18273947 -0.096760236
0.22374202 -0.10449897 0.12750392 0.01578718 0.048241653 0.0016825696 0.0021176517 0.22775105
0.073394075 0.034655638 -0.13154596 -0.15404986 0.07920162 -0.022124154 -0.06711257 0.17575355
0.046550456 -0.037955027 -0.1273789 0.027552716 -0.16835465 0.20519206 0.11684441 0.16420467
0.20708714 -0.1272375 -0.06626988 0.024898693 -0.095815934 -0.13110735 0.14062087 -0.121419966
-0.0035152931 -0.0795645 -0.17670871 0.1553068 -0.07837838 0.037241705 -0.035531584 0.0038876964
0.05764768 0.0484601 0.12989618 0.09275435 0.14224075 -0.07732326 -0.16278549 -0.14884466
0.122132 0.03264957 0.18910913 0.06748868 0.15862818 0.082089074 -0.0925247 -0.17451473
0.063857645 -0.09339603 0.03938383 -0.09477635 0.033670805 -0.027555376 0.02767876 -0.17933892
0.09423427 0.1942439 0.0348798 -0.02064073 -0.1138906 0.1782748 -0.18934767 0.029850243
0.20908286 -0.053770594 0.20591037 -0.09365312 0.074493185 -0.027042586 -0.08356144 -0.23995657
-0.058254972 0.08296931 -0.12683058 0.0704419 -0.044790115 -0.0315571 -0.032659147 -0.11095125
0.13191977 -0.0887949 0.19538876 -0.024574619 0.18243271 -0.04931392 -0.06421503 0.050588574
0.105040886 -0.17014463 -0.07519104 -0.039184444 -0.09315142 -0.0076815784 -0.1290274 -0.016873967
0.16871247 -0.07789583 0.11196465 -0.067570806 0.0053861593 0.12248605 -0.14374897 -0.06203964
-0.08127435 0.15282442 0.035609398 -0.070707485 0.1404073 0.1963772 -0.07275727 -0.110736445
-0.06347887 0.13369358 0.09678538 0.16086242 -0.061377544 0.13106535 -0.14267804 -0.032677848
-0.1567927 -0.19808735 0.20359117 -0.029901318 0.14525253 -0.14561161 0.101911895 0.122736104
-0.053402904 0.17097095 -0.18844895 -0.14614345 0.047379978 -0.13114356 0.12078186 -0.042903807
-0.029675916 0.13818336 0.07514447 -0.11958674 0.18116969 -0.03321934 -0.02925939 0.009220274
-0.14519972 0.16142997 0.14956774 0.05201955 -0.15297773 -0.22898564 -0.10789062 0.20139322
-0.22411682 0.17145744 -0.051300168 -0.1868961 -0.05782827 0.07066846 -0.13724786 -0.010431172
-0.13170819 -0.17311765 -0.15252717 -0.10200023 0.07413024 -0.12787586 0.08171632 -0.076321006
-0.06954339 -0.20351456 0.19273643 -0.15515149 0.16736655 -0.01036603 0.06391142 -0.07235871
-0.11483982 -0.03363764 0.0771992 -0.1072018 0.031628802 -0.106042765 -0.17834039 -0.12865146
-0.1356969 0.16322169 0.1775369 -0.1322999 7.803873e-05 0.0122548165 -0.08133884 0.16301021
-0.14037913 0.20424473 0.039517857 0.12504435 0.14392929 0.074384734 0.07499887 -0.043012667

lstm.weight_hh_l0 f4 [172, 43]
00000000: 20d7 d5bc 79a9 c0bc eaf4 4ebe 0ec6 323d
00000010: 261b e0ba 34d9 fbbd fa93 d73c 27ec 1bbd
00000020: e744 9abd a596 a23d 3b5d d3bd 6d19 0b3d
00000030: 30e0 e3bd 97b8 a03c 5d7f 273e 22ac dabd
00000040: 8eb6 0f3d e1c1 6e3e e444 59bd 2be3 083e
00000050: bc5d 813d 748d 0f3e 825e c0bd b580 fdbd
00000060: 9b0f edbd c81f d8bd 9c04 e7bd c78b 88bd
00000070: 657c ef3d e768 5abe 4a78 b23d 0378 863d
00000080: 87d0 6ebd 0e34 06be 9e50 99bc 463b de3d
00000090: 2e6c 043e 22cf a2bd 0d74 213e 4007 993c
000000a0: 3b09 fcbd 0b1b e3bc 0aae 7e3d 2e03 30bd
000000b0: e990 a53b 5157 09be 5fd4 0dbc d966 a2bd
000000c0: fc71 b23d bdb5 12be 22a7 22be 87fc bb3d
000000d0: 0d27 1cbe 2eb8 363d 678f 4bbd 32af 063e
000000e0: e3cc 9c3d a26e 513d ff8f 32be 1881 01bd
000000f0: 03f8 9d3d 64dd b6bd 2c02 213e f36d 6dbd
00000100: b781 84bd 9333 a73d 478d 173e a738 e8bd
00000110: 3c0c cf3d 0e8f d0bd 85b9 fb3c 4537 3d3e
00000120: b378 8d3d 0338 193b 36da 3f3d 46bc 1e3e
00000130: 8535 3ebe 8c33 44bd 3110 793d 09a7 223e
00000140: c717 0ebe 785a d5bd d547 0dbd f3ac e5bc
00000150: 196e 02be 5583 53bd 584a 1f3e 9f52 babb
00000160: b416 8cbd ceba 6dbc 2a70 79bc 480e 5abd
00000170: 07d9 8d3c ab7a 3dbb 226d 9fbd 3120 30be
00000180: 1f9d 52be dbd4 0d3d e254 a5bd 3da2 2ebd
00000190: 00d1 b13d b82b f93c 07f9 bfbd 5e3f 603c
000001a0: bdc8 4cbd a550 c73d 160c ea3d bf72 483c
000001b0: 896b 3d3e 4ac3 05be 4f8f eabd ec26 633d
000001c0: bc9f f0bd 429b b8bd d511 dd3b 48d9 3fbd
000001d0: 27a9 92bd 89bd adbd 45ae ac3d 2cfd f3bb
000001e0: e2c1 34bd 9532 aabc 17cc 1b3e bcaa 13bd
000001f0: ee22 d63c 1df6 41be 61a4 523e d6e5 9f3d
00000200: 10c3 50bd 06b6 e3bd 2680 debd 3a8b 0e3e
00000210: 3a97 dabd 4e09 283d 0269 a83d db1d e5bc
00000220: f045 803d e568 07be 9f61 533c ffa2 22be
00000230: bc65 8ebd 2311 d73d fa3d 3f3d 3c7b 64be
00000240: 27a0 da3d d31e 5e3c cdab 573e 9498 283e
00000250: bb90 f53d 8cfe 103e 24a7 33be 65c8 b53c
00000260: 427d df3c 88b3 153d a396 ba3d 8e7d 7b3c
00000270: 402a a5bd 59c7 183d ac2b 3fbe d3a9 b53c
00000280: f473 0a3d 09c4 a23d 8797 15bd fc4e 7bbd
00000290: 07a4 eebd 17fc e93b 857b 823c 3102 913d
000002a0: 1643 1cbe e0bf 063e a466 d2bd 5ec2 e4bb
000002b0: 8f0c 033e 0c42 d13d 12d6 0bbe e83e 473e
000002c0: 3b84 a1bd 69c5 343e c786 30be 5b1d 4cbe
000002d0: b0d1 07be 8743 773d 6e08 ddbc b2df f23c
000002e0: f30d 553e fd9c 2dbe 9cca 523e a500 333d
000002f0: 5dc8 06be 1f94 b2bd bc9d 13bc 4b36 d8bd
00000300: 65dc f3bd ba0f 4bbd 07fb 20bd ad11 003e
00000310: e7dd 963c cd0b 3f3c bb31 003e 0f3f 3fbd
00000320: 4866 2bbe 3d24 f7bd cd99 22be d7fa 9c3c
00000330: c800 13be 97a9 21bd ab99 a03d 2463 16bd
00000340: 8d4c 8dbd e46d fa3d e5b9 fd3d 9063 26be
00000350: 7034 9e3c b098 653d 3570 653e b45a 5ebd
00000360: 9845 d4bd ccbb 343e c00f 77bd 7916 8b3c
00000370: 509a f6bc fb22 98bd 6b45 92bd b568 e6bc
00000380: 5963 2c3e 0b1a 2dbe 509d 92bd 6e6c 52be
00000390: a6d4 d53d 8752 8ebd 04f5 8cbd 346b 133d
000003a0: 4ff3 b33d 02c2 043e de91 ac3d e778 0ebd
000003b0: 172e e5bc dd27 823d 50ba 0ebe af2c febd
000003c0: 14b1 683d fb7b 06bd 9250 0a3e 56ae bcbd
000003d0: fdd3 693c 7f65 adbd 449a 583d f78e 2b3e
000003e0: 4b58 00be 71f4 6bbe 7597 b23b 3362 cebd
000003f0: c937 2d3e 0c74 a73d e595 9dbd f0ed 7c3d
-0.026103556 -0.02351831 -0.20210615 0.04364591 -0.0017097935 -0.122972876 0.026315678 -0.03806701
-0.07532673 0.079388894 -0.10320517 0.033959795 -0.11126745 0.01961927 0.16357179 -0.10677363
0.035086207 0.23316146 -0.053044215 0.13367908 0.063167065 0.14018804 -0.09393026 -0.123780645
-0.11575242 -0.10552937 -0.11280176 -0.066672854 0.11693648 -0.2132908 0.087143496 0.06565859
-0.058304336 -0.13105795 -0.0187152 0.10851149 0.12931892 -0.07949664 0.15766926 0.018680215
-0.12306448 -0.027722856 0.062177695 -0.042971782 0.005052675 -0.13412215 -0.00865659 -0.07929773
0.08713147 -0.1432714 -0.15884069 0.09179025 -0.15249272 0.04460924 -0.049697306 0.13152769
0.076562665 0.0511309 -0.17437743 -0.031617254 0.0771332 -0.08928946 0.15723485 -0.057966184
-0.06470054 0.08164134 0.14799987 -0.113389306 0.101097554 -0.101835355 0.030728111 0.18478115
0.06907787 0.0023379333 0.04683896 0.15501508 -0.18575104 -0.04790072 0.060806457 0.15884031
-0.13876258 -0.10417646 -0.034492332 -0.02803657 -0.12737311 -0.05163892 0.15555704 -0.0056861187
-0.06840268 -0.01450987 -0.015224496 -0.053236276 0.0173154 -0.0028912227 -0.07784487 -0.1719978
-0.2056775 0.034626823 -0.08072831 -0.04263519 0.08682442 0.030416355 -0.0937367 0.013686983
-0.049996126 0.097321786 0.114280865 0.012234389 0.18498053 -0.13062778 -0.11453115 0.05545704
-0.11749217 -0.09013988 0.0067465105 -0.046838075 -0.071611695 -0.084834166 0.08431677 -0.007445952
-0.044130214 -0.020776073 0.15214573 -0.036051497 0.026139703 -0.18941541 0.20570518 0.078075096
-0.050967276 -0.111187026 -0.10864286 0.13920298 -0.106733754 0.0410245 0.08223154 -0.027968338
0.062633395 -0.13223608 0.012901693 -0.1588249 -0.06952998 0.105013154 0.046689965 -0.22312635
0.10675078 0.013557154 0.2106163 0.16464454 0.11990496 0.14159602 -0.17544228 0.022190282
0.027281407 0.036548167 0.09110763 0.015349759 -0.08064699 0.037299488 -0.18669003 0.022175705
0.033801988 0.07947547 -0.03652146 -0.061354622 -0.116523795 0.007140647 0.01592804 0.07080496
-0.15259966 0.13159132 -0.102734834 -0.006981178 0.1279776 0.102176756 -0.1365588 0.1945759
-0.07886549 0.17653431 -0.17238913 -0.19933073 -0.13263583 0.060367133 -0.026981559 0.029647682
0.20806102 -0.16954418 0.20585102 0.043701787 -0.1316237 -0.08719658 -0.009009775 -0.105572306
-0.11907271 -0.049575545 -0.0393019 0.12506743 0.018416358 0.011660528 0.1251897 -0.046690997
-0.16738236 -0.12067459 -0.15878983 0.019162579 -0.14355767 -0.039468374 0.0784181 -0.03671564
-0.068993665 0.12227991 0.12388972 -0.16248918 0.019312114 0.056053817 0.22406085 -0.05428572
-0.103648365 0.17649764 -0.060317755 0.01697849 -0.030102879 -0.07428547 -0.07142147 -0.0281261
0.16834773 -0.16904466 -0.07158911 -0.20549175 0.1044095 -0.069493346 -0.068826705 0.03599091
0.08786642 0.12964633 0.084262595 -0.03478327 -0.027976079 0.063552596 -0.1393826 -0.124108665
0.0568095 -0.03283308 0.13507298 -0.092129394 0.014271733 -0.084666245 0.052881494 0.16753756
-0.12533681 -0.23042466 0.005450184 -0.10077324 0.16915812 0.08176431 -0.07694606 0.061750352

lstm.bias_ih_l0 f4 [172]
00000000: 5d62 013e a7c7 1d3d 79b4 523e cd07 c33d
00000010: 9bbd c6bd 4bb5 9b3d a11c 7dbd f84f 183e
00000020: a62f 993d 33a5 e43d 18ef bfbd c85b 093e
00000030: e003 21bd c102 d0bd 7fc4 a2bd 4e81 1c3d
00000040: c71b 1dbc cdc0 a33d da2c f1bd 0461 ff3c
00000050: a67a 3f3e 564f bb3d 1979 65bd 0266 923d
00000060: c272 cd3d 27fe 243e f5f6 c5bd e22e bebc
00000070: 06f0 22bd 5081 a4bd 52cc 0a3e dde8 b6bd
00000080: 8264 20be 3f6d 31bd 250e 85bd 5862 b93c
00000090: 11e7 31be 36b8 b0bd e28d 06be 89cf bd3d
000000a0: 3f16 ed3d ac81 813c fa4c bfbb b899 8fbd
000000b0: 8964 d6bd d87d a83d bd94 f539 9260 c73d
000000c0: 7fa5 1f3d 9c67 c73d 019b 5b3c f7d3 1e3c
000000d0: e0fe af3d c2ae 7bbd 0d27 a1bd 9d80 0b3e
000000e0: 5770 f3bc f843 7ebd cf30 afbd 0a0f a93d
000000f0: bea5 b23d a3fc 41bd c3e3 0c3e 090f 3a3e
00000100: 2ac7 023e ef27 403d febc e33d 05fe 323d
00000110: 022b ad3d 119b fcbc 98ca f8bd ab3a 08be
00000120: 9750 77bc 4947 3e3e 8aa2 083e acf0 87bd
00000130: 1ac5 f33d c2e1 683d f682 b63d af16 9a3c
00000140: c8d0 1d3e e1e8 b03d 8d73 823d 1bb3 3d3c
00000150: 0418 f03d 82a8 113d eb9a f43d 20af 8b3c
00000160: 15cf 19be 67bf e8bd 39cf 24be b868 933d
00000170: fec1 d7bd 5881 3ebd 7a28 21be a050 87bc
00000180: c33d 473e 3c18 3cbe c992 a6bc e646 19be
00000190: 2d2a 023e 16a5 55bd 726f 043d b56b 43be
000001a0: 3897 bb3d a18c 623d 6afc c33d c316 883c
000001b0: 4c16 943c 3e82 f53c 1be4 87bd 033d a83d
000001c0: b351 29be 71c2 34bc 1b37 d53d c493 363e
000001d0: 92c6 9dbd 06ef fabd 0eec b53d 1e28 0e3e
000001e0: 5ea3 16bd ee3d c63d ee49 00bd 41b2 1abd
000001f0: 7d2a 25bd b9cc 82bd 1922 9d3d 07c5 ae3d
00000200: bb41 fc3d cd72 ebbc 5c3a 033e cb84 f23c
00000210: abd8 9bbc 244d 103d 889c 543d 53b7 91bd
00000220: f954 e73d e86b 153e bd1e 6ebd 8fdc c13c
00000230: 7950 713d 4000 193e 8bf5 d93d cdd4 a6bd
00000240: 1c31 b9bb 087d f13d a2b9 0a3e c562 753d
00000250: 67c9 d83d 6f6f ee3d 9d54 073e c048 523c
00000260: f044 b43d c440 fc3b 5ffe b43d a3aa a9bc
00000270: 5043 6bbd b4ff 0b3e d504 72bc 7cff 153e
00000280: 00b4 5c3c 3310 bcbd 7942 5b3d a2ae bb3d
00000290: 6b15 04be 2d89 b63d 7372 9c3c 45a8 0cbc
000002a0: 2f6d 613d ddbd 253e 9dfa 0cbe 9a3e 723d
0.12635179 0.03852048 0.20576657 0.09522972 -0.09704133 0.07602938 -0.06179488 0.14874256
0.07479791 0.11164322 -0.093717754 0.13413918 -0.039310336 -0.10156775 -0.07947635 0.038209252
-0.009589142 0.07995758 -0.11776133 0.03117419 0.1869913 0.091459915 -0.05602369 0.07148363
0.10031654 0.16112576 -0.09666244 -0.023215715 -0.039779685 -0.08032477 0.13554505 -0.08931134
-0.1566334 -0.043317076 -0.064968385 0.022629902 -0.17373301 -0.086288854 -0.13140061 0.092681
0.11576509 0.015808903 -0.0058380337 -0.070117414 -0.10468394 0.08227128 0.0004684086 0.09735216
0.03897619 0.09736559 0.013403655 0.009694091 0.085935354 -0.06144596 -0.078687765 0.13623281
-0.029716654 -0.06207654 -0.085542314 0.082548216 0.08723019 -0.047360074 0.13758759 0.18169798
0.12771288 0.046913084 0.11120032 0.043699283 0.08455469 -0.03083566 -0.12148017 -0.1330363
-0.015094898 0.1858188 0.13343254 -0.066377014 0.119028285 0.056855924 0.089116976 0.018809645
0.15411675 0.08638168 0.06369696 0.011578347 0.117233306 0.035561092 0.11943611 0.01705128
-0.15020402 -0.11364632 -0.16094674 0.07197708 -0.10535048 -0.04651007 -0.15738097 -0.016517937
0.19457154 -0.1836862 -0.020333664 -0.14968452 0.12711401 -0.05215939 0.032332845 -0.19084056
0.09159702 0.055309895 0.095696285 0.016612416 0.018077038 0.02996933 -0.066353045 0.08214762
-0.16535072 -0.011032687 0.10410901 0.17829806 -0.0770389 -0.12252621 0.088829145 0.13882491
-0.036776893 0.09679781 -0.031320505 -0.037767652 -0.040323723 -0.06386704 0.07672519 0.08533674
0.123172246 -0.028741265 0.12815231 0.029604336 -0.019024214 0.035229817 0.051907092 -0.071150444
0.11295504 0.14591944 -0.058134783 0.02366474 0.058914635 0.14941502 0.10642537 -0.08146057
-0.0056516062 0.11791426 0.13547376 0.059908647 0.105852894 0.11642348 0.13215871 0.012834728
0.08802211 0.0076981504 0.0883758 -0.020711249 -0.05743724 0.13671762 -0.01477166 0.14648241
0.01347065 -0.09182777 0.05353019 0.09164168 -0.12898795 0.08912883 0.019097542 -0.00858504
0.055035766 0.16185708 -0.13767476 0.059141733

lstm.bias_hh_l0 f4 [172]
00000000: da71 54bd 62be 143d 06ae 183d 81f2 13be
00000010: 3b5e fbbd 4872 073e 4def 0bbd 83e8 3c3d
00000020: 2e91 fdbd ad0c a73d 6b87 c3bb 804d 90bd
00000030: 1b32 053e f842 883c d7af b6bd 3cfe 00be
00000040: e991 c23d b9bd c7bd e6dc fc3c d6ad d53d
00000050: 309a e23d d8fe 8f3d ef3d 853b e633 0f3e
00000060: 5f9a 7cbd 7e4e bf3d bf57 bebd 63e8 a7bd
00000070: 2b45 d43c 00f2 cabd 1b76 1e3d f9e5 b33b
00000080: b7ba ae3d 64c5 20be b0eb 743d 8381 b83d
00000090: 4c39 af3d 147b a33c 8ebc 04bd a8ff 003e
000000a0: b878 af3d 6e5c ecbc 88cd 88ba ed80 9e3c
000000b0: eab9 e2bd bf71 4f3d c4e9 1c3e 48b2 6cbd
000000c0: f9a9 62bb 0bc5 a53d 19ee a3bd f61d 3c3e
000000d0: 34f4 e53d c9ba 1ebe 6e78 003e 6922 e13d
000000e0: d790 c73d 6fc3 523d 4b61 af3d 2841 8e3d
000000f0: 2683 3e3d f082 a2bd 1fef 46bd fbd8 16bd
00000100: 1c10 593e c061 883d 8b3e 1d3e 1ade 113d
00000110: 9ab6 183e db37 38bd 453c 1e3e 98e2 f6bd
00000120: ce0c 0e3c 9c79 ac3d c23a 133d 35a8 0e3d
00000130: 0bd1 edbd 2004 d0bc 467d 2a3e 9032 043d
00000140: 6cff b3bb 9c90 39bd 010f e03d a885 b93d
00000150: b403 ba3d 859d e73c cde4 64bd 0be6 1c3e
00000160: 1600 2b3d ddc1 d2bd 1484 083d a60d 4d3d
00000170: 3c2b 71bc 90e9 19be e0c9 a5bd 1f10 c2bd
00000180: ce9e 6abd f08c 18bc 0ec9 b33d 8792 00be
00000190: d3ce e63d e25f 6dbd bf61 a43d ebfe a53d
000001a0: 8024 0ebe c1f1 31bd c593 da3d cbdc 61bc
000001b0: 1b90 d1bd e474 85bc 8574 0dbe d671 163e
000001c0: 855f db3d 91b3 a9bd 796c dbbd b4a4 8e3d
000001d0: ab23 1cbe 06b5 68bd 00a5 1d3d c828 32bd
000001e0: 13cd 7d3c 9d09 053e 8944 53bd fbc4 e0bd
000001f0: 8d42 e0bd a08a 3abd 215c a73d 5a13 ffbd
00000200: 9a78 e7bc c150 0ebe 8b2a a2bc 20d5 1d3e
00000210: 4064 e5bd ea1e a7bd ca7a 153e be3a b3bd
00000220: dbb5 5ebd 6939 1e3e f490 a93d 7839 e1bd
00000230: 74a2 82bd 56c4 24bd 15ec 8e3d 6df4 053e
00000240: 1c55 11be 1a76 d23c 2b09 243d f066 203d
00000250: 3e99 663c db62 143e 4432 f73d ee2a 073e
00000260: 1445 b13d f015 933d 4cd9 52bd 036b c23c
00000270: 9bfb 0d3d 85fc c6bc c21a 213e f1bf 263e
00000280: 45e4 923d b1a6 003e 81ca 04be 22b9 203d
00000290: 3f65 413d 24ee 38be d76a 53bd 144f 19be
000002a0: ae85 d2bd 516f cabc c4e9 973d 47fd 18bd
-0.05186639 0.036314376 0.037275337 -0.14447977 -0.122738324 0.13227189 -0.034163762 0.046120178
-0.123812065 0.081567146 -0.005967071 -0.07046032 0.13007395 0.016633496 -0.089202575 -0.12596983
0.095004864 -0.097529836 0.030867051 0.10433547 0.11064565 0.070310295 0.004066221 0.13984641
-0.061670657 0.09341143 -0.0929408 -0.08198621 0.025911888 -0.09909439 0.038686853 0.0054900614
0.08531707 -0.15700299 0.05979508 0.090090774 0.085558504 0.01995615 -0.032406382 0.12597525
0.08567947 -0.028852668 -0.001043723 0.019348586 -0.110706165 0.050645586 0.1532355 -0.05778721
-0.0034586175 0.080942236 -0.08004398 0.18370804 0.11228219 -0.1550094 0.1254594 0.10992891
0.09744423 0.05145591 0.08563479 0.06946021 0.04651179 -0.079351306 -0.048567887 -0.036828022
0.21197551 0.06659269 0.1535589 0.035612203 0.14913407 -0.044975143 0.15452679 -0.12054938
0.008670045 0.08421633 0.035944708 0.034828383 -0.116121374 -0.025392592 0.1664935 0.032274783
-0.005493095 -0.045303926 0.10940362 0.09058696 0.090827376 0.028273353 -0.055882264 0.1532213
0.04174813 -0.10290883 0.033329085 0.050061844 -0.014719781 -0.15030503 -0.08095145 -0.09475731
-0.057280354 -0.009310946 0.087785825 -0.12555896 0.11269917 -0.05795277 0.08026456 0.08105262
-0.13881111 -0.043443445 0.10672716 -0.013785551 -0.10232564 -0.01629109 -0.1381398 0.14691862
0.10711578 -0.08286203 -0.10714049 0.069650084 -0.15247981 -0.056813262 0.038487434 -0.043495923
0.015490788 0.12991948 -0.051579032 -0.10975071 -0.109501936 -0.04554236 0.08171869 -0.12454863
-0.02825575 -0.13897993 -0.019795677 0.15413332 -0.11200762 -0.08160193 0.14597622 -0.087514386
-0.05437265 0.15451588 0.08279601 -0.109972894 -0.06378642 -0.040226303 0.06978623 0.13081522
-0.14192623 0.02569108 0.040047806 0.03916067 0.014074622 0.14490835 0.12070134 0.1319997
0.08655754 0.071819186 -0.05147676 0.023732668 0.034663778 -0.024290333 0.15732864 0.16284157
0.07172445 0.12563588 -0.12967874 0.039239056 0.047215696 -0.18059593 -0.051615562 -0.14971572
-0.102794036 -0.024711283 0.07417634 -0.03735092

lstm.weight_ih_l0_reverse f4 [172, 6]
00000000: c1c3 21bd eb01 f73d e47e 16be aae3 ebbd
00000010: 09b1 ddbd dde9 423d e439 593d 9ed5 4d3e
00000020: 9117 253e 3520 e53c 1e6a 4b3d 3a17 febd
00000030: a175 fb3c a9ec 61be 1921 0b3e 92e2 3c3d
00000040: 9d5e da3d 7e25 e43d 10ab 603d 2ec3 c53b
00000050: abd7 643d b674 e83c a095 c2bd c2f3 f4bb
00000060: c53c 40bd 8184 db3d 510f 283e 253b 3ebe
00000070: 9bef 05bc 69df 923d 97dc 87bd df92 ad3d
00000080: d040 18bd 5a0e 22be 56b0 2fbe b861 c9bd
00000090: 543e 383e 714e 01be 134b d7bd 4b6b 2bbe
000000a0: 0618 5bbc 465a 9ebd 8b45 f1bc 56a1 9e3b
000000b0: a920 de3c fa92 d03c 5cdb 183e 0832 3cbe
000000c0: e653 013c 4892 43be 3446 04be f47c 923d
000000d0: 7f5f b7bd c58d 87bc 5a24 0d3e 1f2d d03d
000000e0: dd8c 09bd 8b0c 0f3e 06bb 4c3e a322 04be
000000f0: f97c c33d 4ff2 85bd b40a c13d f548 39bc
00000100: ee5b 34be b0a4 5c3d ab58 6dbd 8243 c73d
00000110: e77a 18be eabb de3d f573 123e 8d1f 0fbe
00000120: f558 97ba eff4 d33c 800c 1dbd b4ff d4bb
00000130: bdd9 a73d 4cd2 c4bc bab2 e6bc ae45 70bc
00000140: 3b7a c03d f1ca 03be fe6a 5fbd b198 58be
00000150: 73a0 8f3d 235f e8bd 03bc 243d 4131 d8bd
00000160: 39c7 2e3e 6ad3 1f3e 6d42 9ebc bcc3 243e
00000170: 61b7 3e3e f2a3 5fbd 5799 4a3d 0f08 0cbe
00000180: 414c c2bd 0cc8 6bbe b3ea 563c ebaf e4bd
00000190: 1da2 1abe ad1c e9bd 50d2 01be 6922 b43c
000001a0: 2f3d 5cbd f565 853b f31f 233d 76a2 73bd
000001b0: 6944 c83d 3640 cfbb 831b b9bd bb79 24be
000001c0: 7214 61bd 82a9 823d eb37 f5bd ed35 34be
000001d0: 4b20 cd3c 28e6 48bd 8c2a e2bc 2384 923c
000001e0: d50b b13d 02db 06be f075 2cbc 3a13 89bd
000001f0: 2954 213e 492d f4bd 1620 efbd 1310 91bd
00000200: 16b6 153e 908f 26be 496c 3abd 53d4 1b3d
00000210: d11b 5cbd 1889 b53b 8aa0 a43d 4afb 303e
00000220: 3d93 e8bd 0a64 7abd 5c72 01be 2616 123e
00000230: 14ec da3c 8338 263e 5b0e e5bd 6f30 2dbe
00000240: aeb9 523e 67d9 003e 4648 92bd 87b9 4abe
00000250: 7bb7 bdbc 88e8 89bc 76c3 25be 998f d63d
00000260: 8caa 3cbe 62f6 0f3e e7c8 253e d20e f3bc
00000270: 1503 2a3d af83 783d 1a69 2abe 4e7f e43d
00000280: 3936 a13c 3da0 7f3e 5b8e 173e 0160 5d3d
00000290: 7b97 bdbd cc2d 7dbe ca1c b63d 0c1d 3d3d
000002a0: c18b 2dbe 5cc2 2d3e fad2 1cbe 8bf2 00be
000002b0: 217e 23be 0c10 d5bc a95a 4f3e 3e84 9a3d
000002c0: becb 2dbe bc1c 223e a3ab 24bd b178 03bd
000002d0: da9f af3d 0422 2abe bcc7 46be b2c3 8a3d
000002e0: 26ea 17be 2cd5 193e a61e 89bd 6af0 ff3d
000002f0: 8177 3d3d ece3 3ebd f6d2 b8bb 61d1 263d
00000300: 3b11 233c 6122 98bd f178 833d bc13 6c3d
00000310: f3c9 b13b b612 e4bb 5426 bebd 8b53 0abe
00000320: 2881 2b3d 3a2e 393e 22ef 883d 5991 b8bc
00000330: cab4 973d 2d3f c0bd cb5d 47be 9203 1ebe
00000340: 3232 58be 044a 15be 10ca df3c 1960 5e3d
00000350: 72b1 e43d e755 ea3d 8f69 d83d 3c66 513e
00000360: 9209 213e 38cc 093e e2c6 e4bd cc88 a33d
00000370: ff5d 193e b907 07be 5839 54be 0670 4a3e
00000380: 5056 703e 8dda 503e 58c7 e9bc c34c 093e
00000390: 85a0 f3bd a0fd a4bd e766 a7bd f81b 2d3e
000003a0: 2acd e9bc f178 22be db24 343e 31d2 a03d
000003b0: e49f 3d3d fe30 f83d 3691 1abe 26bb 0a3e
000003c0: eb28 7d3e 41e7 7abd 12f4 e33d e155 dc3d
000003d0: 592e c0bd 00b9 1d3e 1328 0cbd 9bd8 75bc
000003e0: e246 4dbd b38c 43bc 457c 7c3b d253 3abe
000003f0: 69d8 773d 2989 133e 2d49 9ebd ce80 e33c
-0.039493326 0.12060913 -0.14696842 -0.11518033 -0.108247824 0.04758631 0.053033724 0.2010102
0.16122271 0.02796946 0.049661748 -0.12406774 0.030695738 -0.22062935 0.13586845 0.04611451
0.10662577 0.111399636 0.054850638 0.00603523 0.05586974 0.028375965 -0.09501195 -0.0074753473
-0.046932954 0.107186325 0.16412093 -0.1857725 -0.008174802 0.07171518 -0.06633871 0.08475279
-0.037171185 -0.15825787 -0.1715711 -0.098330915 0.17992526 -0.1262758 -0.10512366 -0.16740148
-0.013372427 -0.07732062 -0.029452106 0.00484101 0.027115183 0.025460709 0.14927429 -0.1837846
0.007893538 -0.1909877 -0.12917405 0.07152739 -0.08953761 -0.016547093 0.13783398 0.10164856
-0.033581603 0.13969629 0.19993219 -0.12903838 0.09545321 -0.06540357 0.094258696 -0.011308898
-0.17613193 0.053867996 -0.05794589 0.09729673 -0.14890634 0.108756855 0.14302047 -0.1397688
-0.0011546897 0.02587363 -0.038342 -0.0065002088 0.08195827 -0.024026059 -0.028161395 -0.01466505
0.093983136 -0.12870385 -0.054545395 -0.21151997 0.07013025 -0.11346271 0.040218364 -0.105562694
0.17068185 0.15607992 -0.019318784 0.16090292 0.18624641 -0.05459971 0.049462643 -0.13674949
-0.094872005 -0.2302553 0.01311748 -0.11166366 -0.15100904 -0.113824226 -0.12677884 0.021989064
-0.053769287 0.004070992 0.03982539 -0.059481107 0.09778673 -0.006324793 -0.090384506 -0.16062061
-0.05495114 0.06379987 -0.11973556 -0.17598696 0.025039813 -0.04904762 -0.027608179 0.017885273
0.08644835 -0.13169482 -0.010526165 -0.0669312 0.15754761 -0.119227 -0.11676042 -0.07083144
0.14620242 -0.16265702 -0.045513425 0.038044285 -0.053737465 0.0055400245 0.08038433 0.17283359
-0.113562085 -0.06113056 -0.12641281 0.14266261 0.026723899 0.16232495 -0.11184379 -0.16913007
0.20578644 0.12582932 -0.07142691 -0.19797336 -0.02315878 -0.016834512 -0.16187844 0.10476608
-0.18424433 0.14058831 0.1618992 -0.029670153 0.041506846 0.06067246 -0.16641656 0.11157094
0.019679176 0.2496347 0.14800398 0.054046635 -0.09257408 -0.24724501 0.0889221 0.04617028
-0.16947843 0.16968673 -0.15314856 -0.12592523 -0.15966083 -0.026008628 0.20249428 0.075447544
-0.16972253 0.15831274 -0.040202748 -0.032097522 0.08575411 -0.16614538 -0.1941213 0.06775607
-0.14835414 0.15022725 -0.06695299 0.12497027 0.046256546 -0.046604082 -0.005640383 0.040727023
0.0099528385 -0.07428432 0.06419552 0.057636008 0.0054256856 -0.0069602383 -0.09284654 -0.13508432
0.04187122 0.1808404 0.06686236 -0.022530245 0.0740753 -0.0938705 -0.19469373 -0.1543105
-0.21112898 -0.14579016 0.02731803 0.054290865 0.111666575 0.11442166 0.10567009 0.20449156
0.15726307 0.1345681 -0.111707464 0.07985076 0.14977263 -0.1318654 -0.20725 0.19769296
0.23470426 0.2039587 -0.028537437 0.13408189 -0.11895851 -0.08056188 -0.08173924 0.169052
-0.028540213 -0.15866448 0.17592184 0.07852591 0.04629506 0.121187195 -0.15094456 0.13547954
0.2472264 -0.061255697 0.11130537 0.107585676 -0.0938384 0.15402603 -0.034217905 -0.015005256
-0.050116427 -0.011935401 0.003852622 -0.18196037 0.06050912 0.14407791 -0.07728801 0.02777138

lstm.weight_hh_l0_reverse f4 [172, 43]
00000000: c90b 203e aad9 14bd 7c04 3e3e ed04 e63d
00000010: e2da 0fbd b5e2 673d a6f0 3e3e ae17 1a3e
00000020: 643c a7bd 0063 103e 706f 023e 82ce 4dbe
00000030: 6948 d23d 61d5 3fbe 3174 283e b021 9ebd
00000040: 9abb 943d 87b9 f0bd cc45 c63c 43f5 73bc
00000050: 19c8 cb3d 83b5 ce3d fb6f e63c fbed d83c
00000060: dfb8 ad3c 07b0 f3bd 5f23 b3bc a558 8fbc
00000070: feb4 d4bd ced8 a53d 53ed 503d 8e5c 643d
00000080: ed78 223e 4019 f4bc c04b 033e 3233 5e3d
00000090: cbe9 c73d 4bcc 2dbe 3a71 b33c a5ae fdbd
000000a0: f49a c83b 5273 153e 948e 3b3e 5ad9 eb3d
000000b0: 4571 b03d 8340 0fbe 4ae9 9cbd 3661 1dbd
000000c0: 0787 94bd 965f e4bd c7ec 4d3e b06d 0cbe
000000d0: c50f c83d a6c9 613d 1bcc 81bc d38d c3bc
000000e0: 8420 24bd d878 5fbc c06f 1bbc 8655 17bc
000000f0: c425 183e 4e27 a7bd 8160 21be 24c2 bcbd
00000100: 8582 393e cc18 14bd e314 a53b 9501 acbd
00000110: da9b 48be 3ea8 8e3d 7278 b5bb 0fd7 eb3d
00000120: fc3e 4d3d 3874 323e 9158 ddbd 4711 d73d
00000130: df1f ccbb 3d7a 223d 99a9 093e 1370 e23c
00000140: c292 01be d5c5 123e 8c2c 033e 269c 00bd
00000150: 2720 2d3d e25a 4f3c 0f87 593d 3283 dcbd
00000160: d221 3b3d c570 203d 76ae ea3d ac64 27bd
00000170: c68a d13c 2226 383e 7265 23be 0aa7 68be
00000180: 6144 453e 6a69 e7bc c9e1 013e 72da 483e
00000190: d0ee 0c3d 3692 42be 6ea5 7c3d f5cb b53d
000001a0: cbc5 e2bd 0e87 283e 4d33 5dbd 3b38 49be
000001b0: 2376 6abc 40a7 34be 4bd5 453d 4e8a e93d
000001c0: 39ac 14bd 7f33 ff3d 02df e63d 70e5 d73d
000001d0: f52c a73c 4ac3 a23b ade7 093d 0660 1b3d
000001e0: 8118 263e 2d06 4b3e 497e c3ba f4d4 e5bd
000001f0: 4fe0 b93d 39c5 3abe ce76 2dbd 9ac5 283e
00000200: efe0 8d3d 3e54 f3bd a80f 163d 1f9c 61bc
00000210: 20d8 3fbe afab 2dba 55b1 9fbc ab45 dabb
00000220: 6287 313e 9db3 7e3c 506b fcbd 32da 45be
00000230: 6d32 42bd b039 f03c db86 9bbd 57fc 36be
00000240: 4ed0 dcbd fc97 dbbc 16e2 a8bd 09e9 04be
00000250: 1bf6 8e3d 4d41 18be 36f8 da3d 17e1 983d
00000260: fc9c fb3b 540f 2b3e 5802 643d 3045 b73d
00000270: eed7 fe3d 9518 9a3d 5fda f4bd 578a c53d
00000280: b9e4 ad3d 4d29 32be cd72 40be 4001 04be
00000290: f796 ac3d 733f 353e 112e da3d 50e3 823d
000002a0: b007 1b3e 5a1f f1bd 58ab e6bd 90b7 253e
000002b0: a2a5 c13d 886c 1a3e 5e9a e7bc 38e9 36bd
000002c0: 10c3 023d 05ac 60be 8a48 b53d a9a7 d2bd
000002d0: 9ccb d23c ac52 013d 859c efba 2484 e93d
000002e0: 1fb7 a73d ecfb 1cbc 1874 5d3d 3463 55be
000002f0: 4159 17be e0a9 973e d3a3 11be 80fd c53d
00000300: 9812 2fbb c23c 1fbd cd61 dabd 9551 2ebe
00000310: 241a 323d 86ef b4bd 800c 24bb 7d18 703c
00000320: 7a1f 983d 35c3 f8ba 4536 54bc 6406 843d
00000330: 02d6 ee3d 3b76 1b3e 85fe 083e 7db1 4c3e
00000340: 7508 863d ba55 a23c 78ed 0a3e 388c 9ebd
00000350: 719d a23b 9736 6f3e 9f70 29be 65b5 0b3e
00000360: d907 18be 52be 20be 71a8 9d3d b782 98bd
00000370: a16f 3c39 d166 86bd 3dee 143e a687 2ebe
00000380: da9f 30be fb2f 233d 7134 b73d 3907 f03d
00000390: 6813 bf3c 05a2 413e 9341 85bd afe5 52bb
000003a0: cfac 36be 8c13 9fbd 5f4d 92bc 2496 973c
000003b0: 5f01 ac3c 40e2 863c 9cc1 7e3d 0d01 61bd
000003c0: 2407 d5bd 5c28 20be 3f23 3e3d 2bbe ff3d
000003d0: 4a9f 073e 9779 0cbe f2e2 98bd 9f79 4bbd
000003e0: 77e5 d9bd 0446 603c ecf7 6bbd 3c53 0dbe
000003f0: d374 c8bb ea3f 78bd 0874 abbd 6da4 d13d
0.15629496 -0.036340393 0.18556398 0.11231408 -0.035120852 0.05661269 0.18646488 0.15048096
-0.081658155 0.14100266 0.12737823 -0.20098308 0.102677174 -0.18733741 0.16450574 -0.07721269
0.07262345 -0.117541365 0.024203204 -0.014890018 0.09950275 0.10093214 0.028129568 0.026480665
0.021206317 -0.11898809 -0.021867452 -0.017498324 -0.10386084 0.08097993 0.05100758 0.05575233
0.15866442 -0.029797196 0.12821865 0.054248042 0.09761389 -0.16972463 0.021904577 -0.123868264
0.0061219875 0.14594772 0.18316108 0.11516066 0.086153544 -0.13989453 -0.07661684 -0.038422786
-0.07252317 -0.11151044 0.20109855 -0.13713717 0.09768633 0.055123948 -0.015844395 -0.023871338
-0.04007007 -0.013639651 -0.0094870925 -0.009236699 0.14858156 -0.08161794 -0.1575947 -0.09216717
0.18116195 -0.03615646 0.0050378903 -0.08398739 -0.19590703 0.069656834 -0.00553804 0.115156285
0.050108895 0.17427146 -0.10807908 0.10501342 -0.0062293853 0.039667357 0.13443603 0.027641332
-0.1265364 0.1433328 0.12809962 -0.031398915 0.04226699 0.0126559455 0.053107318 -0.10767211
0.04568655 0.039170045 0.11459057 -0.040867493 0.025578868 0.17983297 -0.15956667 -0.2271997
0.19264366 -0.028248508 0.12683786 0.1961458 0.034407437 -0.19001088 0.061681204 0.08876792
-0.11072882 0.1645777 -0.054004002 -0.19650356 -0.014310393 -0.17641926 0.048299115 0.11403333
-0.036297057 0.12460994 0.11273004 0.105418086 0.02040718 0.004967128 0.03366821 0.037933372
0.16220285 0.19826575 -0.0014914955 -0.11222258 0.090759866 -0.18239297 -0.04234963 0.16481629
0.06927668 -0.11881302 0.036636025 -0.013770132 -0.18734789 -0.0006625009 -0.019493738 -0.006661137
0.173368 0.015545753 -0.12325156 -0.19321516 -0.04741137 0.029324383 -0.07594081 -0.17869698
-0.107819185 -0.02680587 -0.082462475 -0.12979521 0.06980535 -0.1486866 0.10691874 0.074648075
0.007678626 0.16705066 0.055666298 0.08948743 0.12443529 0.0752422 -0.119557135 0.09645527
0.08490891 -0.17398567 -0.18793793 -0.12891102 0.08427232 0.17699985 0.10653318 0.06391013
0.15139651 -0.11773558 -0.1126315 0.16183305 0.0945542 0.15080464 -0.02827185 -0.04465601
0.031924307 -0.2194062 0.08851726 -0.10285885 0.025731854 0.031572983 -0.0018280899 0.11402157
0.081892245 -0.009581547 0.054065794 -0.20838624 -0.14780141 0.29621792 -0.1422265 0.09667492
-0.0026713964 -0.038876303 -0.10663185 -0.17023309 0.04348196 -0.08834748 -0.0025031865 0.014654276
0.07427879 -0.0018979075 -0.012952392 0.064465314 0.116619125 0.1518182 0.13378341 0.19989581
0.06544582 0.019816268 0.1356715 -0.07741588 0.004962616 0.23360668 -0.16546868 0.13643415
-0.14846744 -0.15697601 0.07698143 -0.07446807 0.00017970662 -0.065625794 0.14544006 -0.17043933
-0.17248479 0.03984068 0.08945549 0.117201276 0.023324683 0.18909462 -0.06506648 -0.003218036
-0.17839359 -0.077674 -0.017859159 0.01850421 0.020996748 0.016465306 0.06219636 -0.054932643
-0.104017526 -0.15640396 0.046420332 0.124874435 0.13244358 -0.13718258 -0.074651614 -0.049676534
-0.1063947 0.013688568 -0.057609484 -0.13801283 -0.006117442 -0.06060783 -0.083717406 0.1023644

lstm.bias_ih_l0_reverse f4 [172]
00000000: f7bf b73d b0a7 41bc 2318 d7bd 65ed 04bb
00000010: fb11 e73d b71f 813d de69 ec3c f1a8 96bd
00000020: aa74 a0bd b6a5 c33d 5f5f 07be 35ca 853d
00000030: 3a74 283d 5e98 e53d 8708 cdb9 2093 003e
00000040: 03ba b83d 6209 a03d d261 563c 0378 5d3d
00000050: 07d5 92bc 03fe 1b3e 74a4 09be a9d9 8a3c
00000060: 1c58 593b 7b28 40be ea06 0dbe 3766 2bbd
00000070: 825b 4f3e 7836 e0bd 0c5e 8d3d d5e9 d33c
00000080: 9cfe b73c 2c12 54bd 0c12 0f3e aa42 5b3d
00000090: 13b9 b1bc b53c 963d ed6d 12be 5650 233d
000000a0: 5e80 8dbd 0595 15bb 530c a13d 4997 533c
000000b0: 1e04 84bd 3558 cc3d 7d1e 02bc c51e b7bc
000000c0: fbd9 fe3d 131a 003e e685 afbd 22d2 8cbd
000000d0: 1e3a b2bd 0f3f 01be 8962 013e 18fa 86bd
000000e0: e5b1 163e 1e1f ba3d 4617 023c e945 f43c
000000f0: db38 683c 01b7 e9bd fe3e 643d b588 443d
00000100: 8796 5b3e d160 bebd 4446 083d 7829 ccbc
00000110: 02fa 903c a2fa 12be 8f93 b83c 8655 4b3e
00000120: f791 923b 0481 68bd 62de 033d be46 efbd
00000130: 0150 063e 7709 5abd b761 0fbd b6d0 353e
00000140: a90f 0d3e 38f0 1a3d 9eff ffbd 7845 1a3e
00000150: 3903 dcbd ff4f 0f3e a473 103d 17c1 80bd
00000160: 565c a43d 3d81 333c a18b 2f3d 7a0c 2bbe
00000170: 9a88 36bd 6b91 09be 0f12 e6bc d313 d5bc
00000180: 5259 6ebd 3cfa 41be e035 c33c 2799 bc3b
00000190: adde 2b3e 8b96 233d d2ba 1b3e 6b99 ecbd
000001a0: 9cc0 703d 06f2 2bbe 3384 13bd 325b 923d
000001b0: f1cc 643d e49b 1d3e 8334 e73d d205 ef3d
000001c0: e9af 8e3c 62fb 08be 5ed1 b2bd 4b24 ba3b
000001d0: 08f6 a33d 12bd 3fbd 5bb1 81bd 146f 983d
000001e0: c58b b1bc 175f 033d 67a9 23bd eb34 84bc
000001f0: 0760 413d 1ac8 9a3d e6f5 fdbd 6d65 b23d
00000200: 878d 203e 878e bfbc f193 ecbd 4e9d b9bc
00000210: 39c2 1a3d 059a ccbd 99ed 773d 7495 353e
00000220: fa3a 593d fd89 503d c19b a0bd 5668 05bd
00000230: 565c 713c 875e 113c aa74 cd3d 236a 0ebd
00000240: ff4f 383e 8c83 77bd ed6a 053e 145a f63d
00000250: abbf e0bc 8541 4dbc 1878 f03d 649d 5c3d
00000260: ff12 b33d df46 a6bd cc11 d23d b709 b43d
00000270: ca3b 0fbd 8ed6 253e d124 93bd 1691 1bbe
00000280: f0a7 e0bd 61c8 15be f8a6 19bb c43d ba3d
00000290: dcbc 143e a564 9e3d 8913 433e 01dd 093e
000002a0: ae48 153e 63b7 363e bc78 b5bd 1c2f d23d
0.08972161 -0.011819765 -0.105026506 -0.00202831 0.112827264 0.06304877 0.028859075 -0.07356442
-0.07834752 0.09553091 -0.13219975 0.065327086 0.041126467 0.11210702 -0.00039107 0.12556124
0.09019854 0.0781429 0.013084846 0.05406953 -0.017923845 0.15233617 -0.1344164 0.016949492
0.003316409 -0.18765442 -0.13772169 -0.041845527 0.20249751 -0.10947889 0.06902704 0.025868336
0.022460274 -0.051775143 0.13971728 0.053530373 -0.021694696 0.07335798 -0.14299746 0.039871536
-0.0690925 -0.0022824418 0.07863679 0.012914487 -0.06446098 0.09977762 -0.007941839 -0.02235354
0.1244392 0.12509947 -0.08570461 -0.06876017 -0.08702491 -0.12621711 0.12635244 -0.0659067
0.14716299 0.090879664 0.007940119 0.029818492 0.014173712 -0.11411858 0.055724137 0.047981936
0.2144414 -0.0929581 0.033270136 -0.024922118 0.017697338 -0.14353421 0.022531299 0.19856843
0.004472967 -0.056763664 0.032194503 -0.11683415 0.13116457 -0.053231683 -0.035005298 0.17755398
0.13775505 0.037826747 -0.12499927 0.15065563 -0.10742802 0.1399536 0.035266533 -0.06286829
0.08025424 0.010956106 0.04285777 -0.16703978 -0.044563867 -0.13434379 -0.028084783 -0.02601043
-0.05819065 -0.18943113 0.0238294 0.005755562 0.16784163 0.03993849 0.15207985 -0.115527
0.058777437 -0.16791543 -0.036014747 0.071463004 0.05585951 0.15391499 0.11289313 0.11671032
0.017417865 -0.13377145 -0.0873134 0.005680596 0.08005911 -0.04681117 -0.06332656 0.074430615
-0.021673093 0.032073107 -0.039956477 -0.016138515 0.04721072 0.075576976 -0.12400417 0.08710752
0.15678988 -0.023383392 -0.11551655 -0.022658017 0.03778288 -0.099903144 0.060529325 0.17732793
0.05303476 0.050912846 -0.07842208 -0.032570206 0.014731487 0.008872635 0.100320175 -0.03476919
0.17999266 -0.060428187 0.1302907 0.120289 -0.027435144 -0.012527828 0.11741656 0.053861037
0.087438576 -0.08118986 0.10257301 0.087909155 -0.03496913 0.16195127 -0.071847565 -0.15192065
-0.109695315 -0.1462722 -0.0023445468 0.09093812 0.14525169 0.0773404 0.19050421 0.13463213
0.14578506 0.17843394 -0.08860919 0.10262892

lstm.bias_hh_l0_reverse f4 [172]
00000000: e44c 003e 6e56 9a3d 40be ecbd 9ced 003d
00000010: 70ce 093e d8e3 d53d 42b2 933d d935 09be
00000020: a35e 943d 607a 143d b81e f7bd 093a e93c
00000030: 7ecf 533c ddee 8d3d 6327 21bd 41f5 5d3e
00000040: 86b0 873d dbeb 14bd e4c9 e6bd d661 d03d
00000050: 17e3 1fbd 14fa b33b bf87 c6bc d47b ab3d
00000060: af9d c4bc 19e8 493d 3470 6f3d ccdc 9dbc
00000070: c3e5 39bd b5d0 d73d 7e9b 6a3d 592d 883d
00000080: aca0 d33d dc42 283e eb0f acbd b332 f23d
00000090: 7a0f 45bd 3b70 923d 27ac 4fbd ec4c a73d
000000a0: 29fa 393d 789a 533d 54db 94bd 7120 b33c
000000b0: a68a ec3c 7927 abbd 6b7a 083e dff8 0a3e
000000c0: 56a4 11be 3d39 e03d 06bd f1bc 8e7a 8bbd
000000d0: 42f9 cbbd ec3e eb3d 6426 b43d b7a5 1c3e
000000e0: 2928 4dbd 6c3c da3c fd06 c13d ca15 a93b
000000f0: d720 8b3d 9795 03be 152a b03c 2133 293e
00000100: 936d 483e a6d9 79bd ebc9 293e 3cf9 523d
00000110: 53aa d6bd 4d06 06bd 3d61 733c 0026 593e
00000120: 857e a63d 1952 75bd 802f 033e 379a a23c
00000130: 9a96 b83d 3d32 97bd 69b1 283e 556c 073d
00000140: 88e6 843d 76ec 82bc 3c3d 9dbd 3ee4 2b3e
00000150: 4392 0dbe 3185 383d 7d8c 13be b25e 3b3d
00000160: 9efc cbbc 9130 2c3e 5119 19bd 4eea 293d
00000170: be8b f5bd 8767 f33d d2dc 96bd e614 173e
00000180: 5647 a03d eef6 80bc 0f38 ef3d 13f6 83bd
00000190: 9683 2fbd 7be8 0c3e 5a60 0cbc de48 c9bd
000001a0: d745 16be fedc 9039 18c4 a2bd 4c7e 193d
000001b0: 259a 28be 92dd e1bd 377d ea3d a4bc ba3d
000001c0: 9142 04bd 4b45 0ebe 8f46 a8bd 7916 823a
000001d0: aa71 813d 029c 11be 8f0d 59bd d787 a7bd
000001e0: ca46 073e 4cc9 bebd 4c83 6abd 1641 033c
000001f0: 276d 533d dff8 35be 36c7 91bd 77cc 24be
00000200: b829 e33d 2ec2 babd dda9 e53d bc61 483d
00000210: f7c4 663d 4e2b ad3b 44df 223e 3a81 efbb
00000220: e749 063d d78c fb3c 11f4 fcbd 3c62 febd
00000230: a3a3 613e c2a5 74bc 90d9 ba3d cbd3 d63c
00000240: d05a 613e 1aaa 803c f7f9 cb3d b51c e73d
00000250: 3263 cb3d ee60 66bc d7e2 d33d 4b6e 04be
00000260: 324c 193e 6b8d 9bbd d2d6 1e3d cfc0 cf3d
00000270: a7e6 92bd 4842 b03d ef76 1e3d c25a b8bd
00000280: 811e b93d 966a 94bd 7481 123e 323d 30bb
00000290: 4776 c13d 5c0c 4a3e ba03 803c 1851 1b3d
000002a0: 6acd 11be f86f babd 534a 03be f8f1 d93d
0.12529331 0.075360164 -0.11559725 0.031476602 0.13457656 0.10443848 0.07211734 -0.13399448
0.07244613 0.03624952 -0.12066406 0.028470056 0.012927888 0.06930325 -0.039344203 0.21675588
0.06625466 -0.03635774 -0.11268976 0.10174911 -0.03903493 0.005492458 -0.02423465 0.08373228
-0.02400097 0.04929361 0.058456615 -0.019270323 -0.045385133 0.105378546 0.057277195 0.066492744
0.1033338 0.16431755 -0.084014736 0.11826076 -0.048110463 0.071503125 -0.050701287 0.081689686
0.045404587 0.051660985 -0.07268396 0.021866055 0.028874706 -0.08357138 0.13327949 0.135715
-0.14222845 0.10948417 -0.029509079 -0.06810485 -0.099596515 0.11486611 0.08796385 0.1529759
-0.050087128 0.02664014 0.09425161 0.005160068 0.06793373 -0.12850033 0.021504441 0.1652341
0.19573049 -0.06099858 0.16580932 0.05150722 -0.104817055 -0.032720853 0.014854726 0.21205902
0.081296004 -0.059892748 0.12811089 0.019848926 0.090131 -0.07382629 0.16473927 0.033062298
0.06489283 -0.015981894 -0.07677695 0.16786286 -0.13825326 0.045048896 -0.14409061 0.045744605
-0.02490073 0.16815402 -0.03737766 0.041483216 -0.11989544 0.11884981 -0.07366337 0.14754066
0.07826106 -0.015742745 0.11680614 -0.06443419 -0.0428501 0.1376056 -0.008567894 -0.098283514
-0.1467508 0.00027630472 -0.07947558 0.03747396 -0.16465051 -0.11028589 0.11449664 0.091180116
-0.032290045 -0.1389362 -0.08216583 0.000992491 0.06320508 -0.14219669 -0.052991446 -0.08180206
0.13210598 -0.09315738 -0.05725412 0.008011123 0.051617768 -0.17770718 -0.071180746 -0.16093622
0.110919416 -0.09119068 0.112140395 0.04892133 0.056340184 0.0052847033 0.15905482 -0.007309106
0.032785323 0.030706806 -0.123512395 -0.124210805 0.22035079 -0.014932098 0.09123528 0.026224038
0.22007298 0.01570611 0.099597864 0.11284772 0.099310294 -0.014061196 0.10346001 -0.12932698
0.14970472 -0.07595333 0.038779087 0.10144197 -0.071729 0.08606392 0.038687643 -0.09001686
0.09039021 -0.07246892 0.14307195 -0.0026891944 0.09446388 0.19731277 0.015626777 0.037919134
-0.14238515 -0.091033876 -0.12821321 0.10641855

lstm.weight_ih_l1 f4 [172, 86]
00000000: 6d46 92bd 9f14 49bd c760 dcbd cdb1 6fbd
00000010: f2c5 2cbc 1ab8 7e3d 06b2 34bd cbfb ee3d
00000020: c65c 7d3e d0de 17bb 1ea4 a53d 25ef f1bd
00000030: 7ca8 15be 18a4 1c3e cf32 4f3d baac 9f3d
00000040: f248 a8ba 789c 30bd 2b9b d93d 68f4 903d
00000050: 78c0 c73d 4ed6 e43d 20d4 ee3d 3dbe 903d
00000060: 7fa4 ba3d 3be8 94bd fafd ef3c cc42 cc3d
00000070: e671 a4bd 082d 3fbd 4be4 b53d 0f81 2d3d
00000080: 7b02 0c3d 14ce 7dbd 5504 de3d fa7f f83d
00000090: ab71 d2bd 5f64 bb3d 8677 91bd f3d0 7bbc
000000a0: e80e 8e3d daf1 01be 61da f43c d029 993d
000000b0: 003f 883d 7825 56bd 32fd 84bc b7c2 a9bd
000000c0: 6a9e f33d 6227 fd3c b07e 73bd ce39 c23c
000000d0: 7fe8 6d3d 8095 36bd c69b f83d dc6d 7d3d
000000e0: 5a68 b83d cea2 e7bd c2a9 dc3d a0a1 53bd
000000f0: c108 b5bd fa5e a5bd b093 ac3d 8041 7fbd
00000100: 3bfb 193d 4567 1f3d dac2 b53d 157f 053e
00000110: 4788 98bd 40a1 b7bd 072b d83d c9d6 96bb
00000120: ce16 e33d a5b0 58bd 7005 e9bd 82bb bfbc
00000130: 1afa 06be 0cfe 20be 412b 8b3c e650 cebd
00000140: b860 4f3e 8b92 053e 8601 1c3e e25d 0cbc
00000150: 4295 1f3e a343 1e3e b4b0 35be 25c6 173e
00000160: 09f9 053d f718 52bd 7909 b4bc 2d98 9ebc
00000170: 057f 353e 231f 2fbe 0f52 d3bd 5f67 dc3b
00000180: 98f7 04be 7974 89bd b057 0fbd ea08 8a3d
00000190: 7469 4e3d 5371 fdbc 0ba8 e93d 288e 293d
000001a0: eb5d c2bc 123e 153e ad27 67bd 90f2 f23d
000001b0: 89ac 36bc bd8a c8bd 1682 213e f2a6 923d
000001c0: f94d 93bd 99d5 0cbe c433 e13c c771 a0bc
000001d0: 7e13 1c3e 4a8a 083e ad6c 2b3e 4ecd 0dbe
000001e0: 8e06 05be 561c d5bd e64d 453e c4e5 543e
000001f0: 6112 323e 7ce0 e2bd be28 a9bc e956 87be
00000200: ee0f 0f3e 5417 eabd 4194 4f3e e0c8 d8bc
00000210: a561 bfbc 2bb5 16bd 5d4a 8b3d ca7a bbba
00000220: d06f 143e 8e5d 06be aab3 143e a591 92bd
00000230: 5613 97bd 3af3 13bd bd4b 5f3c 7708 873d
00000240: af4a 083e 6cdc 363d a0e4 a7bd e3f5 5fbd
00000250: f8ac a93c 2c35 ce3d 3827 e8bc 953c 9b3d
00000260: c8e8 583d 29c9 e3bd 33dc d3bd 8b6c d73d
00000270: a2a4 dfbd b99b 123d 848d 823d be12 f6bc
00000280: fd05 023e 160b 133d 5c74 fbbd addb bbbd
00000290: 2049 0fbe cf33 5f3d 6653 2a3e f712 09be
000002a0: 3d43 883d 182e 05be e647 a8bd c926 733d
000002b0: 0590 ae3d 478a 0cbe 51de 78bd 35cc 86bd
000002c0: 3798 373e 4515 6ebd d922 463e e207 edbc
000002d0: 05b7 91bd 9698 49bd 95e7 63bd 29a6 0b3e
000002e0: fcfc 8d3d f84e e3bb a3a1 903d cbdf 8a3d
000002f0: 723e 64bd 0c3f 44bc e204 ed3d 9deb b9bb
00000300: 51af efbd c614 383b 53c9 c13d afc0 f9bd
00000310: cd1f 593e c221 043d 7d62 aabd 72e4 0abe
00000320: a31e c73d abce d63d 6218 903d fa06 1abd
00000330: 6e5e 943d b1c9 e7bd 6652 ef3d c76a f6bd
00000340: 7c97 91bc 45d9 863d abe9 22bd 1505 223d
00000350: c6e5 ce3d d0ba 06be fcbe d93d cd7f 423d
00000360: 6bbc e63d c8d6 e7bd 595a d1bb b628 8abd
00000370: f904 babd c8e7 42bd c990 0ebe a279 ad3d
00000380: 1329 09bd 7f73 05be 8d59 0c3e 33d5 e53c
00000390: 3db6 93bc 7b99 c5bd 54c7 9b3d 5688 e3bc
000003a0: c33c 813d 305d 18be 0684 683e a8ab 24be
000003b0: abaa c93d 4c9c 98bc 3a6e aa3d 23b1 c63d
000003c0: 0a67 0f3d 0fe4 b43d 4d07 bebd a216 85bc
000003d0: a747 553d f190 dc3d babf b83d 7b4a ec3c
000003e0: 09ad 89bd 5939 29bd c154 cfbd 9db0 0d3e
000003f0: 5823 1abe f41d f2bd 1407 123e a0f7 01be
-0.07142339 -0.04909193 -0.10760646 -0.058519173 -0.010545241 0.06218729 -0.04411509 0.116691194
0.24742422 -0.0023173578 0.080879435 -0.11813191 -0.14615053 0.15296972 0.050585564 0.07796617
-0.0012839122 -0.04311797 0.10625299 0.07077867 0.097535074 0.11173688 0.116615534 0.07067535
0.091134064 -0.07270857 0.02929591 0.09973678 -0.08029537 -0.046673805 0.08881434 0.042359408
0.034182053 -0.06196411 0.1084067 0.121337846 -0.10275587 0.09150004 -0.071028754 -0.015369642
0.06936437 -0.12689915 0.029889287 0.07478678 0.06652641 -0.052281827 -0.016234014 -0.08289092
0.118954495 0.030902568 -0.05944699 0.023709204 0.058083054 -0.044576168 0.121390864 0.06187235
0.090042785 -0.113103494 0.10774566 -0.05166781 -0.0883956 -0.08074756 0.08426607 -0.062318325
0.037593108 0.038916845 0.088750556 0.13036759 -0.07447868 -0.08966303 0.10555082 -0.004603241
0.11088334 -0.052902836 -0.1137799 -0.02340484 -0.13181344 -0.15721911 0.016988399 -0.10074024
0.20251739 0.13044183 0.15234956 -0.008567305 0.15584281 0.15455489 -0.17743188 0.1482168
0.0327082 -0.05129334 -0.021977173 -0.019359672 0.17724235 -0.17101721 -0.10318386 0.00672619
-0.12985075 -0.067116685 -0.034995735 0.067399815 0.050393537 -0.030937826 0.11409005 0.041395336
-0.023726424 0.14574459 -0.056434322 0.118626714 -0.011149534 -0.09792087 0.1577228 0.071607485
-0.071926065 -0.13753356 0.027490504 -0.019585503 0.1524181 0.13334003 0.16740675 -0.13847849
-0.12990782 -0.10405795 0.19267997 0.20790774 0.17389823 -0.11077973 -0.02064931 -0.26433495
0.1397092 -0.11430231 0.20271398 -0.026462972 -0.02336199 -0.03679387 0.06801293 -0.0014303562
0.14495778 -0.13121626 0.14521661 -0.07156686 -0.07376735 -0.03612063 0.013628897 0.065934114
0.1330974 0.044643804 -0.08197904 -0.054677855 0.02071236 0.100687355 -0.028339013 0.075799145
0.052956372 -0.11122353 -0.10344734 0.1051875 -0.10920073 0.03579304 0.06374648 -0.030038234
0.12697597 0.035899244 -0.12278053 -0.09172759 -0.13992739 0.054492768 0.16633376 -0.13386141
0.0665345 -0.13005865 -0.082168385 0.05936316 0.08523563 -0.13724624 -0.060758892 -0.06581918
0.17929159 -0.058125753 0.19349231 -0.028934423 -0.07114986 -0.049217783 -0.055640776 0.13637604
0.069330186 -0.006936904 0.0706208 0.06780966 -0.055723615 -0.011977922 0.11573197 -0.0056738392
-0.11703361 0.0028088554 0.09462228 -0.121949546 0.21203537 0.032258756 -0.083195664 -0.13563707
0.0972264 0.104886375 0.07035901 -0.03760431 0.072445735 -0.113177665 0.11685638 -0.12032085
-0.017772429 0.065844096 -0.039773624 0.039555628 0.101024196 -0.13157201 0.106321305 0.04748516
0.112664066 -0.11320263 -0.006388944 -0.06746046 -0.0908298 -0.047584325 -0.13922419 0.08470465
-0.033486437 -0.1303234 0.13706036 0.028055763 -0.018031234 -0.09648415 0.07606378 -0.027774971
0.063104175 -0.14879298 0.22706613 -0.16081107 0.098470055 -0.018629216 0.08321805 0.09701755
0.035010375 0.08832561 -0.09278736 -0.016246144 0.052070286 0.10769833 0.09020944 0.028844109
-0.06722457 -0.041314457 -0.101235874 0.13836904 -0.15052545 -0.11822119 0.14260513 -0.12692118
