model_config/best_train_gas_itself_lstm.pt (torch, 436057 bytes, 25 tensors)

lstm.weight_ih_l0 f4 [172, 6]
00000000: 9d41 1cbe 1541 24be 8951 133e fcc0 80bd
00000010: f4b7 813d 20df ee3d abd9 9ebd ddc1 c33d
00000020: 0b22 253e b887 343e 6f2a 53bd 17e2 d33d
00000030: afb1 82bd 93a2 9c3c 0b85 95bb 28cd f7bd
00000040: 71f1 fe3d 06f1 5ebd 4926 57bc e69e e83d
00000050: 9d46 233e 54d0 07be 2829 293d ccfb 10be
00000060: 74e7 e73d 8926 43bd a55c 99bd e5f7 b33d
00000070: ec8d 323d 5ed0 9a3d 4bf8 f83d d412 3bbd
00000080: e914 163e 826f 0e3e f80b 993c a3ac 1cbc
00000090: 2142 03be 0778 11be 18d4 0b3e 70a6 c0bd
000000a0: 344d 2abe 4a11 d9bc 2672 b13d c73c 99bd
000000b0: 0b17 263e 9fda d03c 27db 383d 5903 b9bc
000000c0: 0f37 8ebd f7cd b93c 4c21 0f3e f076 183e
000000d0: 4a45 8cbc ccda be3b bea7 a83d 3509 0e3e
000000e0: 1fbe cdbd 4479 abbd fe27 dcbd 646f 8c3d
000000f0: f98f a1bd 0b53 08be 487b 8dbd 059a fe3d
00000100: d3d8 013e 73f6 363e 5f98 383e 4728 4b3c
00000110: 3eda f7bb 6aac a6bd 1aed 2bbe 44f1 ea3d
00000120: 3ae7 d53d dc5a f7bb 3951 fd3c 6f58 e03d
00000130: a697 8a3d 8109 e2bc 595c 133e eca4 08be
00000140: 1fbd 16be 1ae5 9e3d 7284 40bc f77a f7bd
00000150: a1ae 02be ea89 5abb d72e b9bc cd32 b23b
00000160: aee0 2f3d e4b8 2a3e 2098 263c 09e8 673d
00000170: f0f3 d93d ac0a d53d 652a bebd ea93 19be
00000180: 25fc 663c d900 783c 4857 11be d0b3 d83d
00000190: 0603 a2bc 2277 a03d 15a7 c6bb e635 0a3e
000001a0: 319e c2bb 100e e83c 7f5b 5e3a 8bd9 6d3c
000001b0: 2f2e 3dbd 679c b0bd 74c1 2c3d 1ba4 d03d
000001c0: 840b 1b3e 893c 23be 932e 23be 0869 8f3d
000001d0: 86e1 323e 1717 abbd 73ca 8ebd 6193 203e
000001e0: 6a78 36bd 0d71 163d 6b70 b93d a04f 3bbc
000001f0: 7dfe bc3d ea96 2ebd 72fe 983c 903b 303e
00000200: cf54 33be 9151 83bd 4dc6 223c 2762 bebd
00000210: ff5e 99bd 20dc dc3c d0f2 2c3e 600d 1e3e
00000220: c924 e83d 0c73 29bd c065 48be 4012 903d
00000230: 9f44 38be 06fc b4bd c2c4 023e 6a12 38bc
00000240: 1a80 eebd e39c 103e 53f6 24be 338a 9c3d
00000250: ffcb 733d 1458 843d 3bf7 cebc ab63 4fbd
00000260: 1488 aa3b 936d 043e c87a ed3d 71bd 5d3d
00000270: 4ba2 d3bd e80a 97bd e1b7 a6bd a04e 4cbd
00000280: d0bf deba a685 e7bd 98e9 14be 8032 bf3c
00000290: 6f72 cabd 355d 273e 824e 92bd a6d2 92bd
000002a0: af3e c2bb eed0 4c3d 37a9 0bbe 90a6 08bd
000002b0: 9caa 1e3d eb89 32be d4b9 79bc 9806 16be
000002c0: 2726 32be f162 f3bd 1d68 193e fbb1 a5bc
000002d0: 55a1 1c3e 7b6e ee3c c7f8 adbd e70e 483e
000002e0: b308 36bc 4a05 0bbe 7bf1 2c3d 6914 cd3d
000002f0: 3a97 92bc d523 1a3e 1346 22be d45d ffbd
00000300: 9a4c ad3b d39e c2bd 6f1d 8a39 d25b a03d
00000310: 8110 c4bd c62f af3c 5854 bfbd 041f 0abe
00000320: a7bd 7ebd ff43 42bd 29c3 383e bba1 ed3d
00000330: 34d9 8abd b814 8abd 2947 dc3d 297a 65ba
00000340: fa24 ca3d 2f48 cb3d 9a25 923d 0a48 8d3d
00000350: b85c 373e 81aa d43d 0356 f3bd 33ed 213e
00000360: 9e89 02be a171 b33d 46c3 c93d b97d 143e
00000370: 4c68 563c 0c2a 10be e011 c0bd 6bc8 b53d
00000380: 23fb 91bd 8e68 ec3b 077d 1e3c 1c2a 0a3e
00000390: dbda d0bd c0d2 9e3d f445 463d f586 053e
000003a0: f83e a13d 251a 3c3c 2e35 8b3d 8df5 61bd
000003b0: e030 04be f9f7 a9bd eebb edbd c9bd 2fbc
000003c0: c5b3 03be 5d81 b43d 75ad 17bd 9836 01bc
000003d0: b350 d3bd 0410 973c 14a6 6c3b 1a54 aa3d
000003e0: 15e7 3f3a cf90 263e 0f47 933c 713f 2bbe
000003f0: db5c 4dbe 01ec 2a3e e4cf 59bc aefe c43d
-0.15259404 -0.16040452 0.14386572 -0.06286809 0.063339144 0.116636515 -0.077563606 0.09558461
0.16126268 0.17629898 -0.05155414 0.103458576 -0.06381547 0.01912049 -0.004562979 -0.12099677
0.12448395 -0.054429077 -0.0131316865 0.113584325 0.15944906 -0.13263065 0.041299015 -0.14158553
0.11323443 -0.047644172 -0.07488374 0.087875165 0.04359238 0.07559274 0.12156733 -0.045672253
0.14656414 0.13909724 0.018682465 -0.009562644 -0.12818195 -0.14205943 0.13655126 -0.094067454
-0.16631013 -0.026497502 0.0866435 -0.074822955 0.16219728 0.025494872 0.045130875 -0.022584604
-0.06944095 0.02268122 0.13977545 0.14889121 -0.017122883 0.0058244225 0.08235119 0.138707
-0.10046028 -0.08372739 -0.107498154 0.068571836 -0.07888789 -0.13312928 -0.0690828 0.12431721
0.12680368 0.1786745 0.18026875 0.01239974 -0.0075638583 -0.08138354 -0.16789666 0.11471799
0.104444936 -0.007548673 0.030922519 0.10954367 0.06767206 -0.027592422 0.14390697 -0.13344163
-0.14720581 0.077585414 -0.011750327 -0.120840006 -0.12761928 -0.0033346363 -0.022605343 0.005438185
0.04293888 0.16672093 0.010168105 0.05661777 0.106422305 0.10402426 -0.0928543 -0.14997831
0.014098202 0.015136921 -0.14193451 0.105811715 -0.019776832 0.07835223 -0.006062398 0.13497123
-0.005939268 0.028327018 0.0008482262 0.014517198 -0.046186622 -0.086235814 0.04217668 0.10187551
0.15141112 -0.15941061 -0.15935735 0.07002455 0.17468843 -0.083540134 -0.06972208 0.1568122
-0.04454843 0.036728907 0.09054645 -0.011432558 0.09228227 -0.04262439 0.018676016 0.17210221
-0.1751282 -0.06412042 0.009934974 -0.09296065 -0.07488822 0.026960433 0.168895 0.1543479
0.11335141 -0.041369483 -0.19570065 0.07034731 -0.17994927 -0.08837132 0.1277037 -0.011234859
-0.11645527 0.14122348 -0.1610959 0.07643547 0.059520718 0.06462112 -0.025264373 -0.05063216
0.00520421 0.12932424 0.11595684 0.054135744 -0.10333689 -0.07375127 -0.08140541 -0.04987967
-0.001699442 -0.11304788 -0.14542234 0.02333951 -0.09885108 0.1634415 -0.071438804 -0.07169084
-0.0059278826 0.05000394 -0.13638769 -0.03336197 0.038736925 -0.17435424 -0.015242059 -0.14650953
-0.17397366 -0.11884106 0.14981122 -0.02022647 0.15295918 0.029105416 -0.08494716 0.19536935
-0.0111104725 -0.13576236 0.04222248 0.100136586 -0.017894376 0.15052731 -0.15847044 -0.12469068
0.0052886726 -0.095029496 0.0002634334 0.07830013 -0.0957346 0.021385085 -0.09342259 -0.13488394
-0.062192585 -0.047428127 0.18043198 0.11603113 -0.067797095 -0.06742233 0.1075576 -0.000875386
0.09870334 0.09925877 0.07136078 0.06898506 0.17906463 0.103840835 -0.1188164 0.1581314
-0.1274781 0.08761907 0.098516986 0.14501084 0.01308639 -0.1407854 -0.093784094 0.08876117
-0.07127979 0.0072146123 0.0096733635 0.13492626 -0.10197993 0.07755041 0.048406556 0.13039763
0.078733385 0.011480843 0.067972526 -0.055165816 -0.1290927 -0.0829925 -0.1160811 -0.010726401
-0.12861545 0.088137366 -0.037030656 -0.007886551 -0.103181265 0.018440254 0.0036109732 0.08316822
0.00073205057 0.16266178 0.01797822 -0.1672342 -0.20054953 0.16691591 -0.013294194 0.09618889

lstm.weight_hh_l0 f4 [172, 43]
00000000: c2d3 10be 24e6 133e 447f 713d b938 6d3c
00000010: a50d 3e3d ce79 073c 8b24 83bd e1d0 07be
00000020: 2936 df3d 3f7e 143e 836c 6b3d 89ac 003c
00000030: 74b6 9ebd 6975 d3bd 3cec 17be faa8 c43d
00000040: b735 64bd 4cc9 693b d2d8 423c fc41 7dba
00000050: d138 c23d 20dc c63d 6d15 dbbd 595e 6f3d
00000060: 3d94 2cbe 5a85 8cbd 543f 1e3e b9d5 953d
00000070: 84a5 b3bc 96c1 1b3e 20fb 8a3d 73a3 d9bd
00000080: 4e2e 0e3e c309 fe3c c48d 10be 5b83 c0bd
00000090: 776a 8c3d 6ad0 5b3d 28da 1ebd d9eb 673d
000000a0: 8cf3 c1bd 51f5 26be 12f8 de3d eea8 efbd
000000b0: 3fa0 713d 0886 d43d f018 98bd 6957 c8bc
000000c0: f01d 023e b5b2 22be 4133 e33d 79bf 2b3e
000000d0: 6e42 32be d660 d93d 7490 2fbe 7dda 84bd
000000e0: 2033 123e 0f07 debd c054 c73a a701 3d3e
000000f0: e7b0 6cbd d0a3 e43d de93 093e 34c2 25bd
00000100: c842 43bd f560 0ebe 625a 123d 6362 183e
00000110: 4041 903d 469d 853d e64c ffbd 3fb4 303e
00000120: 4e8a 4a3c a000 033e 0b38 0a3e a705 f63d
00000130: 48aa eb3d 0c67 b23d 805d a23c 24ca 1e3b
00000140: e7bc 8f3d 1036 103d f5c0 b33d 298a 14bd
00000150: f2e8 f13d a90f c4bd 7714 c23d 78e1 30be
00000160: e0d7 2d3e 5c98 213e 3da4 913d 25a8 f3bc
00000170: e617 a03b a4a8 07be f2b8 953d 3b5f 9abd
00000180: fd8b 08be 5211 d23d 9316 f93d ef11 33be
00000190: 238a 483c bde3 863d 54e7 e53d e291 86bc
000001a0: 19d4 603d d32b f43d 8211 2e3e 12d5 ad3d
000001b0: 4bdf 833d c538 bdbd 9ef9 f7bd 3d69 18be
000001c0: 0691 81bb 8d6e 2abd 2875 a2bc 0f6b 15be
000001d0: 6aca 2c3e a0b0 19bd 28e2 e7bd 7b70 1abe
000001e0: 4627 aabd a6ea cc3d 2281 74bd a8b4 ddbd
000001f0: 644c 733d 4d8d 0dbe 607d fdbd f8b9 04bd
00000200: 8e8f f1bd c8b3 a83d 9398 f7bd 621f 13bd
00000210: 3c1d 04be 3c6a 2abc 0ad8 203e d354 21be
00000220: eac0 00be 8306 b3bd cac2 0e3e 538e ec3b
00000230: 08af c3bd 2e7a c23c 52f1 92bc 4c0a 1cbd
00000240: d95b 01be 0df0 2bbd ca23 973d 506b 293c
00000250: 1243 573d f258 623d 0102 87bd 16c4 8a3d
00000260: e4bf cdbd 2505 d43c 3fd6 d93d 9345 bc3d
00000270: 35db 36bd a1c1 b4bc 06ab 7f3d 5807 fabd
00000280: 9bff 273e 1fe8 8a3d 9dee 93bd 4d06 0dbe
00000290: 8328 1ebd 43f5 0b3d 398b f9bd abb6 e5bc
000002a0: 6dd6 d63d ff23 c0bd eea3 fc3b 67b2 84bd
000002b0: 5602 b73d 1409 563c b1e8 223e a5df c93d
000002c0: 4c15 26be c23b ebbd c420 e2bd bdcd 1d3e
000002d0: 1de2 023e 5343 18be f400 b03d 2a66 1dbe
000002e0: fe52 5e3c 1078 e4bd d0ab 21be cdf4 803d
000002f0: 54ed 11bd b444 32bd 584b c63d ad03 1fbe
00000300: c748 95bd c822 adbd 946f b7ba 2140 fabd
00000310: e8af 383e c9c4 353e 73e6 62bb 823c fcbd
00000320: a767 cfbc e45d 02be 4160 5fbc ad8e cc3d
00000330: 9eec 1fbe 4ae4 3f3d 0338 05be bea3 fabc
00000340: fa23 65bd 5461 b13d 2eba cf3d 1608 99bc
00000350: b833 00be 492c d43d 2477 ef3d 3caf e33d
00000360: d173 10be 3a25 763b 73cf 243e 746e babd
00000370: c63f 36b9 9c6e 1d3e 3e73 223d f0c6 c13c
00000380: b82d a43d 5e7e 84bd 709b b4bd 4e03 083e
00000390: dbff 033e 531c a73d d724 913d 47a5 cebd
000003a0: 74ac 2a3e bf86 e23d 40e8 fe3d 3c4a 68bd
000003b0: 99a0 2f3e fe45 09bd b50c 33be ed0e 0cbc
000003c0: aeae 203e 2da3 1f3d bd17 fd3d cebb bdbc
000003d0: 6fe2 42bd 4e7f c2bd 2c4f 80bc 69b8 f0bd
000003e0: 7fc9 003e 2b78 ff3c f432 a43d 4369 343e
000003f0: 4a89 0cbc d6bf 4bbc 82ae 9d3d a5ad 30be
-0.14143279 0.1444326 0.05895926 0.014478856 0.04639973 0.008268787 -0.064034544 -0.13263275
0.10899002 0.14501284 0.05747653 0.007853636 -0.07749644 -0.103251286 -0.1483621 0.09602542
-0.05571529 0.003567296 0.011892514 -0.00096610165 0.09483493 0.09709954 -0.10697446 0.058439586
-0.16853423 -0.06861372 0.15453845 0.07316155 -0.02192951 0.15210566 0.067861795 -0.106268786
0.13884851 0.031010514 -0.1411658 -0.09400054 0.06856244 0.053665556 -0.03878227 0.056621406
-0.09470281 -0.16304518 0.108871594 -0.11702143 0.058990713 0.10377127 -0.074266315 -0.024455743
0.12706733 -0.15888484 0.1109376 0.1677226 -0.17408153 0.10614173 -0.17144948 -0.06486986
0.14277315 -0.1084119 0.0015207753 0.18457662 -0.057785895 0.11164057 0.13435313 -0.04046841
-0.04767111 -0.13904174 0.035730727 0.14881282 0.070436954 0.06524138 -0.12465839 0.17256258
0.012362076 0.12793207 0.13497941 0.12012797 0.11507088 0.08711061 0.019819975 0.0024229372
0.07018452 0.035207808 0.08777038 -0.036264572 0.11812009 -0.095732994 0.094765596 -0.1727351
0.16976881 0.15780777 0.07111404 -0.029743263 0.0048856614 -0.13247925 0.07310666 -0.07537695
-0.13334651 0.1025721 0.12162509 -0.1748731 0.012239966 0.065864064 0.11225763 -0.016426984
0.054889772 0.11922421 0.16998866 0.084879056 0.06439074 -0.092393436 -0.121081576 -0.14883895
-0.0039540557 -0.041609336 -0.019831255 -0.14591621 0.1687409 -0.03752196 -0.11322433 -0.1508197
-0.08308272 0.10005693 -0.059693463 -0.10825473 0.059399024 -0.13823433 -0.12377429 -0.032403916
-0.11794959 0.082374156 -0.12089648 -0.0359186 -0.12901777 -0.010401305 0.15707412 -0.15755014
-0.12573591 -0.087414764 0.13941494 0.007219115 -0.09554869 0.0237399 -0.017937336 -0.038095757
-0.12632693 -0.041976977 0.07379873 0.010340527 0.052554198 0.055260606 -0.06592179 0.06775682
-0.10046366 0.02588136 0.10636567 0.09192958 -0.044642646 -0.022064986 0.06241896 -0.12208432
0.164061 0.06782555 -0.07223246 -0.13771935 -0.038612854 0.034169447 -0.12184758 -0.028041204
0.10490117 -0.09381866 0.0077099716 -0.0647934 0.089359924 0.013063688 0.15909077 0.0985711
-0.16219062 -0.11486007 -0.11041406 0.15410514 0.12781568 -0.14869432 0.08593932 -0.15371004
0.013569592 -0.111557126 -0.15788198 0.06296692 -0.035626724 -0.04352255 0.096823394 -0.15528746
-0.07289272 -0.084538996 -0.0013995045 -0.12219263 0.18035853 0.17750849 -0.0034622222 -0.123162284
-0.02531798 -0.12731129 -0.013633789 0.09988151 -0.15617606 0.046848573 -0.13009648 -0.030595656
-0.055942513 0.08661142 0.10142933 -0.018680613 -0.12519729 0.10360009 0.11692646 0.11117408
-0.1410668 0.003755881 0.1609476 -0.091030985 -0.0001738063 0.15374225 0.039660685 0.023654431
0.08016533 -0.06469415 -0.0881871 0.1328251 0.1289057 0.08159699 0.07087105 -0.10090118
0.16667348 0.11060857 0.12446642 -0.05671142 0.17151107 -0.033514015 -0.17485316 -0.00854848
0.15691635 0.038973976 0.12358043 -0.023160841 -0.047579225 -0.09496938 -0.015662752 -0.117539234
0.12576865 0.03118523 0.08017531 0.17618279 -0.008577654 -0.012435874 0.076993 -0.1725374

lstm.bias_ih_l0 f4 [172]
00000000: bc4b 5c3d 0e94 f13b 0b06 06be 70f1 09be
00000010: c43e 8a38 8130 1b3d a3dd dfbd ebf7 ec3d
00000020: 3aa3 d83d 7f99 883d 0f47 c83d 2117 003e
00000030: 1287 723d 24ae 4e3d 35c6 6a3d 3dd3 3cbd
00000040: e8a6 aebd 21ea ab3d 7d46 373d f5d0 183d
00000050: 9fe8 053b 13d7 e7bd 26f8 14be 82e2 633c
00000060: d914 f23c cce5 adba 9760 f73c 7f26 08be
00000070: f8b3 e23d 6313 74bd be9c 8cbd 3305 13be
00000080: 0b8d 153d b654 99bd a504 b03d 69c2 05bd
00000090: 0c6e 4a3c 8508 50bd a3ce d03d a081 dfbd
000000a0: cada 573d 8c39 9c3d 6354 38bc ae15 14bc
000000b0: eee6 6fbd 2b59 8c3b 802a 183e 41b4 02be
000000c0: 98af 09be 22b3 0cbe d63f 613d af8a f3bd
000000d0: 482e 103c 5f79 863d 7a79 d1bd 6772 533d
000000e0: ced7 173e 3921 cd3d 7557 d13c 2ba9 12bd
000000f0: 4f31 ec3d f46a d93d c867 8cbd 191c 253e
00000100: 74f4 533d 4ddf 25bd dc58 e03d 7b64 963d
00000110: 64eb a93d 369d c1bb 4cb4 f8bd 1bca 8e3d
00000120: 0ee5 d5bd 218d 92bd dc0e 1e3e 884d 2bbd
00000130: 3b36 7ebc 925c 9cbd 5745 0dbe 3e19 12be
00000140: 7ed5 22bd 2b9c f43d c23e 083e 331f 973d
00000150: 84b8 06be 5701 863c 9d57 a3bd b354 13bd
00000160: 0e65 e8bc f053 3f3d 8bbb 363b e6aa 863d
00000170: d3c0 debb 0a82 b1bc b908 783d 0d1e edbc
00000180: 52f7 21bd 6ab6 0bbe a4cb 0d3c ff6e b43d
00000190: 9454 a1bc 8df8 093e b3c1 873c 6253 ad3c
000001a0: 8589 42bd 48f9 01be d0af 9fbd ff43 3dbd
000001b0: 9983 323d f10b 193e ee04 7bbd 6e78 03bd
000001c0: dcb3 053d 9d33 4ebd ddc8 a13d 8bc8 f73d
000001d0: dc75 343c 79fb 07be 3d50 edbd 9d84 473d
000001e0: fa74 afbd 8e69 acbd 6b78 3b3d 82a3 1fbe
000001f0: 7e6a 15bb c4e5 e43c fa69 3b3d abd3 c2bd
00000200: 925e 823d a930 ba3d b6ee bc3d 3d9a e5bd
00000210: cf24 0ebe bc0e ed3a 1a08 0f3e b102 14be
00000220: d8fc bcbd 47cb e43b 569c 23be c2e9 963c
00000230: f864 313d 271d 4b3d ca35 20be 1530 943d
00000240: 62f0 72bc 8782 b43d f6a0 1f3b ed3f 0ebe
00000250: c7f7 b7bd b7ef a63c 9126 cb3d b542 34bd
00000260: 77ca a13d a330 713d 6932 0cbe ddbb e53c
00000270: 2179 f0bd 9111 333d 2785 cdbd 2e98 ff3d
00000280: 572f 603c 4254 15bd 4ea2 0dbe 7ee6 bfbd
00000290: 7d4b 66bd 58b0 4b3d 1e08 153e 39c9 753d
000002a0: f116 53bd 1885 dc3d ea32 9c3c 812d 04be
0.053783163 0.007372386 -0.13088243 -0.13471007 6.592044e-05 0.037888054 -0.10930946 0.11570724
0.10578008 0.06669902 0.09779178 0.12508823 0.059210844 0.050459042 0.05731793 -0.04609989
-0.085279286 0.08394266 0.044744957 0.037308652 0.0020432842 -0.11320319 -0.14547786 0.013908984
0.029550957 -0.0013267337 0.030197425 -0.13295935 0.110694826 -0.0595888 -0.06865834 -0.14357452
0.036511462 -0.074868605 0.08594636 -0.032656107 0.012355339 -0.050789375 0.10195663 -0.10913396
0.052698888 0.07628164 -0.011250588 -0.009038372 -0.05856984 0.0042830906 0.14859962 -0.12764074
-0.1344589 -0.13740209 0.05499252 -0.11891686 0.008800097 0.065661184 -0.10228248 0.051622774
0.14828417 0.10016102 0.025554398 -0.035805862 0.11532842 0.10616103 -0.06855732 0.16124
0.0517468 -0.04049616 0.109544486 0.07343384 0.0829685 -0.0059086336 -0.12143764 0.06972142
-0.10444079 -0.071558245 0.15435356 -0.041821986 -0.015515859 -0.07634844 -0.13795982 -0.14267442
-0.039754383 0.11943849 0.1330519 0.07378998 -0.13156325 0.01635806 -0.07975695 -0.035969447
-0.0283685 0.04671091 0.002788278 0.06575565 -0.006797889 -0.021668453 0.060555194 -0.028944993
-0.039542504 -0.13643804 0.008654509 0.08810233 -0.01969365 0.13473721 0.016571855 0.021157924
-0.04749443 -0.1269275 -0.077972054 -0.046207424 0.043582533 0.14945962 -0.061284 -0.032097273
0.03264223 -0.05034219 0.0789964 0.120987974 0.011014428 -0.13279523 -0.1158757 0.048710454
-0.085672334 -0.084185705 0.045769136 -0.15589717 -0.002279907 0.027941592 0.045755364 -0.09513029
0.06365694 0.090913124 0.09225218 -0.11211059 -0.13881229 0.0018086056 0.13967934 -0.14454152
-0.092279136 0.0069822404 -0.15977606 0.018422011 0.043309182 0.04958835 -0.15645519 0.072357334
-0.01482782 0.088139586 0.0024357415 -0.13891573 -0.08982807 0.020377977 0.09919465 -0.04400893
0.07899945 0.058884274 -0.13691105 0.028043682 -0.117418535 0.043717925 -0.100351624 0.12480198
0.013683162 -0.036457308 -0.13831446 -0.09370135 -0.056224335 0.04972872 0.14553878 0.060006354
-0.05153555 0.10767573 0.019067246 -0.12907983

lstm.bias_hh_l0 f4 [172]
00000000: db7b b93c 0893 b7bc df7c 043d 108d 0e3e
00000010: 46bb a0bd 4d96 e83b 751e 673c 7935 de3c
00000020: 230f fe3d 43ce ddbd c57b 38bd a912 ac3d
00000030: 0b38 65bd 819f ad3d 5dcc e23d 4c51 f43d
00000040: ee51 69bd 8d91 05be f95e f9bb 67e1 173e
00000050: e6ed b63c 9d55 193e 9fbb b43d eefd 50bd
00000060: 61ec dcbd 3200 08be 4e95 963d 7e6a 183e
00000070: 505b 463d 623b e0bd 96f4 0c3c abbc e5bd
00000080: 1d38 fd3d 6ec8 6b3d 73a4 9f3d 7a30 00be
00000090: 3c89 cabd 6663 17be b0c0 09be 927e 4a3d
000000a0: 7684 893d c64b a7bd a0ee 2ebb 1bc9 d83d
000000b0: 38a7 0abe f902 f9bd 58c3 cbbd 8477 80bd
000000c0: 9cc4 91bd 9dbc b5bd ce1f bebd a93d afbb
000000d0: 4ff1 163d fd65 c8bd c09b d73d 8949 fabd
000000e0: 4186 d7bc 1325 ccbd 4f79 e6bd 2ac2 3abc
000000f0: 258b e83d 549d d53d 70b6 9ebc a1f6 803d
00000100: b6db 973d 870f 103d dcfd cd3d e31e 063e
00000110: 28ef e63d 9b22 003d 0ee7 363d 4cda 59bd
00000120: c409 783d f5f5 16be 7c04 e43d 171d f6bc
00000130: 5137 9ebd 10e1 ff3d 1023 b13d 8630 623d
00000140: 326c abbd ee90 f0bd cdd9 89bd 0b71 123e
00000150: d5f2 0fbc b981 ee3c 0e3a 66bd d9b9 b03d
00000160: df8a f73d d68a f03d 110e 1f3e 8759 1abd
00000170: bb3f 0fbe 7ccb c6bd 04e3 9a3c 283d b7bd
00000180: 5fc9 a4bd 34af 93bd 67fb 583d 3d4a a5bd
00000190: 3df3 4d3d 3248 0e3e 16e0 01be 2c3b 06be
000001a0: e2c9 e5bd 6fcf 6c3c 8d9d fc3d cd9a 1b3d
000001b0: 24bd 86bd 0b36 083e b7ef 123e 8b2a 13be
000001c0: 861d 05be 24ea 22bd f588 30be 248a a8b9
000001d0: a49c 153e 4816 883d 368b 71bc 2c32 14be
000001e0: c921 ce3d 3a42 8a3b 6619 19be 6675 023e
000001f0: 64ec c73d ae19 683d ed15 23bc 0d81 043d
00000200: 6e50 e6bd 0523 4fbd 3356 00bd 2445 13bd
00000210: 367d 043b 429d 7d3c 6517 a5bd ed5d 653d
00000220: 37e4 4cbd c9ac 8ebd eb05 063c d8d5 edbd
00000230: 5c1a 153e 881f 8bbd 15b3 b83d 22fc f43b
00000240: a366 b7bd d170 e63d e93a 713d dbe4 0cbe
00000250: 5ecf ebbd 4864 d93d 2037 0bbe 8557 f9bd
00000260: 3726 e93d dce8 f93c 409f 14be fdc8 813d
00000270: 8c1a 19bd 055d d93d 2c46 ca3d 3fa6 b3bd
00000280: a6c8 46bd e7cd 633b 5cb9 69bd f8bc 39bd
00000290: 2a9c 93bd 008f 993d 082b 08bd 9928 c2bd
000002a0: c304 a1bd 9268 243d 9d79 133d c75c 293d
0.022642067 -0.022408977 0.03234565 0.13920999 -0.078482196 0.0070979954 0.014106383 0.027125107
0.12405231 -0.10830357 -0.04503991 0.08401997 -0.05596165 0.084776886 0.110741355 0.11929569
-0.0569629 -0.13043804 -0.0076101986 0.14832078 0.022330236 0.14974065 0.088248484 -0.051023416
-0.10787273 -0.13281325 0.07352696 0.14884374 0.048426926 -0.109488264 0.008603236 -0.11217626
0.123642184 0.05756419 0.07795038 -0.12518492 -0.09889457 -0.14784011 -0.1345241 0.049437113
0.06714718 -0.081687495 -0.0026692525 0.10585233 -0.13540351 -0.1215877 -0.09949368 -0.06272796
-0.071175784 -0.08873866 -0.0928341 -0.0053479266 0.036851224 -0.09785078 0.10527754 -0.12221057
-0.026309134 -0.09968009 -0.112536065 -0.011398831 0.11354665 0.104303986 -0.019374102 0.06297041
0.074149534 0.035171058 0.100581855 0.1309772 0.11276084 0.031283002 0.044653945 -0.0531867
0.06055619 -0.14742263 0.11133668 -0.030043168 -0.077253945 0.12494099 0.08649266 0.055222057
-0.08370246 -0.11746393 -0.06730995 0.14300935 -0.008785923 0.029114591 -0.05620771 0.086291976
0.120870344 0.11745231 0.1553271 -0.037683036 -0.13989155 -0.0970678 0.018907078 -0.089472115
-0.08046221 -0.07211152 0.05297413 -0.080708005 0.0502808 0.13894728 -0.12683138 -0.1310851
-0.11220147 0.014453753 0.12334738 0.037989426 -0.065790445 0.13301866 0.14349256 -0.14371698
-0.12999544 -0.039774075 -0.17239745 -0.0003214638 0.14610535 0.06644875 -0.014742663 -0.14472264
0.10065038 0.0042193206 -0.14951095 0.12740096 0.09761885 0.056665115 -0.009953958 0.032349635
-0.112458095 -0.050570507 -0.031332206 -0.03595461 0.0020216233 0.015479388 -0.08061103 0.055997778
-0.05002233 -0.0696655 0.008180122 -0.11613053 0.14560837 -0.067931235 0.09018532 0.0074763456
-0.08955123 0.11251987 0.05889407 -0.13759176 -0.115141615 0.1061483 -0.13595247 -0.12174896
0.11384242 0.030506544 -0.14513874 0.063371636 -0.037378833 0.10613445 0.098766655 -0.08771943
-0.048531197 0.0034760179 -0.057061538 -0.04534623 -0.0720752 0.07497978 -0.033244163 -0.094804
-0.07862236 0.04013879 0.03600465 0.041348245

lstm.weight_ih_l0_reverse f4 [172, 6]
00000000: 3986 f4bb d371 983d 89db 033e d82f 40bd
00000010: a698 99ba 937d 753d f649 bd3d 9851 863d
00000020: 863e 1b3e 65e0 103e 2150 803b 2b54 6e3c
00000030: 3693 013e c766 b63d 4263 d1bd e06e 85bc
00000040: 711d 053d 0c52 3bbe 231a c83d f64a 42bd
00000050: b6bd 143e 79cf fcbd 29c3 993d cc93 23be
00000060: 4038 313e e117 2e3e a709 24be 8780 1abe
00000070: ac10 9ebd 737f 963b 3bbf 113e 26dc 683c
00000080: 5c8a 863d 2d49 69bd 2d2d 1c3e 0aca 9fbd
00000090: 2a2b febd 5b45 6bbd 1f10 393e d11b 1cbd
000000a0: 984f 1a3d 31c1 e23d 9435 ce3d 263d fbbc
000000b0: c34d 3dbd ed8b 343c 2173 7bbd a220 313d
000000c0: 25a6 f33d e187 ec3b dedd 21be ecb4 11be
000000d0: 24e0 91bd 251f 123e ec1f 14bd d945 143e
000000e0: 9d8e 82bb 6b93 363e 4af5 16be 1bee 273d
000000f0: 9977 94bd 345c dc3d 4092 d7bc 5305 ddbd
00000100: a211 4a3e 22e5 67bb b551 bbbc 969a dcbd
00000110: 6c9d 273e b8ca 313d 231f 8b3d 0a61 103e
00000120: 4fef 333d b606 143d 196e 73bb afdd 823d
00000130: d508 c3bc 06d5 493d 7699 1fbe 489f 8dbd
00000140: c3ea 1f3e dfd9 2b3d 8daf 2c3e 30cb cf3d
00000150: d53b 35be 28b5 f9bd 2166 433d a2ba ce3c
00000160: a541 1a3e c642 fabd 9cff 55bd 44c0 acbd
00000170: f93b cebd 4969 04be 987d 2a3e 3cf5 d0bd
00000180: 8a91 2c3e dcd4 f13d f004 e03d 9b28 febb
00000190: 9cae babc ca0f c43d 8990 d3bd 4451 c0bd
000001a0: dcea 8b3d 52e6 cc3d 88ea a9bc afdc db3d
000001b0: 6422 d73d abd7 b7bd 6b69 d63c dade 35be
000001c0: 0bc5 8f3d 8b80 40bc 683b 973d 9c6c 87bd
000001d0: 31bc 2e3e f776 a13d fb0e e83d f165 9cbd
000001e0: 8a30 ce3d 3b30 c53b 5c44 873c 1f05 073e
000001f0: f2f4 263e e581 043e d130 7bbd 7bc6 9ebd
00000200: 1c18 2ebe 8b37 9abd ae1a c2bd 044f d93c
00000210: 352b 183e 0f67 4b3d a227 063c acc5 6c3d
00000220: d658 403e 04fc fe3d d4d0 643a 9d7a 0b3e
00000230: 5c6c a73d 75dc 9f3d 89e8 f53c 4a37 e23c
00000240: 5b06 1d3e ca2a ea3c 61ab e03c 8e10 b6bd
00000250: 5ea2 b23d 42b7 eabc a255 d7bd 1386 15be
00000260: de42 ae3d 9a7b ca3d 5d66 6c3d 4c7e 903d
00000270: 9ecd 4b3e cdc8 883b 67aa db3d f94c 6d3d
00000280: 9dd0 b6bd 1843 af3c d0dd bebd 4615 d23d
00000290: 356c 52bb d874 073e 5317 a93c f2ab 2bbe
000002a0: 03c2 bdbd 9ade b3bd e2f1 17be 9a20 1b3d
000002b0: 3c2b 2abe c72d ff3c 7459 dcbd 63dc 693c
000002c0: 119e ab3d eb83 8c3d 0a0b 733d 7e97 f43d
000002d0: a837 de3c badf a53c a9c0 db3d a3e3 c13c
000002e0: cd23 d53d 0929 a1bd a58b 263e 2c32 67bc
000002f0: 260e 81bd 1b99 f73d 7927 8d3d 2252 753c
00000300: cb5c 12be 7be7 b4bc 6b39 05be 0714 2c3d
00000310: b7f6 4abd a70e c53d 8768 46bd d54d ecbd
00000320: b2e2 07be e5bc 12be c1ce 2bbe 64b6 29bc
00000330: d036 263b 4163 d13d 8435 30be 77e0 dabc
00000340: 7435 4d3d 0cd8 e13d fc38 81bd 2207 3cbe
00000350: c6d8 423e 832a fabd 7945 413d 22d0 86bd
00000360: 691b 0b3d eed3 aa3c 3164 343e a476 e13d
00000370: ead9 5ebd ffa6 8ebb d0d0 10be 7c8d 07be
00000380: cef3 a6bd e59d d0bd ec90 8fbd 5da4 08be
00000390: 8e64 2bbe 7aa8 913d 5a24 fc3d fc45 0ebe
000003a0: c702 e23d 0373 19be 278f f4bd 4941 343d
000003b0: 7553 c33d 2638 3fbe e507 ac3d 3e35 25be
000003c0: 044a c0bc acde 333c 3724 afbd c52b 0abe
000003d0: 38d3 fc3d 2b5f d6bd ee3b 33be 7613 023e
000003e0: 1109 283e a1ed 18be 4e26 1cbe 3efa 0bbe
000003f0: 21c7 fcbc ba9c 1d3e 7329 01be 9e39 4c3e
-0.0074622896 0.07443585 0.12876715 -0.046920627 -0.0011718466 0.05993421 0.092426226 0.065585315
0.1516057 0.141481 0.003915802 0.014546434 0.12653813 0.08906322 -0.1022401 -0.01628822
0.03249878 -0.18293017 0.0977061 -0.04743477 0.14525494 -0.1234426 0.07507927 -0.15974349
0.17306614 0.17001297 -0.16019307 -0.15088092 -0.07718024 0.00459283 0.14233105 0.014212644
0.06569359 -0.05695455 0.15251608 -0.07802208 -0.12410577 -0.05743919 0.18072556 -0.038112465
0.037673563 0.110720046 0.10068813 -0.030668806 -0.046216737 0.011019689 -0.061389092 0.04324401
0.11896924 0.0072183465 -0.15807292 -0.14229172 -0.071228296 0.14269693 -0.036163256 0.1447977
-0.003984286 0.17829673 -0.14742008 0.04099856 -0.07249374 0.10759774 -0.026314855 -0.10792031
0.19733289 -0.0035384377 -0.02286611 -0.107716724 0.16368645 0.04340622 0.06793048 0.14099517
0.043929394 0.036139213 -0.003714448 0.06389939 -0.023807922 0.04927542 -0.15585884 -0.06915146
0.15616898 0.041955825 0.16863842 0.10146177 -0.17698605 -0.12192756 0.04770482 0.025235478
0.15064104 -0.12219767 -0.05224572 -0.08435109 -0.100700326 -0.12930788 0.16649473 -0.10203025
0.16852394 0.11808178 0.10938442 -0.0077563054 -0.022788338 0.09573324 -0.10330302 -0.093905
0.06831905 0.100048676 -0.020741716 0.107354514 0.10504606 -0.08976682 0.026173314 -0.17760792
0.07020005 -0.011749397 0.07384378 -0.066125125 0.17063977 0.07884019 0.11330982 -0.07636631
0.10067852 0.0060177124 0.016512088 0.13185547 0.16304377 0.12940176 -0.06132585 -0.07752701
-0.17001384 -0.07530125 -0.09477745 0.026526935 0.14860232 0.04965883 0.00818816 0.057805702
0.18783888 0.12450412 0.00087286276 0.13620992 0.08174965 0.07805721 0.030018108 0.027614255
0.15334456 0.028584857 0.02742547 -0.08889876 0.08722375 -0.028651837 -0.1051438 -0.14601927
0.08508848 0.098868564 0.05771481 0.07055339 0.19902655 0.004174328 0.10725861 0.057934735
-0.089265086 0.021394297 -0.09319651 0.10257964 -0.0032107953 0.13228166 0.020641005 -0.1676481
-0.092655204 -0.08782692 -0.14838365 0.03787289 -0.16618055 0.031149758 -0.10759249 0.014273736
0.08379758 0.06861099 0.0593367 0.11942957 0.027126148 0.020248283 0.107301064 0.023668116
0.10407219 -0.07869155 0.16264208 -0.014111083 -0.06301527 0.120897494 0.068922944 0.014973195
-0.1429321 -0.022083035 -0.13010184 0.042011287 -0.04955169 0.09621935 -0.04843953 -0.11538283
-0.13270071 -0.1432987 -0.16778089 -0.010358427 0.002536226 0.10224009 -0.17207915 -0.026718361
0.050099805 0.11027536 -0.06309697 -0.18362096 0.19028005 -0.1221514 0.047185395 -0.06582667
0.033961687 0.02085301 0.17616345 0.11008957 -0.054407038 -0.0043534036 -0.14142156 -0.13237566
-0.08151971 -0.10186366 -0.070100635 -0.1334395 -0.16737577 0.071122125 0.12311621 -0.13893884
0.11035686 -0.1498528 -0.11941367 0.044007573 0.095374025 -0.18673763 0.08399943 -0.16133592
-0.023472793 0.010978382 -0.08551829 -0.13493259 0.12344974 -0.104673706 -0.1750333 0.12702736
0.16409709 -0.14934398 -0.15248987 -0.13669679 -0.03085667 0.15391818 -0.12613468 0.19943854

lstm.weight_hh_l0_reverse f4 [172, 43]
00000000: f65e 0c3e dec1 323e 2bd0 02bd 4772 3bbe
00000010: 9c1e 143e cbf7 023d 4fc4 623d ed7b b83d
00000020: b675 2abe ca24 493e a615 afbc 4176 fe3d
00000030: 82f3 c1bd 6f21 023e d9af 0e3e 23b9 2c3e
00000040: 88f6 dabc c9f2 143d 42ea dd3c 1a87 32be
00000050: b3ad fe3d 6aee 8cbd bdf2 f83d ab12 8e3d
00000060: 9293 9dbd 1797 b5bd 362f 7cbd cc74 18be
00000070: 1ddb 0cbd 713c 93bd a515 773d fbae 053e
00000080: ab71 dabd 89b0 17be cc2a cf3d 3ac7 f53c
00000090: 331e 27bc a22a 343d 41f1 74bd 6c5c 073e
000000a0: 6560 633d 4c10 e33d 66a4 bfbd 94ba cc3d
000000b0: 00e9 113d 6deb 863d 3fa0 f2bd 3b1c 23bd
000000c0: 0fd7 12bd 2a04 0c3e 1a0b eabd f5b5 7b3d
000000d0: 0767 f4bd 80fa ea3d 1ff6 5b3d 8466 033e
000000e0: bf5d 18bc dd45 bdbd 43d1 c23d ebb3 17be
000000f0: 376a 0b3b 6f86 e3bd 38a0 293e 28dd 153e
00000100: 9f78 8e3d 9fb8 09be bfea ac3d e176 133e
00000110: 0e06 bdbc d3e6 fc3d d0a8 cb3d c495 0bbd
00000120: 7086 ccbd 181f 203e 39a9 15be e1c4 943d
00000130: f4b3 bd3d c9cc c33c c709 01be 6e0c cebc
00000140: 9588 f7bd dbc6 56bd 6924 f63c d887 b3bd
00000150: 7c0d d13d 550f 183e a987 123e 8480 e03d
00000160: 42b0 233e cd65 c03d 2584 d9bd 83e0 2a3d
00000170: 4ad4 8d3d 4b49 833d cea8 1ebd 85ec e73d
00000180: 86c0 223e 2730 09be 54ce af3d ba87 dfbd
00000190: e1fb 1c3d bbc9 92bd aeec 243e 0d9d 893d
000001a0: 742e afbc db18 bdbd 821e d43d c4ff fcbd
000001b0: 00fb 1ebd 3c9f 063e 3578 d43d 03a5 1dbc
000001c0: 4f65 9bbd 0be0 8c3a db76 c6bd b9f7 03be
000001d0: e701 453e abcb 03be 6e76 febd 96d7 aabd
000001e0: e885 6f3d b9e7 e73a 182a 1fbe 68ec dabd
000001f0: 14f4 e4bd 55d7 8c3c 0ee8 5cbd 77af 2c3d
00000200: d7a6 cd3d 5357 0a3d fc20 8dbc 86ad 11bd
00000210: 247b 0e3d 9222 d33d edec 913d f85d cfbd
00000220: 382f 9fbd 6357 2f3d cec1 453e d702 e63d
00000230: 72c1 0c3d e1ed 2c3e 4057 ff3d e52f ae3d
00000240: 4cc4 14be c861 4dbb 06a8 5c3d 1a8b e13d
00000250: 9e70 143d 02ed 883d d269 793d 8081 41be
00000260: 86f8 143d 8577 b23d eb55 313e 8825 15be
00000270: 8195 f43d e759 8a3b 52e2 353e 25db 03be
00000280: 2da0 d6bc 1dd8 b3bc c7d2 0ebe 9e80 f33d
00000290: 5360 94bd 601c b73d b2db 0d3e 422e b9bd
000002a0: 1ae4 ca3d 96ae 41bd 5d65 043e 76f4 1c3d
000002b0: db0c a63d e883 dd3c 5b12 a7bd fc7f 8dbd
000002c0: 0131 903c 5d73 ae3d d777 ccbb 522f dd3c
000002d0: 2c5b 11be b035 1d3c ca1e 703d 7332 d5bd
000002e0: 2965 7abd be9b 67bc 29a7 8bbd 1dc4 82bc
000002f0: b4c3 a13d 6cc6 093e e675 953c 0a10 2d3d
00000300: 3559 22be a602 9dbd bc8c cc3d 4a41 29be
00000310: c774 c2bd 1862 56bd e7a4 323e 392e 033e
00000320: 6682 8e3d 3afd a13c a7b9 103d 36f4 df3d
00000330: 0aa1 083e 714c 9f3d 6953 bfbd ec3e c23d
00000340: ee08 253e dae8 24be 0c06 333b 640e 5abd
00000350: 8d4f 98bd 38c2 79bd 49f7 6dbc 58b2 183e
00000360: 61f0 5a3c 2a53 16be 9937 173e 6f97 1d3e
00000370: 3d52 1fbe 285a e63d ac73 9fbc 8681 b8bd
00000380: f6f2 e6bc 5743 a93c f5bf a43d d5cf f63d
00000390: 9059 f7bd 5521 343c 2cc4 1b3e b84a a3bd
000003a0: ba31 2a3d 8b8c 21be 5e84 2bbe 3d09 01be
000003b0: bc0f 073d 3d4b 8abd 95fb 5dbb 1e8f ff3d
000003c0: 80aa cd3d 1d8e 07bd cfb6 4c3d 4cc8 fbbd
000003d0: 4a84 b03d be9c adbd c0ce 233d 0f12 003e
000003e0: ccfa 13be 520e c43c d961 a2bd 079c 0bbe
000003f0: 371f 753d 9119 f63c 2ae8 443d e897 ba3d
0.137081 0.17456767 -0.031936806 -0.18305312 0.14464802 0.031974595 0.055362996 0.09008012
-0.16646466 0.1964294 -0.021372627 0.12424899 -0.094702736 0.12708066 0.13934268 0.16867499
-0.026728883 0.03636435 0.027089242 -0.1743435 0.12435474 -0.068814114 0.12155674 0.069371544
-0.076941624 -0.08866709 -0.06156846 -0.14888304 -0.03438865 -0.07189263 0.060323376 0.13055031
-0.10666212 -0.14813437 0.10115585 0.030002225 -0.010200071 0.04398597 -0.05980039 0.1321885
0.05551185 0.11087093 -0.093575284 0.099965245 0.035622597 0.06587873 -0.11846971 -0.039821845
-0.035849627 0.13673463 -0.11427899 0.061452825 -0.119337134 0.1147356 0.053701516 0.12832075
-0.009299695 -0.09241841 0.0951257 -0.14814727 0.0021273026 -0.111096255 0.16565025 0.14635146
0.069566004 -0.13449334 0.08443212 0.14400817 -0.023074176 0.12348714 0.09944308 -0.034078375
-0.099865794 0.15636861 -0.14615335 0.07264114 0.09262839 0.02390136 -0.12601386 -0.025152411
-0.12086598 -0.052435737 0.030046659 -0.087661445 0.1020765 0.14849599 0.14309563 0.109620124
0.15985206 0.09394417 -0.10620908 0.041718017 0.069252566 0.06410464 -0.038735203 0.113244094
0.15893754 -0.13397275 0.08584276 -0.1091456 0.038326148 -0.07167383 0.16105911 0.06719408
-0.021384455 -0.092332564 0.103573814 -0.12353471 -0.03881359 0.1314668 0.1037449 -0.009621861
-0.075876825 0.0010747922 -0.09690639 -0.12887467 0.19239007 -0.12870662 -0.124249324 -0.08341901
0.058477312 0.001769296 -0.15543401 -0.10689622 -0.11179367 0.017192522 -0.053932242 0.042159524
0.10041588 0.033774685 -0.017227642 -0.035565875 0.034785405 0.10309328 0.07125268 -0.10125345
-0.07772678 0.042807948 0.19312212 0.112310104 0.03436417 0.16887619 0.124678135 0.08505229
-0.14528006 -0.00313388 0.053871177 0.1101286 0.036240213 0.06685831 0.060891934 -0.18897057
0.036369823 0.08714203 0.17317931 -0.14565098 0.11942578 0.004222143 0.17762116 -0.12876566
-0.026199425 -0.021953637 -0.13947593 0.11889766 -0.07244935 0.08940959 0.13853338 -0.09042026
0.09906788 -0.04728564 0.12929292 0.038319074 0.08107921 0.027040437 -0.08157798 -0.06909177
0.017601492 0.085180975 -0.006239872 0.027000103 -0.14194936 0.00959532 0.058623113 -0.10410013
-0.06113163 -0.014136253 -0.06818993 -0.015962655 0.078986555 0.13454598 0.018244695 0.042251624
-0.15854342 -0.07666521 0.099877805 -0.16528812 -0.0949493 -0.052339643 0.17445718 0.12810601
0.06958465 0.019774068 0.035333302 0.109352514 0.13342682 0.07778252 -0.09342081 0.09484658
0.16116688 -0.16104451 0.0027316837 -0.05323638 -0.07437048 -0.060976237 -0.014524289 0.14911783
0.013362975 -0.14680162 0.14767303 0.15389799 -0.15558715 0.11247665 -0.019464336 -0.0900908
-0.028192025 0.020661993 0.080444254 0.120513596 -0.120776296 0.010994275 0.15211552 -0.07973236
0.04155133 -0.15776269 -0.16749713 -0.1260118 0.03297399 -0.06752632 -0.0033871878 0.12478469
0.10042286 -0.033094514 0.049979027 -0.12294063 0.08618982 -0.08477162 0.039992094 0.12506889
-0.1445114 0.02393261 -0.07928819 -0.13633738 0.059844222 0.030041488 0.04807297 0.09111005

lstm.bias_ih_l0_reverse f4 [172]
00000000: 23f8 a13d 0f83 0cbe 452a d5ba 5cbd 6cbd
00000010: 4585 553b ebfa 123e 45d0 a1bd 5947 01be
00000020: 5bd9 cabd c657 d93c 8380 27bc 738e 40bd
00000030: dc58 2d3d 3cf1 813d d2b1 93bd af1c 9abd
00000040: 19b9 b53b e76d 653d 0d92 b83d 794e df3d
00000050: 31fc bdbb f9d3 fcbc 2022 a03b 9cd5 6e3d
00000060: ee99 bd3d 70e5 fc3d e83e d7bd 168d a83d
00000070: fc6b 8f3d e12d 49bd 4528 07bd a108 15bd
00000080: 55a9 213e 85a1 a73d cb78 87bd ce10 34bd
00000090: 2205 e8bc 76d0 a83a e1e0 0c3e 2fc2 a73c
000000a0: ea2d 2c3d 1c4f 00be 35cc c33d c30e 1abe
000000b0: 9039 0abe f662 90bc 57f8 3ebc ec63 8a3d
000000c0: 28ff 61bd c747 363d 293f d53d 0665 893d
000000d0: 4e30 da3d e464 993d ac3c febd d70b 0b3e
000000e0: c8e5 5abd 90a2 0c3e 82c7 033e e70b 473d
000000f0: c5a7 b63c d967 da3d ab2f b23c 544a 833c
00000100: f202 aa3d 2ff3 9cbd 70fa abbd 90b5 0a3e
00000110: 4166 0cbe d3bd afbd 6948 dcbd 0d46 d33c
00000120: 5bac 13be 3a0e 873d 4ccd d23d 23c1 e03d
00000130: 8b90 bebb bf4b b13d 75cd 0fbe c6c8 f33d
00000140: 39d8 d4bd 1c81 8f3d f212 0bbe a82d 0b3e
00000150: 88bf d8bd 7097 14be 2439 abbd e88f 9b3d
00000160: 76b0 0dbe 5fcd 45bd 71a9 b03d 4ef0 053e
00000170: 4102 12be 4a38 ffbc fb96 42bc 916f b03d
00000180: b9b1 713d 02eb a33d 8a45 f0bd 8688 1c3e
00000190: 52bb 0a3e 753c 003e 1cb2 57bb fb13 b3bd
000001a0: fb97 02be 3ce3 d7bc b326 d83d 31bc d1bd
000001b0: b846 a0bc 146b 173c d0ec 663c ddbf 513d
000001c0: e2fc 9ebd 5ac6 0fbd ab99 883d c762 d6bd
000001d0: 4409 413d 67a2 d5bc 28b5 aabc 3751 093e
000001e0: b9b0 3cbc e7a5 58bd 07e0 19bd beb4 8b3d
000001f0: 80b9 b33d ba09 dfbd 015f 213e 0a69 9dbd
00000200: b3b7 afbd 8f82 f13d 0825 52bc bfe6 eb39
00000210: 15ab 893d 23af 06be 827a e73d 1f2c a13b
00000220: a75f 0abe 9b09 ac3d 9750 dbbd 4c55 f9bd
00000230: 333f 1a3d 28ea db3c 73ef 1d3d 7ce1 9d3d
00000240: 5858 dabc d451 e1bd 2724 cbbd b2a0 2d3d
00000250: a40a 9bbc 5d1f 1b3d 406b 0a3e 0556 0a3e
00000260: b6bf 7e3d 2101 b33d f1b9 e43d e42f 013e
00000270: 8d06 8e3d c31b 0bbe 016b 2dbd dd5c bbbc
00000280: 4873 953c f497 d7bd 5c1f 6abd 0cd9 dc3d
00000290: 8f3f 57bc f2e3 91bd 9fbd 243d c524 f6bd
000002a0: b7b0 ba3d 7177 b83d 28bb ee3d b6be 0fbe
0.079086564 -0.1372187 -0.0016263208 -0.057797775 0.0032580656 0.1435353 -0.079010524 -0.12624873
-0.099047385 0.026531111 -0.010223511 -0.04701085 0.04232107 0.0634484 -0.07211651 -0.07525002
0.005545747 0.056013014 0.09012232 0.10903639 -0.005797886 -0.030862795 0.0048868805 0.058309183
0.092578754 0.12348449 -0.10510045 0.08230035 0.07003018 -0.04911602 -0.03299739 -0.036385182
0.15787251 0.08185104 -0.06614836 -0.04396134 -0.02832276 0.0012879509 0.1375766 0.020478336
0.042035975 -0.12530178 0.09560434 -0.15044694 -0.13498521 -0.017625313 -0.0116558885 0.0675734
-0.055174977 0.044502046 0.104124375 0.06708722 0.10653745 0.074899465 -0.12413916 0.13578735
-0.053441793 0.13733888 0.12869075 0.048595335 0.022296796 0.106643386 0.021751245 0.016026653
0.08301343 -0.07663571 -0.083973765 0.13545823 -0.13710882 -0.08581128 -0.10755999 0.025790239
-0.14421217 0.065945104 0.102930635 0.10974338 -0.0058155707 0.086570255 -0.1404322 0.11903529
-0.10392804 0.070070475 -0.13581446 0.13591635 -0.10583407 -0.14510894 -0.08360508 0.07595807
-0.13836846 -0.04829156 0.086260684 0.1307995 -0.14258672 -0.03115477 -0.011876817 0.086150296
0.05900738 0.080038086 -0.117320135 0.15286455 0.1354802 0.12523063 -0.0032912558 -0.08744045
-0.12753288 -0.026353471 0.10554256 -0.10240973 -0.019564971 0.009241838 0.014094546 0.051208366
-0.07763077 -0.035101272 0.06669935 -0.10468059 0.047127977 -0.026078416 -0.020838335 0.13409887
-0.011516743 -0.05289259 -0.037567165 0.06821583 0.08775616 -0.10890527 0.15758897 -0.0768605
-0.0857996 0.1179248 -0.012826212 0.00044994612 0.067220844 -0.13152747 0.113026634 0.0049185897
-0.13513051 0.084002696 -0.10708731 -0.12174472 0.037657928 0.026845053 0.038558435 0.07709023
-0.026653454 -0.110019356 -0.09919005 0.04238958 -0.018925972 0.037871707 0.13517475 0.13509376
0.06219455 0.0874045 0.11168278 0.12615925 0.06934843 -0.13584809 -0.042338375 -0.02287143
0.018243447 -0.1052703 -0.057158813 0.10783586 -0.013137712 -0.07123555 0.0402199 -0.12018732
0.09115737 0.09007157 0.11656791 -0.14037594

lstm.bias_hh_l0_reverse f4 [172]
00000000: 92e9 493b 89e6 e0bd 5432 d8bc d41f c43c
00000010: cb02 11be 270f 24bd c02c 433d bc4e 61bd
00000020: 7c7a 1e3a 8401 dfbd 4200 9a3d abe4 ddbd
00000030: 4606 3dbd bcd0 ecbd 34dc 5dbc 115e 293d
00000040: a3f4 1cbe 1475 fb3d cd9c 6cbc c4e5 e83c
00000050: bdce 193e 8ea3 f03d ea0b aebd 0a4b 07be
00000060: 1f4b 0d3e 1f5a 863b 8ce3 133e d8d7 77bc
00000070: ae99 ad3b 9664 2d3b c3c4 283d eb2f 6bbd
00000080: 3304 553d 867c 95bd 15b8 b0bc e89f 06be
00000090: 9784 10be b297 edbd 84b0 67bd a2ad db3c
000000a0: 79d9 e4bd 4722 f63c b45b 0c3e b041 f5bd
000000b0: 7a7c d0bb 2789 083e f12c 103e 29e3 123d
000000c0: 6064 3cbc d70f a8bd c9ec 21be 9aac 71bd
000000d0: 75a0 963d 264d b73d f5a8 d33d b81f 943d
000000e0: b8e1 893d a8f2 be3d a8f7 0e3e e057 9abd
000000f0: 3ef0 a43d 4009 e13c 7fd7 a9bd 7d0d d9bd
00000100: 2430 02bd ac49 133e d833 eabd 9bd9 84bc
00000110: 5c4f b93d 63a9 8fbd 8537 cf3c 5ad9 89bc
00000120: 1e1d 9f3d 3799 99bd 5a0d a03d 0699 bcbd
00000130: 8078 c9bd d30f 74bd 5fd0 b9bd aa37 9c3a
00000140: 7eaa 0d3e 6275 f1bd 5c3e 2fbd afed 953c
00000150: b2ae 9e3d 2508 fe3d 8bd9 c5bd 9bfd c53d
00000160: 6247 9abd 8538 623d dbb8 41bd ab89 f23c
00000170: 1075 633a d5fc 553d 9e71 16bd fda8 4abd
00000180: ed55 923d ce99 2a3d 689b e83d c559 ebbd
00000190: 422f 7a3d ec34 9f3d 5c6d 91ba 106a 2fbc
000001a0: 50a7 173e c138 023d 8bbc 2a3d df4f c73c
000001b0: 1a81 4ebd cfcd 223d 0f77 efbc cb2b c0bc
000001c0: c377 a2bd faa8 06be d588 18bd def5 923d
000001d0: 5285 55bd 0cd7 b2bd b734 103a adb0 e8bd
000001e0: b990 973d d17e b13d 5bee 053e b505 ad3a
000001f0: 9347 4ebd daef 123e 15a7 febd ec5d 523d
00000200: 5764 16bb f575 ea3c 1714 243b 8285 e4bd
00000210: 25fa fdbd 4330 88bc 0787 93bd d2b7 fdbd
00000220: 75b8 d6bc 6b12 ab3d f5f4 2bbd 5013 03be
00000230: 2ae7 1a3e 34cc 90bd 8783 60bd 09d6 00be
00000240: aa0b b43d f731 1cbe cdee 883b bfde cbbd
00000250: 5113 6abd 7d7e cfbb 99ef edbd 649f 09be
00000260: 1fb8 e13c 34fc 103d 415e e33d 3a4c 733d
00000270: 8a70 03be 6984 3b3c 31c1 64bd b581 8d3c
00000280: 5181 d63d 3a35 0f3e 7557 edbd 1bb7 ccbc
00000290: 6224 b4bd eccb 973d a20f cbbd 53c9 a13d
000002a0: 575b 00be d665 98bd 8495 f03d 5b5a 6a3d
0.0030809385 -0.10981471 -0.026391186 0.023940958 -0.14161222 -0.040053513 0.0476501 -0.055006728
0.0006045473 -0.10888961 0.075195804 -0.108346306 -0.04614856 -0.115632504 -0.01354127 0.041349474
-0.15327697 0.1227819 -0.014441681 0.028429873 0.1502027 0.117499456 -0.08498366 -0.13212219
0.13798188 0.0041000987 0.14442271 -0.015127145 0.005297861 0.002645766 0.04120327 -0.057418745
0.052005958 -0.072991416 -0.021572152 -0.13146937 -0.14113079 -0.11601199 -0.056564823 0.026816193
-0.11174292 0.030045642 0.13706857 -0.119754195 -0.006362495 0.1333357 0.14079644 0.035861168
-0.011498541 -0.08206146 -0.15812983 -0.059002496 0.073548235 0.08950262 0.1033496 0.07232612
0.067325056 0.09323627 0.13961661 -0.07536292 0.08053635 0.027470231 -0.08293056 -0.10598276
-0.03178419 0.14383572 -0.1143567 -0.016217044 0.0904834 -0.0701473 0.025295028 -0.016827274
0.077692255 -0.074999265 0.078150466 -0.092088744 -0.09837437 -0.059585404 -0.09072947 0.0011918445
0.13834569 -0.11789967 -0.04278408 0.018301813 0.07748164 0.12403897 -0.09660634 0.09667512
-0.075331464 0.055229682 -0.047295433 0.02960666 0.00086768065 0.052243073 -0.036729448 -0.049477566
0.07145295 0.041650586 0.113577664 -0.114917316 0.061080225 0.07773766 -0.0011095214 -0.01070644
0.14809918 0.031792406 0.041683715 0.024330078 -0.05041609 0.039747056 -0.029231576 -0.023458382
-0.07932999 -0.13150397 -0.03723987 0.07175802 -0.052129097 -0.08732423 0.0005501019 -0.11361823
0.074006505 0.086667664 0.13079207 0.0013200553 -0.050361227 0.14349309 -0.12434212 0.051359102
-0.002294799 0.0286207 0.0025036389 -0.11158277 -0.12401227 -0.016624575 -0.07203489 -0.123885766
-0.026211003 0.08353122 -0.041981656 -0.12800336 0.15127245 -0.07070199 -0.054812934 -0.12581648
0.08791287 -0.15253435 0.004178858 -0.09954595 -0.057147328 -0.0063322173 -0.11617965 -0.13439709
0.027553616 0.03539677 0.11101962 0.059398867 -0.12835899 0.011445143 -0.055848304 0.017273763
0.10473884 0.13985148 -0.11588947 -0.024989655 -0.08796002 0.07411942 -0.09915091 0.07899728
-0.12534843 -0.07441299 0.11747268 0.057215076

lstm.weight_ih_l1 f4 [172, 86]
00000000: 4a2e d8bd d45c b7bd d51d d63d 5bb6 093d
00000010: 5e78 d8bc 77f9 bf3d 515c 7bbd aea4 b3bd
00000020: 528e 37bd 28a5 1dbe 6e1b b9bc 5722 b3bd
00000030: 86cc 9f3d d16f 463d 7eca 923c 811c 86bd
00000040: e81f dfbc 1d4e b63c f17f 013e ec76 f53d
00000050: a724 003c 0d17 8ebd 39a8 fcbd 208f f4bd
00000060: 58c2 d6bd 34a0 40bc 68d6 883d 9962 003d
00000070: 1d4d f33d 0863 0f3e ca9a f7bd 9bc6 373d
00000080: f04c ddbd e802 9f3d 8ced f33d 1f90 38bd
00000090: 4f89 e0bd 7682 af3d 1a3f ec3d a136 e53d
000000a0: 63f2 04be 8e1d 91bd 1a85 e93d 663b 9c39
000000b0: c591 733d 58f5 053d 8137 80bd d81d bf3d
000000c0: d619 193e 6399 bf3d 6d04 58bd 2505 d7bd
000000d0: 68e5 063e cd60 fcbd 10a6 063b 1c60 a43d
000000e0: 359a b33d ff1a bebd efa3 30be 3979 293e
000000f0: 2390 b8bb 141e 9d3d 55d1 8d3c 5eed 013e
00000100: f489 9cbd 1938 8bbd 346f c83c 8354 113d
00000110: 813d ddbd e028 c6bd 3182 a3bd 5a8d 1fbe
00000120: 9e44 fd3d 96ad 45bd bb85 9b3c 90af ecbc
00000130: e6ce 48bd 0388 fa3d 8bf6 5abd 0369 21be
00000140: 357e f93d b4bd 0e3e 16cb b03c f1d4 173e
00000150: 4723 c1bc e83b 503d c4d2 01be 0f05 1f3d
00000160: 1604 d53d ed65 07be 6354 dd3c f687 3c3e
00000170: 9bb9 c0bd a5c6 173e 0376 82bc 8922 c8bd
00000180: 36bc 54bc 5e39 143b 0469 94bd 9f18 e83a
00000190: 1d78 573d 7f70 36bd 081e edbd b57a 1abd
000001a0: 0e1b 853b c679 e3bd ede1 2f3e 0abd a5bc
000001b0: 45cf ebbd fcab 983d 3c71 a9bd 6672 9bbd
000001c0: 6e5a 8d3d 3306 453d 9a23 babd 7709 b8bd
000001d0: 1a9d 983d e397 2f3d 34fb 20be ed9d 1b3d
000001e0: 174d 74bd e98a ca3d 328a 423d 9c8b 8fbc
000001f0: d28d 853d f518 1cbd 0c06 b33d e12e 98b9
00000200: f775 a7bd 11ba eb3b c0ce 2fbe da8a abbd
00000210: 8c3a a2bd 5c62 08bd 184e 1a3e 541c d53d
00000220: 077b b9bd 410a 32bd cd5f 783c 8e61 11bd
00000230: a78b 5fbd b0a6 a23d 071f c4bc e447 aabd
00000240: c27d 0fbe d23c 0dbd 6370 be3d 8c87 753d
00000250: dbff ebbd 7219 d63d 3f86 3f3d 9bbf 6f3d
00000260: 976e f7bc e009 30bd 5f11 a8bd c1da e73d
00000270: f2e5 d13d 5c7d d7bd 4fa1 d3bc 92b7 ddbd
00000280: 76fb 693b f64e b0bd b8b8 833d 9b3b 3a3e
00000290: 9b92 3b3d e618 9fbd 6878 f33d bf70 56bd
000002a0: dea6 c63d bb68 10be a8af 2dbe 4633 99bd
000002b0: aa18 0fbe 7c64 2239 f714 3abd a6c6 ce3d
000002c0: 2a7e 0ebe 0d5b 743d e32c 9fbd 4389 20bd
000002d0: a1d6 09be f274 d03d d3b5 4f3d 4110 c03d
000002e0: 32c8 b83d 7588 373c 3e3e 173e 3554 553d
000002f0: 8152 473c b9ac 7bbd 872c 873d 0bc9 c7bd
00000300: 631a 21bd b15d 59bd 3644 cebd a082 eabb
00000310: 6045 0fbe 57cf 40bd f80f 043e 1721 a13d
00000320: 3969 283d 3a0a 2c3d a605 7ebd 68f8 06bd
00000330: 2e82 013e 7fcc d8bd b393 f3bc 252f 073d
00000340: 26bb fbbd 579f 12be 13ab 9bbd 39ce c9bd
00000350: 45a7 033e 475a 9bbd 5dab 403d cbab babc
00000360: c9df da3d 5f61 e2bd 7bac 193d 359b f53c
00000370: 3c23 7e3d 6033 05be 0989 103e 7e4d 223e
00000380: 1ef6 0abe d1a6 97bd b5f3 70bd 0e43 ce3c
00000390: 516a 693d 5487 003d 195c debd b36e 1a3d
000003a0: 9c6b 2c3d 1939 83bc 16a1 bb3d 2d3d 563d
000003b0: 97b2 ddbd f48b d93c 2118 13be 65a4 3dbb
000003c0: 516b 01be 240c 083e a2cd c6bd ecb0 e3bd
000003d0: bb99 23be 3030 b7bc 0c2f 14bd 5ecf b6bd
000003e0: 004b d73d 658c 253e bc14 0fbc 4bdf 53bc
000003f0: a2da 91bc a672 073d d57f d13d 5b91 d3bd
-0.10555704 -0.089532524 0.10454909 0.033621173 -0.026424583 0.093737535 -0.061367337 -0.087716445
-0.04481346 -0.15395033 -0.022596087 -0.08746784 0.078026816 0.04844648 0.017918821 -0.065484054
-0.027236894 0.022254044 0.12646462 0.11985573 0.007821239 -0.0693799 -0.123367734 -0.119413614
-0.10486287 -0.011756945 0.0668152 0.03134403 0.118799426 0.14002621 -0.120900705 0.04486714
-0.1080569 0.07764226 0.11910543 -0.04505932 -0.109636895 0.08569805 0.11535473 0.1119206
-0.12983088 -0.07085715 0.1140234 0.00029798894 0.05946519 0.03270468 -0.062605865 0.09331864
0.14951262 0.09355428 -0.052738596 -0.10499028 0.13173449 -0.12323151 0.0020545758 0.08026144
0.08769647 -0.09282493 -0.17250036 0.16550149 -0.005632417 0.076717526 0.017311731 0.12688205
-0.076435 -0.06797809 0.024467088 0.035480987 -0.108027466 -0.09675765 -0.079838164 -0.15581265
0.12366603 -0.048261248 0.018984666 -0.028892308 -0.04902544 0.122329734 -0.053457778 -0.15762715
0.12182275 0.13939553 0.021581214 0.14827324 -0.023576392 0.05083838 -0.12678057 0.038823184
0.1040117 -0.13222475 0.027017778 0.1841124 -0.094104014 0.1482187 -0.015925413 -0.09772212
-0.012984326 0.0022617201 -0.07246593 0.0017707533 0.052604783 -0.04454088 -0.11577994 -0.03771468
0.004062063 -0.11107211 0.17176028 -0.020231742 -0.11514143 0.074546784 -0.08273551 -0.07590179
0.06902014 0.048101615 -0.09088822 -0.0898618 0.0745184 0.04286946 -0.15720826 0.037992407
-0.05964383 0.09889776 0.047495075 -0.017522626 0.06521191 -0.03810974 0.08741388 -0.00029026627
-0.08176797 0.0071938117 -0.17168713 -0.08376093 -0.07921323 -0.033296928 0.15068853 0.10405794
-0.09056669 -0.04346681 0.015159559 -0.035493426 -0.054576542 0.07941949 -0.023940576 -0.08314493
-0.14012817 -0.03448183 0.0929878 0.05994372 -0.1152341 0.10454072 0.046758886 0.05853234
-0.0302041 -0.042978168 -0.08206438 0.11321021 0.10248937 -0.10521957 -0.025833754 -0.10826029
0.003570286 -0.086088106 0.06431717 0.181868 0.04579411 -0.07768421 0.118882 -0.052353617
0.09699796 -0.14102452 -0.16961539 -0.07480483 -0.13974252 0.00015486957 -0.04543015 0.10096483
-0.13915315 0.059657145 -0.07772233 -0.039193403 -0.1346078 0.101785555 0.05071051 0.093781
0.09022559 0.0112019675 0.14769837 0.05208226 0.012165667 -0.061444018 0.0660029 -0.09755143
-0.039331805 -0.053067867 -0.10071604 -0.007156685 -0.13991308 -0.047072735 0.12896717 0.078676395
0.041115973 0.04200194 -0.062017106 -0.032951742 0.12647316 -0.105858795 -0.029733514 0.033003945
-0.12291555 -0.14318596 -0.07600989 -0.09853787 0.12856777 -0.075855784 0.047038425 -0.022786995
0.10687215 -0.11053728 0.037518006 0.029981235 0.06204532 -0.1300788 0.14114775 0.15849873
-0.13570449 -0.074048646 -0.058826167 0.025178459 0.056986157 0.03137906 -0.1085741 0.037703227
0.04209481 -0.016018437 0.09161584 0.052304436 -0.10825079 0.026555993 -0.14364673 -0.0028937098
-0.12638594 0.13285881 -0.0970719 -0.111177295 -0.15976612 -0.022361845 -0.03617768 -0.08926271
0.10512352 0.16166838 -0.008732971 -0.012931655 -0.017804448 0.03306832 0.1022946 -0.10330459
