model_config/best_pretrain_gas_0.8_lstm.pt (torch, 436057 bytes, 25 tensors)

lstm.weight_ih_l0 f4 [172, 6]
00000000: cf41 c23d 5b63 c73d f98f 0cbe da4b a6bd
00000010: 5098 41bd 765f 40bd 6e65 1ebe d856 213e
00000020: be2e ff3d 42b4 0f3e 5ca5 43be 202a d3bd
00000030: bd5c 403d c867 e13d 75cb 983c 9cd2 f3bd
00000040: 1c8d ca3d 9ba2 17be 9497 183e b837 04be
00000050: 53d1 803c 3eea b3bd 9ef5 5abb 9341 cdbc
00000060: 08af e0bc b712 31be 19ed b93c c4a6 2f3d
00000070: a7ea 39bd 5923 2c3e 1f81 a4bd 9214 733e
00000080: 739e 193e 2650 0a3e 248a 323d f938 d2bd
00000090: 95c4 293d 0d23 e0bd 61cb e23d b05e 25be
000000a0: 43c6 df3d 3e14 333e 66d3 54be 8419 bfbd
000000b0: 38ea 49bd 2548 7cbd ff57 4cbe fbf9 0bbe
000000c0: 1a6f de3c 65c8 df3d f584 c63d 3b3d f03d
000000d0: 7556 7dbd 5dba ecbd f792 343e 1617 07be
000000e0: 99bc 353d 9c24 c13d 13cd 2d3e d2bd cabd
000000f0: c66d 2e3c fe8d 043e ad8f 143e c4cd babd
00000100: c099 e9bc 4446 fc3d d8ba bbbd 764c 933d
00000110: 3a2b 123d 4452 e7bd 0faf 953c 688c b93b
00000120: 1d8d 3f3d c0b3 81bd f181 363e 6ad2 c2bd
00000130: d29a 103e b4fe 413e f3ca 0b3c 6632 39be
00000140: 5f97 c43d 425a 9f3d 0417 ca3d 503c 7d3e
00000150: 26bd 1a3e 3709 893c 0b48 fdbd fceb 4f3e
00000160: 58d6 17be df58 393d c253 4e3e 71f9 e7bd
00000170: 6010 8c3b c288 663d da59 98be 0f51 b0bc
00000180: 3db5 00be 92a1 65be 1e08 143e d656 8d3c
00000190: 7a29 453e 62bc a03d 6da2 473c 4354 cd3c
000001a0: b423 1c3e 4d31 a2bd 75f9 c9bd a96c 4d3e
000001b0: 5107 e33d 4531 f7bd 211b 4b3d a060 3a3b
000001c0: 5a14 78bc 76a5 54bd 9b7b 98bd 5047 98be
000001d0: a56b 1a3e 0d7d d7bd c878 06be 0774 30bd
000001e0: 8f4f acbc 5b0d c13d 90b0 10bd f848 413e
000001f0: ea88 7f3d 0177 7c3c adad 8d3d 2406 3b3d
00000200: 58d7 19be b853 af3a 5f96 713c 84c4 193e
00000210: f271 823d 4b3e 00be 041c 4e3e b15c 09be
00000220: df6b 96bc 96cf f73d 085c bb3d 480d a03d
00000230: 6f10 7d3d 731f 88bc a9ed 72bd 54aa 96bd
00000240: a3a9 08be a3ef 65be 61f3 c33b 26cb 4bbd
00000250: aecf 45be 1141 b63d 9708 d1bd d364 413e
00000260: 32bb 81bd 68ad 77bd c933 45ba 7a96 183e
00000270: f639 6f3c 9742 f6bd a46c 273b 7b20 443e
00000280: 62bb 01be fd0e 103e 35e7 68bc 3707 2dbe
00000290: 51e6 f0bd 187e 60be 4dfc 3abe 8b0b 26bc
000002a0: bd01 d0bd e7cb 06bd c2cd 963d 611a 913d
000002b0: 3848 1a3e 6699 723d 6929 2f3e 64e2 063e
000002c0: d122 ab3d fbb2 333e ed46 e83d e78a ea3d
000002d0: 043a 24be aa13 b53d 1636 20be b096 41be
000002e0: d242 873e 2573 a93d 559c bb3d 76a0 b03d
000002f0: 40bc 253c 8436 193e 4576 bebd 2738 87bd
00000300: 12de 9c3d 1e61 80be c61d 0cbd 3def 3d3c
00000310: 963e acbd 201c e13d 2c81 213d cb17 f1bd
00000320: a807 1ebe cf47 b43d c9e7 ffbd 1097 1fbe
00000330: 4a1b 5b3e 15fd 193e f90d 8e3d aa1d 28be
00000340: 4009 abbd 3d03 2e3c ec3a 123d d8e2 4abe
00000350: bbdc d5bb 899f b8bd 52ff 4a3d 17a6 67bc
00000360: 13fc 3c3c a288 ea3c bf33 293e 9deb 133e
00000370: 614c 123e afdc 22be 7540 283e 72fa 08be
00000380: 0504 8dbb 091f 40be d09b 4d3d 23eb 1abe
00000390: 3015 23be 62c6 6c3e cb05 ea3c c069 9ebd
000003a0: 7ae1 353e 976f 76be 86d9 3d3e 90fd 35bb
000003b0: d1a2 fa3c c28d 7f3d 1743 ed3c 34c1 843d
000003c0: 5f40 163d acf7 973d 784c 873c ea44 a53d
000003d0: de74 5bbd f6e8 f03d e658 303e c571 5f3e
000003e0: 7ef6 fe3d ee7a a13c fc59 fcbd 7f20 183e
000003f0: 71a2 d23d c2ca acbd 6e38 0fbe 6cef 28be
0.09485208 0.097357474 -0.13726796 -0.08119936 -0.047264397 -0.04696604 -0.1546838 0.15755785
0.12460087 0.14033607 -0.19106048 -0.10310769 0.046963442 0.11006123 0.018651703 -0.11905405
0.09890196 -0.14808123 0.14901572 -0.1291188 0.015724814 -0.087849125 -0.003341056 -0.025055682
-0.027427211 -0.17292295 0.022696065 0.04288365 -0.045389798 0.16810359 -0.080324404 0.23738316
0.1500185 0.13507137 0.043588772 -0.10264773 0.04144724 -0.109441854 0.11073948 -0.16149402
0.10926487 0.1748819 -0.20783767 -0.093310386 -0.049295634 -0.06159224 -0.19955443 -0.13669579
0.027152587 0.10926894 0.09693328 0.11730429 -0.06185003 -0.115589835 0.17634188 -0.131924
0.044369314 0.09430811 0.16972761 -0.098994866 0.010646289 0.1294479 0.14507933 -0.09121278
-0.028515697 0.123180896 -0.09166497 0.07192318 0.035685755 -0.11294988 0.018271951 0.0056624897
0.046765435 -0.06333113 0.17823006 -0.095127895 0.1412156 0.18944818 0.008532274 -0.18085632
0.09599184 0.07780887 0.09867671 0.24730039 0.15111217 0.016728027 -0.12367257 0.20304865
-0.1482786 0.04525077 0.20149139 -0.11326874 0.004274413 0.056282766 -0.2975605 -0.021523027
-0.12569137 -0.22424915 0.14456221 0.01725332 0.19254103 0.07848431 0.012184721 0.025064593
0.15247995 -0.0791956 -0.09862033 0.20060982 0.1108538 -0.12069944 0.04958642 0.002843894
-0.015141571 -0.05191561 -0.07445451 -0.29741907 0.15080126 -0.105218984 -0.13132012 -0.043079402
-0.02103403 0.094263755 -0.035324633 0.18875492 0.06238643 0.015409232 0.06917892 0.045660153
-0.15023553 0.001337639 0.014745324 0.15016371 0.063693896 -0.12523763 0.20127875 -0.13414265
-0.018361984 0.12100141 0.09148413 0.07815033 0.06178325 -0.016616559 -0.05930868 -0.07356706
-0.13345961 -0.22454695 0.0059799408 -0.049754284 -0.19317505 0.08899129 -0.102067165 0.18886118
-0.06334533 -0.060468107 -0.000752267 0.14901152 0.014601221 -0.1202442 0.0025546933 0.19153015
-0.12669137 0.14068218 -0.01421528 -0.16897283 -0.11762679 -0.21923101 -0.18260308 -0.010134588
-0.101565816 -0.0329093 0.07363464 0.070851095 0.15066612 0.059228323 0.1710564 0.13172299
0.0835625 0.17548744 0.11341653 0.11452275 -0.16037756 0.08841641 -0.15645632 -0.18905139
0.26418167 0.08273915 0.09160677 0.086243555 0.010115683 0.14962202 -0.09299902 -0.06602507
0.07659544 -0.25074095 -0.03420808 0.011592683 -0.08410375 0.109916925 0.03942983 -0.11772116
-0.15432608 0.08802759 -0.124953814 -0.1558497 0.21397129 0.1503795 0.06936259 -0.16417566
-0.08351374 0.010620889 0.035700724 -0.19813097 -0.0065265573 -0.09014804 0.0495599 -0.01413872
0.011534709 0.028629605 0.16523646 0.14445348 0.14286949 -0.15904497 0.16430838 -0.13376787
-0.0043034577 -0.18761839 0.050197423 -0.1512876 -0.15926051 0.23122552 0.028567215 -0.07735014
0.17761794 -0.24066006 0.1854001 -0.0027769543 0.030595215 0.06239105 0.028962655 0.06482163
0.036682483 0.074202865 0.016515955 0.08069785 -0.05357825 0.11763184 0.17221412 0.21820743
0.124493584 0.019711938 -0.12321851 0.14856146 0.102848895 -0.084371105 -0.1398637 -0.16497582

lstm.weight_hh_l0 f4 [172, 43]
00000000: 944e 2b3a d527 a1ba f67d 80bc 878c c63d
00000010: 1a2a 21be 0744 82bd 8bab 5b3e d09c d03d
00000020: 661f f7bd 61af 5bbe 47d0 10bd 4edf b53d
00000030: d6ca cf3d e997 143e 4fb0 b6bd 557e 19be
00000040: 3088 0dbd 85ff 263e 4cbd 083d 37b6 cc3d
00000050: 942d 313d 5f5e a73d bf2f 7fbd 8042 f03c
00000060: d9be 253e 6e2e f93d ee98 3cbd 17b8 e1bd
00000070: d1f4 bd3c 2d14 5ebd 2de0 d93d bc2b eabd
00000080: 6e51 103e a6bf 85bd 27f3 1dbd 48b3 00be
00000090: d6c8 2e3e 7d35 21be b146 b5bd ce5e 983d
000000a0: c09b 07be 0121 003d 6728 efbd a8c8 33be
000000b0: 1edc 543b 0735 cfbd b0d3 72bd ffe6 1ebe
000000c0: 51c1 b5bd 8192 85be 64bf 27bd 6da1 fd3d
000000d0: 44f5 29bd 374e d13d b399 183e a676 453e
000000e0: 4bf0 613d 40d0 bc3d caaf c7bd 07a3 e0bd
000000f0: cbfb 713d aad4 783a 9fa3 cb3d a7e6 9dbc
00000100: 5bf1 fa3d fff5 b03d d114 323d a8de 36be
00000110: 8db6 9b3d 4afa 17be 5276 25bd efae fb3c
00000120: e7dd 943c c7f5 c23c 1f04 513d ab8b 213d
00000130: 5972 03be 2901 5abd 024d a33d d397 eb3d
00000140: ae7b 123e 5f51 383e 6e54 27bd 643a ef3d
00000150: 083a dbbc a539 f23d 66af 9fbc 5947 07be
00000160: 0d07 abbd b10f 52be bf60 933d ac7b b43d
00000170: ad67 9ebc ae8f 083d ba54 21bd 46c7 7fbd
00000180: f743 d63d f1fc 1cbb 02fc 0a3e fd19 33bb
00000190: 111e 19be c42f 01bd 7212 a83d 6c5f e4bd
000001a0: f867 bcbc b1ca 02be feaa cbbd 43f4 a43d
000001b0: 9dde a3bd 71d6 883d 7790 113d 1a4b 1c3d
000001c0: fd63 79be cce3 c53d 91d2 653d ab9d bd3d
000001d0: 9d46 35be c4fc ae3d da1d 463e b7f7 b5bd
000001e0: ee61 8ebd a4cc e33d a1cd 33bd 78f4 33bc
000001f0: f8aa 0d3e 86d8 c43d 2898 073e d799 273e
00000200: 1ee0 a93d f412 163e 0b1e b83d e33b 8bbd
00000210: 52fb 2ebe 688b 17be 0659 b03d 1367 f0bd
00000220: a6a2 03bc 1fb7 76bd 7bb6 dc3d 4dc1 01be
00000230: c3d8 f73d 5bdc d7bc e6dd 253e b655 b83d
00000240: 5f5f 8bbc 4c20 08be 29a0 d73c a96d e6bd
00000250: 3d81 01be baa9 2e3e 1b7c 363d c45e a5bc
00000260: ba17 1d3d fedb 59be dfaf 7e3d c2e2 21bc
00000270: 915e 11be 41ed a23d 4dcb 033e 7a43 7c3d
00000280: 0c5c 933c 11b4 e0bd f17b ff3d 640c 0dbe
00000290: c92a d63d a7b8 123e 8ee9 623d b639 6abd
000002a0: 1b53 3abe 0607 57bd 3d8c 023e 16a6 5abb
000002b0: feba 27be 967c 613d db53 8c3c 9603 e23d
000002c0: 279c 0e3e add8 1a3e 0305 9e3d 1016 cebd
000002d0: ff3f 40be 8828 2c3e ecf7 a1bd 3b1b 1abd
000002e0: 4ee9 4ebe 1f25 01be 5c86 fbbc 9f58 0c3e
000002f0: 00c0 023d 967b dcbd d81e ea3d d5d4 3d3d
00000300: 2826 553e c99e 31be 1495 c0bd 2945 dbbc
00000310: e0d5 d93d a631 09be ef36 253e 00a1 c43d
00000320: c7c0 15bc 2a00 7e3d 9f89 303d 6b4a 05be
00000330: a2d1 233e 2d5e bfbd 399f 9ebc a823 da3d
00000340: 8f92 1bbe e1cc a43d 9bd6 27bd 5813 dcbd
00000350: efcc ff3d 0bb7 4fbd 08f2 a9bd a6e2 84bd
00000360: 8a13 013e 056e be3c 90ca 4ebc 0356 e3bd
00000370: 5c16 b53d 54a5 e63d 331e d93d deaf 1bbe
00000380: fa4c 0ebe f3ee 6f3d f7be 7abd fc87 ca3d
00000390: af20 ae3c 9001 2ebe 007c 40be 61cb 30be
000003a0: bd33 013e 8f95 203d daef 053e 635f dabc
000003b0: 092a 58be 9fed b7bd 573d d43d fdf1 003e
000003c0: e060 1e3d 6bf8 06be 9523 bb3c 86a3 ff3d
000003d0: ce72 aebd 56b0 bd3d 9a1c 8cbd c3af e23d
000003e0: 65d8 8abd 4990 b43d 2ad0 2f3e 50e2 2bbe
000003f0: 3d10 083e 20c7 8d3d 0bfa e7bd 7c67 d0bd
0.00065348414 -0.0012295196 -0.015685063 0.09694772 -0.15738717 -0.063606314 0.21452157 0.101861596
-0.12066536 -0.2145362 -0.03535488 0.088804826 0.1014611 0.14511074 -0.08920347 -0.14989598
-0.034553707 0.1630841 0.033383653 0.09995692 0.043256357 0.08172297 -0.062301394 0.029328585
0.16186084 0.12167059 -0.046044283 -0.110214405 0.023188027 -0.05421846 0.10638461 -0.11434123
0.14093563 -0.06530695 -0.038561966 -0.1256839 0.170688 -0.1574306 -0.08851374 0.074399576
-0.13243008 0.031281475 -0.11677628 -0.17557013 0.0032479833 -0.10117536 -0.059283912 -0.15517806
-0.08874763 -0.26088336 -0.04095401 0.12384305 -0.04149367 0.102199964 0.14902382 0.19283542
0.0551608 0.09219408 -0.09750326 -0.10968595 0.05907802 0.00094921386 0.099433176 -0.019275023
0.12253066 0.0864067 0.043476883 -0.17858374 0.07603178 -0.14841571 -0.040396042 0.030723063
0.018172218 0.023798836 0.05102932 0.03943984 -0.12836589 -0.053223763 0.079736724 0.115035675
0.14304993 0.1799979 -0.040852003 0.11681059 -0.02676107 0.11827401 -0.019492816 -0.1321081
-0.08350954 -0.20513798 0.07196187 0.08812651 -0.019336546 0.03334015 -0.039387442 -0.0624459
0.10462182 -0.0023954476 0.13572696 -0.0027328723 -0.14952876 -0.031539693 0.08206643 -0.11151013
-0.022998795 -0.12772633 -0.099447235 0.08054402 -0.080014445 0.066815265 0.035538163 0.03815756
-0.24354549 0.096625894 0.056109015 0.092585884 -0.17702718 0.08544305 0.19347325 -0.088851385
-0.06952272 0.111230165 -0.043897275 -0.010983579 0.1383475 0.09611611 0.13241637 0.16367279
0.082947 0.14655668 0.08990105 -0.06798532 -0.17088059 -0.14799273 0.0861073 -0.1173841
-0.008034384 -0.06023323 0.10776993 -0.12671395 0.12101891 -0.02635019 0.16197929 0.09000723
-0.01701325 -0.1329357 0.026321488 -0.11251385 -0.12646957 0.17056933 0.04455195 -0.02018679
0.038352706 -0.21275327 0.062179442 -0.009880723 -0.1419623 0.07955409 0.12870522 0.06158779
0.017988227 -0.10971845 0.12474812 -0.13774258 0.10457379 0.14328252 0.055398516 -0.057183944
-0.18195765 -0.052496932 0.12748809 -0.0033363155 -0.16379926 0.055050455 0.01712983 0.1103584
0.13926755 0.15121718 0.077158 -0.10062802 -0.18774413 0.16812336 -0.079086155 -0.037623625
-0.20206186 -0.12611817 -0.030703716 0.13705681 0.031921387 -0.1076576 0.11431664 0.04634555
0.20815337 -0.17345728 -0.094034344 -0.026766377 0.106364965 -0.13397846 0.16134237 0.09601021
-0.0091402 0.062011875 0.043099996 -0.1301667 0.15997937 -0.093441345 -0.019363033 0.10651332
-0.15192626 0.0804689 -0.040976148 -0.10745877 0.1249026 -0.050711673 -0.08298117 -0.06488542
0.1260511 0.02324582 -0.012621537 -0.1110039 0.08842155 0.112620026 0.10601463 -0.15203807
-0.13896552 0.05857749 -0.061217275 0.09889218 0.02125582 -0.16992784 -0.18797302 -0.17265083
0.12617393 0.03920513 0.13079777 -0.026656812 -0.21109785 -0.089808695 0.10363262 0.12592311
0.038666606 -0.13180701 0.022844115 0.124823615 -0.08517991 0.09262149 -0.06841393 0.1106868
-0.06779555 0.08816583 0.17169252 -0.1678555 0.13287444 0.06922746 -0.11326989 -0.10175988

lstm.bias_ih_l0 f4 [172]
00000000: 1559 68bc 6cc7 adbd 8157 1abe 1270 c7bd
00000010: a6bb de3d d7c1 273d 5ea8 4b3e 8cd9 f7bd
00000020: 5f5b 823c 8638 883d 2994 0cbe 82b8 893d
00000030: 85a1 f83d 6bd6 fd3c 69de b73d e4f5 183e
00000040: 5d4e 3a3d 29b5 c73d 20a0 b1bd 45fb 0a3e
00000050: 8589 3dbc be3e 783d 827d b2bd e3f9 de3d
00000060: 72e6 f03d 5816 5d3d 7588 663d 0031 083e
00000070: 482a aebd 5596 8f3d 836a d4bc 268b b83c
00000080: bfae c2bd e681 3e3e 5da5 19bd 7d28 e5bd
00000090: fba9 09be d494 943d b0dc f0bd 8d68 13bd
000000a0: bb0b 883c f978 92bc e1d5 1b3d 274f 0c3e
000000b0: 75d0 34bb 03ea 5a3c f218 fbbd f71b 063d
000000c0: 0323 df3d 00b9 5a3d 6777 83bd 967a 003d
000000d0: 8b05 b2bc ab94 743d a016 80bd d555 543d
000000e0: d85e abbd a1a6 0bbe 43da 4cbc de45 293e
000000f0: e8f1 f23d fc6f bc3c 5a6a 223e 35e0 b8bc
00000100: b239 083e fc71 91bd f777 383e 16b4 b63c
00000110: 2037 d7bd 2e15 c43d 9327 e93c 0d9b 1d3e
00000120: 8a59 b4bd a57c af3d 1dc6 0fbc 7252 ddbd
00000130: a266 4f3d 1efd 36bd c677 14be 74c3 87bd
00000140: 9a82 123c d404 c43d a6b7 bfbd 6c14 e5bd
00000150: 051a f1bb 2594 873c c085 debd 53f6 16be
00000160: 643d a0bd 2b15 233e 04f7 c1bd eb57 153d
00000170: 1237 08be 4c7a 39be ab1e b5bd 4068 0a3e
00000180: 3e3e 5c3d 2685 a73c bdb5 163e 93df 10bc
00000190: 6c72 f73c 7943 f33d 1175 d6bc 75b9 09bd
000001a0: b56c a33d e00a 6e3d 4f90 88bd f0eb b23d
000001b0: 6d0c b53d 92d7 053d 335d 273d 7801 84bd
000001c0: ec2a e33d 7fa1 a3bd ac72 8e3c a6fe ecbd
000001d0: 979b 0a3e 89cc 8abc 83eb 2cbd 6c6f cdbc
000001e0: eb5d 29be 9e83 563c 110b 5b3d e819 813d
000001f0: 0e9a 23be 83aa 2d3b aa90 bebd c5fc 433c
00000200: 0ff1 ebbd 40ae 033e 2fbe e63c fb2e aabd
00000210: 2f4e d4bd 2bcd ba3c 2989 0e3c e302 fd3d
00000220: 7ff6 143e e023 0ebd 22e0 2e3d d64b c13d
00000230: 8fb1 933d d1bc 7d3d e814 8ebc 4527 13bd
00000240: fbea 743d 6283 e23c fc2d c8bd 7a5d 83bc
00000250: a660 e3bd ef43 dcbd d871 4d3d a546 83bd
00000260: 31c2 163d e008 833d 1828 f0bd ed73 2b3e
00000270: 6d09 b9bc 5ef0 abbc 3fd9 0f3c 149d e73d
00000280: 32d3 693c 5f84 14bd f7e4 7ebd a5bd a23c
00000290: 3a7b 26be 8811 27be 634f d53d b5c0 663c
000002a0: c7bf 233e dc2a 863d 71ef 6dbc 8714 f6bd
-0.014181395 -0.08485302 -0.15072443 -0.097381726 0.10875635 0.040956344 0.19888446 -0.12102041
0.01591271 0.06651406 -0.13728394 0.06724645 0.121401824 0.030986032 0.08977968 0.1493755
0.04548489 0.097513504 -0.086731195 0.13572414 -0.011568432 0.06060671 -0.08715345 0.10887506
0.11762704 0.053976387 0.05628248 0.13299942 -0.08504158 0.070110954 -0.025929695 0.022527289
-0.095059864 0.1860424 -0.03751122 -0.11189363 -0.13443749 0.07254949 -0.11760843 -0.03598838
0.016607156 -0.01787995 0.038045768 0.13702069 -0.002759007 0.013361457 -0.12260617 0.032741513
0.1089535 0.053399086 -0.064192586 0.031366907 -0.021731159 0.059712093 -0.062543154 0.05183967
-0.083676994 -0.13637783 -0.0125032095 0.16530558 0.11862546 0.023002617 0.15860882 -0.022567848
0.13303259 -0.07101819 0.18014513 0.022302669 -0.10508561 0.09574352 0.028461253 0.15391178
-0.08806141 0.08568696 -0.008775261 -0.10806741 0.050634988 -0.044674985 -0.14498815 -0.066290766
0.008942271 0.095712334 -0.093612 -0.11185536 -0.007357838 0.016550133 -0.108653545 -0.14742403
-0.07824209 0.15926044 -0.094709426 0.0364608 -0.13302258 -0.18113059 -0.0884374 0.1351633
0.053770296 0.020449232 0.14717765 -0.008842367 0.030205928 0.11878104 -0.026178868 -0.03362413
0.079797186 0.05811584 -0.0666815 0.08736408 0.08840261 0.032676287 0.040860366 -0.06445593
0.11092171 -0.07989787 0.017388664 -0.11572008 0.13535915 -0.016943233 -0.04221679 -0.025077544
-0.16539733 0.013092903 0.05347735 0.06303769 -0.15976736 0.0026499338 -0.09304936 0.01196212
-0.11520588 0.1285944 0.028166858 -0.08309742 -0.10366475 0.02280291 0.008699694 0.12354066
0.14547156 -0.03470218 0.04269422 0.09438293 0.07211601 0.061947647 -0.017343953 -0.035926122
0.059794407 0.027650539 -0.09774396 -0.016035784 -0.111024186 -0.10755145 0.050157398 -0.06409959
0.03680629 0.06398177 -0.11726397 0.16743441 -0.022587502 -0.02098864 0.008779823 0.11309257
0.014271544 -0.03625905 -0.062230077 0.01986582 -0.16257945 -0.16315281 0.104155324 0.014084031
0.15991126 0.065511435 -0.014522419 -0.12015634

lstm.bias_hh_l0 f4 [172]
00000000: 2f91 133d 9aee 72bd 6379 c93d 898e 113e
00000010: 405b a33d d717 77bd 202b 523e 58c7 a7bd
00000020: d3bd 893b 0c9e 6d3d 9add e1bb e728 1c3d
00000030: beeb 203e d88c adbd 145c 01bd f0cc 1a3d
00000040: 1377 dc3c 891f 03bc c366 b43d 60f1 8abc
00000050: cfc5 6d3d 1b94 18bd d8eb 3b3c 55ba 23be
00000060: 3e6c d03d cfaf a23d 7e53 c43d 7fb4 903d
00000070: 8c1b 183e 81e3 693b 272c 123e 693d b9bc
00000080: a266 ba3d 1e62 b0bd dcdb 98bd d663 4b3d
00000090: 9e6a d73d 6a59 0bbe 87e0 403d ada4 8d3c
000000a0: a641 25bd 7025 d73b c707 a13d 94da 683d
000000b0: 2fd7 a53d 7535 adbd 454d 9b3c d8e0 0ebc
000000c0: 0563 da3d 31c1 293e 8acc 40bd 8a6a ed3d
000000d0: b664 9d3d 6f93 01bd 83ef 67bd 7538 be3a
000000e0: 6ecd 133e 3aff 213e 04d5 273e 5488 153e
000000f0: 25ec a33d a2cb b83d 29cc 913d 71a6 243d
00000100: 1406 213e 327f b73d 3329 823d 5b99 993d
00000110: d730 b4bd 91b7 173d 3b28 4ebd 0a9b 493d
00000120: 5bc9 efbd 0452 7e3d 9f46 963d d094 a53d
00000130: 3173 223e dd1a a1bd f99e e53d 9cc5 ddbd
00000140: 6f4e e1bd 5348 e7bc 933f 093e 79dc 063d
00000150: acd1 27bd 059a 14bd 76f4 e53d ec10 f5bc
00000160: 2aed c13c 4d74 113d fdb7 f0bd ad47 eebc
00000170: 2810 6cbd a986 b1bc fd2c 203e 20b4 203c
00000180: 4373 f8ba 2ff6 203d a257 bf3d 16be f43d
00000190: ffb7 12bd 2f93 e43d b43c 253e c0f9 413e
000001a0: b178 753d f94a b3bd e02f bb3c 4865 db3d
000001b0: e797 50be f29f c43d 8fbc 5d3d 6971 6a3d
000001c0: 32dc 303c d3e7 9d3d 8d0d a93d 9e0a a23d
000001d0: 1f3c eb3c d5b7 0dbc 4fe9 c7bc 0c89 4bbc
000001e0: 2ca1 34be e3d5 18bd ad74 c7bd b9ef 88bd
000001f0: 5a15 553d 6993 033e 8970 29bd 9777 03bd
00000200: 35ba 293d 06c7 07bd fc45 293d cfeb 403d
00000210: 0576 ebbb 3c18 0f3e 9fd5 9ebd 5c91 fe3c
00000220: 2bc3 7d3d b39c 043e 14d3 0e3e 522c ed3d
00000230: 9eb1 723d e97b c8bd 9c92 673d 3eb0 79bd
00000240: c881 59bd 7bf5 05be 79fc fb3d 46ec 023e
00000250: 69a8 853d 3187 0d3e 1267 7abd 31e7 063c
00000260: 3f09 9abd 4466 13be 2b0a dcbd ab0a fd3d
00000270: 9803 a23c a26e 463d 8507 513d 256a acbc
00000280: 837d db3c 0bf9 393d 996e 9abd 3d17 863a
00000290: 6cdd 0d3d 8122 973d a04a 5abc 3701 463d
000002a0: 8d76 313e fbbc b0bd e6aa 89bc 329a 24be
0.03602713 -0.05930958 0.09837606 0.14214529 0.07976389 -0.06032547 0.20524263 -0.08192319
0.004203537 0.058012053 -0.006892872 0.038124945 0.15714929 -0.084741294 -0.031581953 0.0377931
0.026912248 -0.008003124 0.08808663 -0.0169608 0.058049973 -0.03725062 0.011469804 -0.15989049
0.101768956 0.07943689 0.09586237 0.07065677 0.14854258 0.0035688581 0.14274655 -0.02261229
0.09101607 -0.08612464 -0.0746381 0.049655758 0.105183825 -0.13608328 0.047089126 0.017290438
-0.04034581 0.006565742 0.078628115 0.056849077 0.08097684 -0.08457462 0.018957743 -0.008720599
0.10663418 0.16577603 -0.047070064 0.11592586 0.07685225 -0.031634744 -0.0566249 0.0014512675
0.14433834 0.15820017 0.16389853 0.14602786 0.08004025 0.09023215 0.071190186 0.040197793
0.15724975 0.089598075 0.063555144 0.07499953 -0.08798378 0.037040297 -0.050331336 0.049220122
-0.117083274 0.062089935 0.07337689 0.08085024 0.15864255 -0.07866452 0.11211962 -0.108287066
-0.11001288 -0.028232729 0.13403158 0.032925103 -0.040971443 -0.036279697 0.11228268 -0.029915296
0.023672659 0.035511304 -0.11753843 -0.029086912 -0.057632595 -0.021670656 0.15642162 0.00980857
-0.0018955249 0.03929728 0.093428865 0.119503185 -0.035820004 0.111608855 0.16136438 0.18942928
0.059929553 -0.08754534 0.022849977 0.10712677 -0.20370446 0.0960082 0.0541349 0.057237063
0.010794686 0.077102326 0.08254538 0.07912181 0.028715191 -0.008649786 -0.024403242 -0.012422811
-0.17639607 -0.037313353 -0.09739051 -0.066863485 0.052022316 0.12849201 -0.041367088 -0.03209647
0.041437346 -0.033148788 0.041326508 0.047099885 -0.0071857 0.13974088 -0.07755589 0.031075172
0.061953705 0.12950401 0.13947707 0.11580719 0.05925142 -0.09789259 0.056536302 -0.060959093
-0.053102285 -0.13081925 0.12304015 0.12785444 0.06526262 0.13821103 -0.06113345 0.008233831
-0.07521295 -0.1439448 -0.10744127 0.123555504 0.019777104 0.04844535 0.05103256 -0.021046707
0.026793247 0.04540352 -0.07540626 0.0010230314 0.034634992 0.07379628 -0.013323456 0.048341002
0.1733038 -0.08629795 -0.016805124 -0.16074446

lstm.weight_ih_l0_reverse f4 [172, 6]
00000000: 7f8a ed3d 3c5b 043e 7f10 18be 18a0 393c
00000010: 4b4f 5d3d 4b25 ae3d c11a 31be 23ed 0dbe
00000020: d013 a3bd 53a3 eb3d 68f1 043e 7e20 f93d
00000030: 7d84 5b3d 41dc 303e e85a c8bd 6936 e3bd
00000040: bbaf 1e3e aad4 c03d db33 b73d 828d 54bd
00000050: 30d0 0b3e c1c4 b53d 477d 253e 2771 2fbd
00000060: 1d1a 333e d11b e9bd 5561 6d3c ec4d d0bc
00000070: 28c9 353c 6709 91bc 0e80 bdbd 10c2 263e
00000080: 2d4e 943b b488 863e eb28 9bbd eff8 d2bd
00000090: 29ca bcbd 30ba bbbd 43a4 2d3d e847 343e
000000a0: 07b0 21be ad94 92bd d64d 333e f0f6 603e
000000b0: d84b 3cbd aa97 6b3e c54c 463e 128e dabd
000000c0: a00c 07be c7c4 2abe 19ee 48be f7d9 d13c
000000d0: d564 2c3e 15be edbd 666b ea3d b550 48be
000000e0: 799f a23d cafb e13c 955b 203e f945 4c3d
000000f0: e4b6 bdbd bb1d 60bc 72eb febd 5ab9 eebd
00000100: f9d4 64be 1ac8 e1bb 4217 703c 8ce9 d9bb
00000110: 7975 1d3d 05cc f53d 6703 71bc 8072 9fbd
00000120: e4bf 79bc 064c 4bbe 3b16 873d fa4f 1dbe
00000130: a9dd 2cbe bdf0 c13d 9e95 2f3e 0dfe 3abe
00000140: 7c1b a43c d578 143e 21ab cd3d 40ce 53be
00000150: fe42 e93c 4ad1 00be 15b7 b2bd d925 c8bc
00000160: 2768 38be 2464 163d 2afc 263e fa01 86be
00000170: b973 f03d 69fd 8a3c ce35 43be bb4c 2c3e
00000180: a831 69bd ac6c 553e bcb6 9e3d 5d13 bf3d
00000190: 44bc b2bb e1ed 47be 83f2 493e 4812 a3bc
000001a0: ccf0 e03c 892d 58bb bbbb 08be 91cd 6ebd
000001b0: d69f 2b3e 631a 9b3d c378 01be fc7a 17be
000001c0: 95db f8bd 0a7b 10be c4d1 753e e012 983d
000001d0: b51a 5ebd dc75 a4bd e3c9 e63d 0c05 20be
000001e0: 356b a83d db18 863d f538 e1bc 3f05 acbd
000001f0: d8b1 2b3e 8324 173c 9211 363d 1fa8 8cbd
00000200: aa2b 5fbe f2e5 843b 1a00 aebd c982 363d
00000210: 74ab 193e 0aac 1bbe 1974 4bbd 4f23 cebd
00000220: 814e 9c3d d5b0 03be 1f93 c7bd 4500 bf3d
00000230: a3cd 4cbe 28da d4bc be1a e33d 7bfe 803d
00000240: 299a 523d a16c 083e 6d18 763d dd7e 253e
00000250: 4600 18bd 2ccb f7bd 1769 1a3e 8951 13bd
00000260: 5f7e 2f3e 91fd c03d 5450 c23d 6ae0 1b3e
00000270: 81d5 e23d 5008 e43c 8aea 4e3e 778e 963a
00000280: eedb c9bc 8da2 3e3e da7d 0c3e 6df1 debd
00000290: 38b8 363e 7c86 fa3d b7bc 03bd 44e6 e7bd
000002a0: e6df b1bd fffa 19be 00a4 283e e4c2 0abd
000002b0: 08a8 093e 158a 0d3e d283 cb3c c0a7 3e3b
000002c0: f365 10bd 5ac5 fabd 6c52 973c 03cd 013e
000002d0: 8379 86bd b151 3dbe 1fbe e43c db7e 633e
000002e0: 0370 ec3d 0f3c cb3d 48dc 07be 01e5 5a3d
000002f0: c66f a53c a435 5dbe 6b7f 003d 1614 2b3d
00000300: 43bd c5bd e6fe e43d d763 ffbd 588b 3ebd
00000310: 2607 0abd 6198 363e ed60 ac3d e308 023e
00000320: bfd3 103e cb66 2a3e b170 573e 90b6 163e
00000330: 28ae cdbd 0fce 3ebd 3a11 333e 91de 49be
00000340: 6299 16be 95be 3dbd fba8 d13d e5aa 293e
00000350: 4931 12bd d622 f43d d4dd 0f3d 7f72 113d
00000360: 1115 d13b 1d6e 4bbe 0246 3ebe 4845 113d
00000370: 1f90 543d 3293 a03d e96f 50be 2f30 733d
00000380: 85d3 fd3d e065 8fbd 9d84 003e 696d b33d
00000390: 6e7d a43d 8d8d c63d 8d15 803c f71d 0abd
000003a0: d75c 173e 8d45 04be 8eb1 1b3d 402a 04be
000003b0: a42a 91bc 5ad9 043e 9f25 5dbd b137 ebbd
000003c0: 30c3 22be 3621 983d 38f3 38bd 3d79 13be
000003d0: 6750 9dbd aac0 e2bc 6876 abbd 564d 5ebd
000003e0: 1cf4 00be bf75 cf3b eaf4 11bd 5885 11be
000003f0: 194d 093e 056e 1f3d bf75 efbd 513f 72ba
0.11598682 0.12925428 -0.14850043 0.011329673 0.054030698 0.08503207 -0.17295362 -0.13859992
-0.07962763 0.11505761 0.12982714 0.121644005 0.053593148 0.1727152 -0.09782964 -0.11094362
0.15496723 0.094155625 0.089454375 -0.051892765 0.13653636 0.088754185 0.16161071 -0.04283252
0.1749043 -0.11382259 0.014488538 -0.025427781 0.011095323 -0.017704679 -0.0925294 0.16284966
0.004525921 0.2627617 -0.07576164 -0.103013866 -0.092182465 -0.09166372 0.04239298 0.17605555
-0.15789805 -0.07157264 0.17510161 0.21969199 -0.045970768 0.23007074 0.19365223 -0.10671629
-0.1318841 -0.16676627 -0.19622077 0.025616629 0.1683534 -0.11608521 0.11446266 -0.19562037
0.07940573 0.027585883 0.15659936 0.04987142 -0.09263399 -0.013678963 -0.124472514 -0.11656447
-0.22346868 -0.006890309 0.014653983 -0.0066501554 0.03844211 0.12001804 -0.014710284 -0.07785511
-0.015243504 -0.1985322 0.06596037 -0.1536254 -0.16881432 0.09469745 0.17146918 -0.18260975
0.020032637 0.14499219 0.10042406 -0.20684147 0.028474327 -0.12579837 -0.087263264 -0.02443211
-0.18008481 0.036716595 0.1630713 -0.26173383 0.11740822 0.016966539 -0.19063494 0.16826145
-0.05693212 0.20842236 0.077496976 0.09329865 -0.005454572 -0.19524337 0.19721417 -0.019906178
0.02745857 -0.0032986125 -0.13352863 -0.058301512 0.16760191 0.07573392 -0.12643723 -0.14793009
-0.12151257 -0.14109436 0.240058 0.07425475 -0.05422469 -0.080302924 0.112689756 -0.15626925
0.08223573 0.065477096 -0.02749298 -0.08399438 0.16767061 0.009225014 0.04445035 -0.06868004
-0.21794 0.004055732 -0.08496113 0.04455832 0.1500681 -0.15202346 -0.049671266 -0.10065328
0.07632161 -0.12860425 -0.09744858 0.09326223 -0.20000319 -0.025982931 0.11089085 0.06298538
0.05141655 0.13322689 0.060081888 0.16161676 -0.037109636 -0.12099299 0.15079151 -0.03596643
0.1713805 0.09423364 0.094879776 0.15222326 0.11075879 0.027835995 0.20206657 0.001148655
-0.024641003 0.18616696 0.13719884 -0.10885892 0.17843711 0.12232682 -0.032162394 -0.113232166
-0.08685283 -0.15037154 0.16468811 -0.03387727 0.13443005 0.13822205 0.02484313 0.0029091686
-0.035253476 -0.12244673 0.018471919 0.12675862 -0.06566145 -0.18488194 0.027922688 0.2221636
0.11544802 0.09923565 -0.13267624 0.05344105 0.0201949 -0.21602494 0.031371515 0.041767202
-0.096552394 0.111814305 -0.12470215 -0.046519607 -0.033698224 0.17831565 0.084169246 0.12698703
0.14143275 0.16640775 0.21039082 0.1471808 -0.10042983 -0.04658323 0.1748704 -0.19713809
-0.14706948 -0.04632433 0.102373086 0.16569097 -0.035691533 0.11920707 0.03512366 0.035509583
0.006380685 -0.19866224 -0.18581393 0.035466462 0.051895257 0.07840575 -0.2035519 0.059372123
0.1239386 -0.07001853 0.12550588 0.08761103 0.08031736 0.096949674 0.015635276 -0.033719983
0.1478151 -0.12917157 0.038011126 -0.12906742 -0.017720528 0.12973538 -0.053990956 -0.11485232
-0.1589477 0.074282095 -0.045153826 -0.14401717 -0.07681351 -0.02767976 -0.083721936 -0.054272972
-0.1259312 0.006331175 -0.03563396 -0.14211023 0.13408317 0.038923282 -0.1169238 -0.0009241002

lstm.weight_hh_l0_reverse f4 [172, 43]
00000000: 1b76 5fbc a6ca 373e d45c 083d bb4d a5bc
00000010: 3233 71bd d01b d4bd 8e08 363e 1404 23be
00000020: 17ab 67bd 4477 29be be16 e8bd 480e 2d3e
00000030: 33af cd3c d8d4 183e 3a4c 4e3e 1ccc f3bd
00000040: 4a46 95bd e38f b0bd 7da9 a7bd b0c6 1dbe
00000050: 04ab dd3c c789 a4bd 225c 33be ee51 0a3e
00000060: 3048 b9bd 375c c93d c1c0 95bc 14c9 cdbd
00000070: f79a 49bd b536 76bd 6d99 d23d 2f6c 023e
00000080: b40c 20bd 4532 3cbe 1176 06be d4fc ff3d
00000090: f540 ba3d 1471 93bc 1579 2b3e 910c 06bd
000000a0: c797 aa3d 3c34 04be 7b91 2f3c f3ca 903d
000000b0: e3c7 66bd 1988 78bd 5876 28bd 979b c4bd
000000c0: a4df bcbc c7c3 fa3d bcf9 3d3e ce95 b3b8
000000d0: bc41 51bd 7788 c43d 8f4b 78bd 6e32 0f3d
000000e0: d7d0 a4bd 6852 033e 9a5a 043e 6e5d 4b3e
000000f0: fc8d 1fbe 0845 f0bd 7566 f7bd d76b a83c
00000100: 86c8 193e 5258 b43d f6b4 31bd 8cab 55bd
00000110: 38d4 123e 2057 82bd 5544 863d cd4f 17be
00000120: 2f2b 3bbe 622f 24be 0c76 c6bd 728e 673e
00000130: b3e6 a03d f64d 0bbd 8352 5a3e c5ff 4e3d
00000140: 767f cf3d eb6f 74bd 8c1a 6ebc a105 bc3d
00000150: 9c04 1c3e 15c5 4cbe 3b5a 0abd cc5f 22bd
00000160: 16b0 833d 06eb 463b 0184 06be c32e 51be
00000170: 4e9c 023e 16cf 15be 5517 e43d f16e 4b3e
00000180: 6262 bc3d 418a e9bd 3712 543c bd0a 8ebd
00000190: 9f20 3ebe 2d83 dfbd 1362 ab3d 48ec aebd
000001a0: 4057 5c3e 350e 2b3e 35f4 f0bd 4653 3dbc
000001b0: 278e 0a3e 92c6 26bd ac67 9cbd 59e5 debd
000001c0: 4a89 533e 99bc 17be d3e5 4fbd 863c 94bd
000001d0: a409 c3bd 901e a53d 4857 383e ed9f 1ebe
000001e0: bc32 32bd 8747 3dbe 3b8c 61bd 19e9 0cbe
000001f0: 0075 4abe 823c 6d3a 14f5 2bbe 24db 82bd
00000200: 1ce7 0ebb c0cc 123e 32f0 ef3c 94e8 b33d
00000210: 0344 8ebd 8603 4f3e 1103 56bc f66e 85bd
00000220: 9a97 00be 6f5b 8ebd 2440 133e f836 01be
00000230: 6ab7 2fbd 07fb dc3d 7ea8 cabd 7ade ffbd
00000240: 6a5e 63bd 694f d53d bb31 c5bd 2db1 6c3d
00000250: 24c2 343e 4135 203d f9a6 2ebe 9717 e13d
00000260: 0d83 d9bc 0e7e 23be fe9f 1dbe 7440 ff3d
00000270: 782d 213e c169 55be 19bf a13d 8a55 12be
00000280: 34ad 913c 284f b5bd 4f42 073e 8ce7 f03a
00000290: 9a03 853d 6834 6ebd 593c e1bd 4423 86bd
000002a0: 8801 dd3d 9bd9 2ebe c2f3 1d3e 0889 0dbe
000002b0: 0e94 433d dd65 573e cdeb fc3d 205f 083e
000002c0: bccb 8d3d fdbd 8c3d 169d 0d3e 5138 22bd
000002d0: 2f53 f73d 8f79 9f3d 9b88 afbd c977 9c3d
000002e0: be7d ecbd 72bd 083e 60b0 15bd 0a53 3fbe
000002f0: 19ed fdbd 3d31 083e 6fb5 47bd d230 b0bb
00000300: 70a0 423e 2da6 173e d8a4 22be 6d1c 043d
00000310: e098 2bbe b11e 2a3e abb5 ca3c 5ea5 d9bd
00000320: fa7c 4b3c 9886 b63c 92d1 0f3e 63f6 81bc
00000330: 2dbe 503d 7b01 b53d ccf4 26be d909 febd
00000340: 2f01 9fbd e6f0 e93c 6acb 123e 4745 c53b
00000350: d488 cabd df2c e23d c76d 9fbd 6b78 843c
00000360: 78b2 e13d f82a 173e d2b3 50be de7a 8b3d
00000370: bb6b d73d 46d7 633d ebd3 21be 98c2 043d
00000380: abec 1cbd 7d9b 26bd 1e19 24bd 81f3 a73d
00000390: f952 02bd 73ce 0abe 5443 d1bd 80b1 c83d
000003a0: 177f 323d 56de 2e3e fe93 033e e9ee b6bc
000003b0: adb4 bebd 63e9 843d daf4 bebd da13 a5bc
000003c0: 82f0 c93d 8d2c aabb 2532 f93d 16cc 5abd
000003d0: b39f cf3d 7a99 ab3d 4325 73bd 4d7e 743d
000003e0: 14bd dcbc 7a08 9a3e a495 5e3d 1fb5 91bc
000003f0: 38fb 90bd 45e7 acbd 6e74 113e 66ba 143e
-0.013638998 0.17948398 0.033291653 -0.020178666 -0.058886714 -0.10356867 0.17776701 -0.15919524
-0.05655965 -0.16549402 -0.11332463 0.16899979 0.025107956 0.14924943 0.20146266 -0.11904165
-0.07288797 -0.08621194 -0.08186624 -0.15407825 0.027059086 -0.080340914 -0.17515615 0.13507816
-0.09046972 0.09832042 -0.018280389 -0.10048118 -0.04922005 -0.060110766 0.1028317 0.12736581
-0.039074615 -0.18378551 -0.13130976 0.12499395 0.09094421 -0.017998256 0.16745408 -0.032726828
0.083297305 -0.12910551 0.010715838 0.070699595 -0.05634297 -0.060676668 -0.041128486 -0.09599989
-0.023055859 0.12244373 0.18552297 -8.5632884e-05 -0.05108808 0.09596341 -0.060618933 0.034960203
-0.080476455 0.12824404 0.12925187 0.1985986 -0.15581506 -0.11731917 -0.12080089 0.020559235
0.150179 0.08805908 -0.04338547 -0.052165553 0.14338768 -0.06364274 0.06556002 -0.14776535
-0.18278192 -0.160337 -0.096904844 0.22612932 0.078565024 -0.034009896 0.21320538 0.05053689
0.10131733 -0.059677046 -0.014532696 0.09180761 0.15236133 -0.19997056 -0.033777457 -0.03964214
0.0643007 0.0030352487 -0.13136293 -0.20427994 0.12754938 -0.14629778 0.11137263 0.1986654
0.091984525 -0.11403323 0.012943796 -0.06935642 -0.18567131 -0.10913692 0.083683155 -0.08541161
0.21517658 0.16704638 -0.11765329 -0.0115554985 0.1353079 -0.040716715 -0.07636961 -0.10883588
0.2065784 -0.14818038 -0.050756287 -0.072381064 -0.09523323 0.0806247 0.18002045 -0.15490694
-0.043505415 -0.18484317 -0.055065375 -0.13760795 -0.19771194 0.0009049849 -0.16792709 -0.06389454
-0.0021805232 0.14335918 0.029289339 0.08784595 -0.06946566 0.20216188 -0.0130622545 -0.06515305
-0.12557831 -0.06951033 0.14379936 -0.12618625 -0.042899527 0.10790067 -0.098954186 -0.12493606
-0.055509962 0.10415537 -0.09628626 0.057786155 0.17652184 0.039113287 -0.17055883 0.109908275
-0.026551748 -0.15966055 -0.15393063 0.12463465 0.15740001 -0.20841123 0.07897777 -0.14290443
0.017782785 -0.088529885 0.13208888 0.0018379553 0.064948276 -0.058155447 -0.109978385 -0.06549695
0.10791308 -0.17075197 0.15425017 -0.13821805 0.047748618 0.21034952 0.12349663 0.13317537
0.06923625 0.06872175 0.13829455 -0.03960449 0.12076413 0.07786857 -0.08570977 0.07640035
-0.11547421 0.13353518 -0.036545157 -0.1868402 -0.123987384 0.13300033 -0.048757013 -0.0053769136
0.19006515 0.14809485 -0.15883195 0.03225367 -0.16757536 0.1661327 0.02474483 -0.106272444
0.012419933 0.022280976 0.14044788 -0.015864557 0.050962616 0.08838173 -0.1630432 -0.12404222
-0.07763898 0.028557252 0.14335409 0.0060202214 -0.09889379 0.11043715 -0.0778461 0.016170701
0.11020368 0.14762485 -0.20381096 0.068105444 0.10518595 0.055625223 -0.15803497 0.03241214
-0.03831164 -0.04067563 -0.040063016 0.082007416 -0.03181741 -0.13555317 -0.1021792 0.097994804
0.043578234 0.17077002 0.12849423 -0.022330718 -0.09311805 0.064898275 -0.093240455 -0.020151068
0.09860326 -0.005193299 0.121677674 -0.053417288 0.10137882 0.08378883 -0.059361707 0.059690762
-0.026945628 0.30084592 0.054341927 -0.01778656 -0.07079166 -0.08442549 0.1420457 0.1452423

lstm.bias_ih_l0_reverse f4 [172]
00000000: fe5a bb3d b54c 0a3e 6729 46bd 320e 1abe
00000010: 1413 81bd fba6 80bd e043 5e3d 4704 0f3d
00000020: 8467 ed3b 0e84 8f3d 7311 9e3d a356 ff3d
00000030: 55c6 b7bc f5d7 16bc 5ff3 e93c 775b 003e
00000040: 27c0 cebd fb33 223d 6e4f 53bb d02a 253c
00000050: c100 343d 3af4 f93d 5219 0dbe 342d 4abd
00000060: 4151 ce3c d70e eb3c 475e 163e 2eb9 96bd
00000070: d6c5 6b3d ba72 023e b272 a83d 662e adbd
00000080: baeb bebd cff3 f93d f55c 563d 2aea 713d
00000090: 50b9 683d 0af7 dbbd fd99 e7bc 7e33 60bd
000000a0: 79be b6bc 5075 d4bd 8934 31bd d851 12be
000000b0: 0550 9fbd f6ef e3bd 604b e53c af2b cebc
000000c0: 383f 77b9 366b 0f3c 643a a5bc 88af 393d
000000d0: 2a52 f13d 004e 263d e347 3b3e e6ef b6bd
000000e0: 4ff7 463b 0a82 133c aa2b f4bc c26c ab3c
000000f0: ef29 853c eae4 113c d1fc d33c e11f 023e
00000100: 69b6 8a3d 39bf 42bd 609c f63c 93f7 0f3e
00000110: 22f3 ab3d ad52 ec3d 5bb8 0d3e 5c40 8b3c
00000120: a23c 133e d2d6 1d3e ba14 1fbe e110 cabd
00000130: d420 a3bd c318 eb3d d38c 023c 340f 09be
00000140: b40c c9bc 998c 2dbd fd9e ee3d 6e1d 283c
00000150: c985 473e 58f7 ac3c 31f4 9dbd 4ae5 44bc
00000160: 84c1 bc3b 6828 363c 8f5b b33c 6509 e93d
00000170: 4292 06bd 8f95 8b3d d407 0f3d 3ef5 953d
00000180: 8854 abbd c00f 5fbc 8d0a c43d 257d 91bd
00000190: 9a5b fcbd 55dc 473d ffa9 6d3d ba79 3fbc
000001a0: aa34 893d d1bd f83b ca26 17bc c79c 34be
000001b0: 1332 6abd e1a7 3bbd 35ba 23ba 01b8 2fbc
000001c0: 48f0 03bc 5d14 fb3d 2ad7 e6bc 6c70 0cbe
000001d0: f703 fe3d a4c1 a73d fae8 13bb 9ad8 df3d
000001e0: 34da 313e 994a b43d 75d7 293d 52a2 b13c
000001f0: bb76 9dbd d860 d03d e635 8b3d 35a9 a33b
00000200: 1ea1 213d 3fab d6bd d992 483e 3a20 aabd
00000210: baab b4bd 6354 053e a398 c7bd 58f8 8a3d
00000220: f754 bf3d 1aff 46bd c6e0 cabd 7bcb 983d
00000230: 9829 0ebd ada8 92bd 757f e13d e302 893d
00000240: 21c3 16bd d0df b2bd 9cc2 1c3e 863d 65bd
00000250: 7416 113e 10f3 ebbd 13da f43d 7bf3 71bd
00000260: 8a62 153e bfdd a5bd 4df8 adbd 6ce3 c23d
00000270: 1a91 fb3d 260e e13d 439f e43d 34eb e63d
00000280: c0da a6bd 4cd7 c33d d582 53bc 84e5 3ebd
00000290: e894 54bb b3f3 fbbd f6c8 5dbd 1323 2e3e
000002a0: 4f41 df3c 05b6 adbd 1758 96ba 393a cebd
0.09148215 0.13505824 -0.048379328 -0.15044478 -0.06302467 -0.06281849 0.05426395 0.03491619
0.007245006 0.07007609 0.07718172 0.124676965 -0.02243344 -0.009206762 0.028558431 0.12534891
-0.10095244 0.039600354 -0.0032243389 0.010081008 0.04394603 0.12204786 -0.1377919 -0.049359515
0.02518523 0.0286936 0.14684401 -0.07359539 0.057561718 0.12739077 0.082250014 -0.084561154
-0.09322305 0.12204706 0.052334744 0.059061207 0.056817353 -0.10740478 -0.02827167 -0.054736607
-0.022307621 -0.10373938 -0.043262992 -0.14289033 -0.077789344 -0.11129753 0.027990043 -0.025167314
-0.00023579306 0.008753588 -0.020169444 0.045333415 0.1178325 0.04060173 0.18289141 -0.08932476
0.003035981 0.009003172 -0.029805977 0.020925883 0.016255347 0.008904675 0.025877388 0.12707473
0.06773073 -0.047545645 0.030103862 0.14059286 0.08395983 0.11539207 0.13839857 0.016998462
0.14378598 0.15413979 -0.1553525 -0.09866501 -0.07965246 0.11479332 0.007968145 -0.13384706
-0.02454219 -0.042370412 0.11651418 0.010260923 0.19484629 0.021114036 -0.077125914 -0.012017557
0.0057603735 0.011118032 0.021894244 0.11378745 -0.032854326 0.068156354 0.034919575 0.07322167
-0.083657324 -0.013614595 0.09572325 -0.071039476 -0.12322159 0.04879411 0.05802345 -0.011686737
0.06699498 0.0075909873 -0.009225557 -0.17637931 -0.05717666 -0.0458144 -0.00062457036 -0.010725022
-0.008052893 0.12259743 -0.02817877 -0.1371476 0.124031 0.08191231 -0.0022569285 0.10929985
0.17368394 0.08803291 0.04146524 0.021683846 -0.07688662 0.101747215 0.0679739 0.0049945363
0.039460294 -0.10481881 0.19587268 -0.08306928 -0.08821817 0.13020472 -0.0974591 0.06785649
0.09342378 -0.048583128 -0.099061534 0.07460686 -0.034707636 -0.071610786 0.110106386 0.06690004
-0.036807183 -0.08734095 0.15308613 -0.055966876 0.14168721 -0.1152097 0.11955657 -0.05907009
0.14588371 -0.08098935 -0.08494625 0.095160335 0.12283535 0.10989027 0.11163189 0.1127533
-0.08147192 0.09562549 -0.012909611 -0.046605602 -0.0032437388 -0.12302341 -0.05414673 0.17005567
0.027252821 -0.08481983 -0.0011470345 -0.10069699

lstm.bias_hh_l0_reverse f4 [172]
00000000: 28e2 e53d 0ffe de3d 7f52 10bc 2e70 953d
00000010: 80fd a7bb c9d0 0c3e bb60 ee3d 887c 2abe
00000020: 0952 cf3d 39ba 93bd 8580 f03a 6448 3e3e
00000030: ab57 63bd bdf9 ddbd 9493 22be 6c94 3d3e
00000040: 347e b93c bac1 cb3c a50d 12be 0e5c 353e
00000050: 4558 563d 4be2 edbd 832a f6bd fa01 cfbc
00000060: f267 24bc b851 d7bd b924 70bd 6a49 423e
00000070: b104 66bd fa5c 53bd d57d 263e e902 31be
00000080: 9fbc 31bd 60f0 da3d d131 fbbd c62b a73d
00000090: f8d3 25be 6aac b23d 800f 9bbd 98b2 ff3c
000000a0: d047 22bd 563f d23c d15e ec3c 81b3 d3bd
000000b0: 6b77 133e 550a febd e1d8 2cbe fb25 aabd
000000c0: a2f1 0fbd a2ca a13d e41e b63d a25d 033e
000000d0: eeb9 42bd dfd7 b83d ec25 4dbb a8e2 4fbd
000000e0: 68cc edbd 0ac3 113e d457 523d eebc e6bd
000000f0: 395d f73d 40b0 ecbc 2127 3abd e494 7f3d
00000100: bc2b 4fbd 16fb da3d f5f6 adbc 1c2c b13c
00000110: 35ce abbd 43fd 8e3c 06e8 023d cda9 c7bc
00000120: 11e1 823d 8092 ca3d 6500 83bd 6451 073e
00000130: c5e9 47bd 35e1 87bc a7a1 2a3d 5f93 1dbb
00000140: b103 5b3c c0c7 76bc f6f4 8ebd 789d ca3d
00000150: 8ca3 123d 269e f53d b55f e73d 7739 2bbe
00000160: f9d6 063e 1c26 273d 7c6a 153e ca9a 8c3d
00000170: 8e75 963d 0364 063e a187 d83d bee7 dd3d
00000180: 65b9 b0bd cc4c 4ebe f24c 81ba 04d7 a5bc
00000190: 4d1b f53d e780 02be 7902 0abd 49e7 37be
000001a0: 88b0 b33c 5550 a5bd 5287 0bbe 495b 843c
000001b0: 5880 153e 8963 1b3d f7b1 f63d cd48 d13d
000001c0: 3d20 143c 6d88 563d 0acc b93c 6645 ecbd
000001d0: 7239 92bd 8b79 6e3d 5bee 01bd f8b7 bc3c
000001e0: 1212 82bd 2c2e e1bc ff10 1fbd cee2 0e3d
000001f0: be6c 68bd 8eee e6bd a7b2 653d f6dc cabd
00000200: 9ebd f93d 621a c5bc aeef 853d 6ad3 1c3d
00000210: 174a 1fbe eb85 c33d 2dca d3bc a289 dd3d
00000220: 8b14 a9bd 1048 02be c6d7 2f3e 99e1 0e3e
00000230: 2d27 543d 56f1 c3bd 2bda 773d a7a7 913b
00000240: ff45 e4bc 8289 afbc bf83 34bd a2ca 11be
00000250: 366e 3b3d e265 92bd d6a1 f63c 0fec 983d
00000260: fdf6 843d 45b7 23bc 1446 ca3c 0c67 52bd
00000270: 4125 ea3c b169 1fbe 338b 953d 9da5 afbd
00000280: b202 dcbd d7b5 513b cf7a a8bd 1bda ee3c
00000290: a6c9 16be 0a28 5f3d 70f0 003e 33a1 f7bc
000002a0: be36 e53d 7157 293d e1b4 243e b1b3 80bd
0.112247765 0.108883016 -0.008808731 0.07296787 -0.005126655 0.1375152 0.116395436 -0.16649067
0.10123069 -0.072132535 0.0018348849 0.18582302 -0.05550353 -0.108386494 -0.15876609 0.1851365
0.022643186 0.02487265 -0.14263017 0.17710897 0.052330274 -0.116154276 -0.12019827 -0.025269497
-0.010034548 -0.105136335 -0.05862877 0.18973318 -0.056156818 -0.05160234 0.16258939 -0.17286266
-0.043392774 0.10690379 -0.12265361 0.08162646 -0.16194141 0.087242916 -0.07571316 0.03121309
-0.039619267 0.025664967 0.028853806 -0.10336972 0.14401023 -0.124043144 -0.16879608 -0.083080254
-0.03514255 0.07899977 0.08892611 0.12828687 -0.047540598 0.09025549 -0.003130312 -0.050753266
-0.11611253 0.14234558 0.05135329 -0.11266504 0.12078328 -0.028892636 -0.045447472 0.062397853
-0.050578818 0.10692422 -0.021235922 0.021627478 -0.0838894 0.017454749 0.031959556 -0.02437296
0.06390584 0.09891224 -0.063965596 0.13214642 -0.048806924 -0.01658688 0.04165807 -0.002404414
0.013367579 -0.015062273 -0.06980316 0.09893316 0.0358005 0.11993055 0.112975515 -0.1672114
0.13167943 0.04080783 0.14591402 0.06865461 0.073466405 0.13124089 0.10572744 0.10835217
-0.08629111 -0.20146483 -0.000986485 -0.020244129 0.11968098 -0.12744485 -0.033693764 -0.17959322
0.021934763 -0.08071963 -0.1362584 0.01615681 0.1459974 0.03793672 0.12045663 0.10218964
0.009040889 0.0523762 0.022680301 -0.11536674 -0.07139863 0.05822138 -0.031721454 0.023036942
-0.06351103 -0.027487837 -0.038834568 0.034884267 -0.05674433 -0.112759694 0.05607858 -0.09905426
0.1219437 -0.024060432 0.06539856 0.038287558 -0.15555607 0.09547027 -0.02585324 0.10817267
-0.082558714 -0.12722802 0.17172155 0.13953246 0.051795173 -0.095675156 0.060510796 0.0044450345
-0.027865408 -0.021427874 -0.044070955 -0.14237455 0.045759402 -0.07148339 0.030106466 0.074668996
0.06492422 -0.009992425 0.024691619 -0.051367804 0.028582217 -0.15567662 0.07301941 -0.0857651
-0.107427016 0.0031999254 -0.08226549 0.029156735 -0.1472536 0.054481544 0.1259172 -0.030228233
0.11192082 0.041343156 0.16084625 -0.062842734

lstm.weight_ih_l1 f4 [172, 86]
00000000: c6fc d9bd 3919 d43d 6500 71bd c96e da3d
00000010: 5863 963d 4a5c ab3d 1f04 75bd e9a3 eb3c
00000020: e57a 0ebb d8ba 613d 6149 0c3d 0ddb 3fbb
00000030: f9fb c4bd 494d 6c3d ae6d a8bc d564 cdbd
00000040: 6509 50bb 1ba4 00be 0742 7ebd 671e 1c3e
00000050: c124 313e edb3 7bbd d054 de3d 64ff c23c
00000060: 09af 043d 8bd3 5e3c 528e 8cbd f0e3 8c3d
00000070: 8519 e73c bef1 073e 7546 7abd 86cd 973d
00000080: e12d 093e 3b5c 0b3e a41d 4ebd d1ad c43d
00000090: 99b7 183e 108f fa3c 0b02 62bc fe96 ab3c
000000a0: 2ad6 f6bb e5fa b9bd eca9 5dbd ee1f 29be
000000b0: dfff 46bd b321 cf3d ca73 1dbe db18 08be
000000c0: 9815 da3d 1424 f3bd aa97 ff3d 06eb 7a3d
000000d0: 8184 bcbd bb68 933c 9017 793d 0814 53bc
000000e0: 45a7 0b3e 47d0 25bd cc6d f63c 2bd2 413e
000000f0: f7b9 25bd aa3e d43d 5ff2 fcbd 626b 3a3e
00000100: 6c50 d7bc e391 97bd 0c06 de3b 87dd bd3d
00000110: 82a7 a93d 56e6 17bd d847 8b3d 0951 e53d
00000120: 5786 2f3e 4979 203e 8bc0 1fbd 33f8 fb3d
00000130: 09f3 1ebe 378b 16be d46d dfbd 78c3 393d
00000140: b873 2b3c 25c9 073e 359d 52bd d94f b5bd
00000150: 0d8f e33d 5611 dabd 3e6c de3c 0f3b 05bd
00000160: d240 80bd a9d9 20bd e3d0 35bd 3089 253e
00000170: cd3b 6bbd 42d6 01bd 4f2c 00be 234c ec3c
00000180: 2ac5 bebd 3ecf bbbd 07ef b9bd d06d 8c3c
00000190: 8aaa 11bd 2cee e0bc faa5 04bd 21f7 4bbe
000001a0: 42ec 00be 5341 67bd 7f12 9cbd 6d8f 33be
000001b0: ad43 9bbd 9e97 04bc 5f75 c4bc 10db 1c3e
000001c0: 1b2a 403d dcb5 fe3d a719 053c 9756 c0bd
000001d0: f80c 133c cfb3 0bbd 86ed 9abd 0fa2 52be
000001e0: f5ba 323e ff15 0f3e a0ee 243e d0df 943c
000001f0: 1c06 bc3d 64d9 7abd 9b17 fcbc d09f 50bd
00000200: a5ec e23b 27f8 e7bd 04b9 1ebe 2eed 31bd
00000210: ea51 bebd 6b30 443e 0f57 5cbd d14e b3bd
00000220: dd05 8cbb 02e0 e9bc 0c6b 36bc 80f3 983d
00000230: 176a c13d 80e8 1abe cb44 16be fe3e 14be
00000240: 2745 bfbd 5440 233e a568 913d 3a19 693d
00000250: a492 08bc 09e7 a2bd 23cc 003e 2927 113e
00000260: 31a6 e73c 2bea fdbc ff63 173d cb74 d73d
00000270: 163a ddbc 71ac 01be f4ff 813d e337 14be
00000280: 02e7 673d 3dfb dc3d b400 613d 1a38 3f3d
00000290: 68af 8a3c a577 013e 8d24 fdbd eec3 c8bd
000002a0: 16f7 eabc 83e0 9b3b 5c4d cc3c 43cc f2bd
000002b0: 24d9 a9bd 79c3 cfbc 4f32 853d 7b55 96bd
000002c0: 7df3 813d 43a9 5d3d 878f 85bd da37 ad3d
000002d0: ddeb 39be 682b 45be 738b 3abe cacd e13d
000002e0: 859b c53d a661 62bd bc3d 023a 5771 1d3d
000002f0: 5b38 3d3d 6afd 3d3d b618 0d3e 70dc 7a3b
00000300: 64da 0b3e a8eb 8bbb 4ff0 123e ccf5 b83c
00000310: 908f 523e 1c8a b9bb dc4f e8bd 168a 8dbd
00000320: 95fc 123d 7fa8 763d 19bb 32be 8327 da3d
00000330: e162 383c c355 a3bd 610f a33d 008e c4bc
00000340: 9a95 0bbe 25b3 b33c b0e9 06be 6645 22be
00000350: a5db 0bbe e788 fbbc 192c 7c3d cc5d 9e3c
00000360: 8ec7 d83d 6a14 85bc db56 9b3d 5f0c 2bbe
00000370: 910f 993d 9c2c ef3d 9b12 b73d 02f8 ccba
00000380: af81 5b3d 257f 97bc 75f2 acbd c6aa ae3d
00000390: 484d 0d3e b4b9 563d 4475 a2bd 1ded 793a
000003a0: 6d18 8dbd 1826 da3d 9cfb d3bd 2f38 f9bc
000003b0: 39e9 ebbd 7174 6f3d 5699 b5bd 20d4 26bd
000003c0: 7d5b 1f3e a0a5 313d b664 b8bd e92e eebd
000003d0: ef6a 223e a252 11be a7af 233e cf38 2c3d
000003e0: 186a 9ebd 0526 063e 61bd e1bc 259a 0ebd
000003f0: 8fec ac3c 0636 ac3b d541 d6bb b713 c0bd
-0.10643916 0.10356373 -0.058838267 0.10665662 0.07343167 0.08367212 -0.059818383 0.028764682
-0.0021740731 0.05510983 0.034249667 -0.0029274852 -0.096183725 0.057690892 -0.020560112 -0.10028998
-0.003174388 -0.12562601 -0.062074687 0.15245973 0.17299177 -0.061450887 0.108560205 0.02380342
0.03239349 0.01360024 -0.06863083 0.06879413 0.02821041 0.13275811 -0.06110235 0.07412247
0.13396408 0.13609402 -0.050321236 0.09603465 0.14913787 0.030585796 -0.013794432 0.020946022
-0.0075328546 -0.090810575 -0.05411713 -0.16516086 -0.04858386 0.101138495 -0.15376201 -0.13290732
0.1064865 -0.11872116 0.124800995 0.061259292 -0.092049606 0.017994275 0.060813487 -0.012883194
0.13638027 -0.040481832 0.030081652 0.18927829 -0.040460553 0.10363515 -0.12350916 0.18205026
-0.026283465 -0.074008726 0.006775623 0.092707686 0.08283903 -0.0370849 0.068008125 0.11197097
0.1714109 0.15671267 -0.039001983 0.123031996 -0.15522398 -0.14701544 -0.1090962 0.04535243
0.010464601 0.13260324 -0.051419456 -0.0885312 0.11111269 -0.10647838 0.027151223 -0.032527026
-0.062623635 -0.039270077 -0.044388663 0.16165614 -0.057430077 -0.031698473 -0.12516902 0.028844899
-0.0931495 -0.09170388 -0.09078794 0.017142206 -0.03556303 -0.02745732 -0.03238485 -0.19918491
-0.12590125 -0.056458782 -0.07620715 -0.17535181 -0.075812675 -0.008092789 -0.023981748 0.1531794
0.046915155 0.12437031 0.008123792 -0.09391516 0.00897526 -0.034107026 -0.07564835 -0.20569633
0.17454131 0.13973235 0.16106653 0.018173128 0.09180853 -0.061242476 -0.030772975 -0.05093366
0.006925183 -0.11326628 -0.15500265 -0.043439083 -0.092929676 0.19159095 -0.053793963 -0.087552674
-0.00427316 -0.028549198 -0.01113392 0.07468319 0.09444063 -0.15127754 -0.1467468 -0.14477155
-0.09339362 0.15942508 0.071000375 0.056908824 -0.008335743 -0.07954223 0.12577872 0.14175095
0.028277488 -0.030995449 0.036960598 0.10520323 -0.027005237 -0.12663437 0.06347647 -0.14474444
0.05661679 0.107901074 0.05493231 0.046684362 0.016929343 0.12643297 -0.12360487 -0.098029956
-0.028682273 0.0047569885 0.024939232 -0.11855366 -0.082933694 -0.025361763 0.06503736 -0.07340523
0.0634527 0.0541165 -0.06521516 0.084579185 -0.18156381 -0.1925484 -0.18217258 0.11025579
0.096488036 -0.055268906 0.00049683056 0.038438167 0.046196323 0.046384253 0.13778958 0.0038278364
0.13657528 -0.004270036 0.14349483 0.022578143 0.20562577 -0.005662216 -0.11343357 -0.069111034
0.035885412 0.060219284 -0.17454185 0.106520675 0.011254043 -0.07975342 0.07961918 -0.023993492
-0.13631287 0.021936009 -0.13175082 -0.15846786 -0.13658006 -0.030704929 0.061565492 0.019331835
0.10584937 -0.016245086 0.07584926 -0.16703938 0.07473672 0.116784304 0.089390956 -0.0015637877
0.053590473 -0.018493244 -0.084446825 0.08528666 0.13799012 0.052423194 -0.07932523 0.0009533929
-0.068894245 0.10651797 -0.10350725 -0.030422298 -0.11519093 0.058460657 -0.08867137 -0.040729642
0.15562244 0.043370843 -0.09003584 -0.11630041 0.15861104 -0.14191678 0.15984975 0.042046364
-0.077350795 0.13100441 -0.027556123 -0.034814972 0.021108894 0.0052554635 -0.0065386095 -0.0937876
